cw-monitor-dnn/morse_lstm_model_v3.onnx (onnx, 481749 bytes, 10 tensors)

fc1.weight f4 [32, 64]
0.097118326 0.11502683 -0.14447021 -0.112707436 0.023186233 0.1299005 0.0740267 0.020990929
0.006527355 -0.12098273 0.047827456 -0.10709079 -0.14412126 0.015710281 -0.07473888 0.07199278
-0.12444945 -0.088841304 0.08817314 0.17953584 -0.21434517 -0.11232759 0.15391031 0.08742233
-0.14692904 0.042970926 0.04271318 -0.08122052 -0.11609299 0.152899 0.07860708 0.084887765
0.09570748 -0.08459924 -0.058899537 -0.029344585 -0.04945332 -0.04324611 0.0958941 -0.09224272
0.07468315 -0.09088467 0.022962246 0.12258639 -0.09708379 -0.11817583 0.07549177 0.12750745
0.01734516 0.0040024784 0.07774644 -0.08213278 0.05783311 -0.011039538 0.0023317432 0.051311288
-0.054212175 -0.08044353 -0.15681435 0.06367041 -0.09115778 0.030721165 -0.023850355 -0.0077799684
-0.010044604 0.09655664 0.047547303 -0.062143642 -0.10347608 -0.08549577 0.10947583 -0.14021268
-0.046145443 -0.010074277 0.03008614 0.079575405 0.04061114 -0.027378777 0.036324248 0.016939571
-0.061043028 0.14043224 0.09315354 0.04834043 -0.120755844 -0.0677256 0.029261105 -0.14162217
0.03672136 -0.013297888 -0.047713894 0.058629885 0.013355557 -0.05501947 -0.06817667 0.04469236
-0.059427157 -0.027526863 -0.047105253 0.08771788 -0.07641981 -0.01693536 0.049233716 0.10024428
-0.0043857144 0.018764703 0.114381954 0.15819666 -0.119049914 -0.077935666 -0.042436816 -0.02470254
0.028118586 -0.056181952 -0.07215961 0.025644872 0.05276165 -0.100662954 0.09539098 -0.11509728
0.13180114 -0.02900476 -0.09170242 0.09386598 -0.11860557 -0.048838176 0.010363606 0.013629556
0.10615533 -0.01637918 0.002887318 -0.009245981 -0.014662848 0.067552134 -0.0016619292 0.004415787
0.022501165 -0.1359794 -0.044499774 -0.0023168994 -0.03509042 -0.013723861 0.014281717 0.017686011
-0.11809237 0.07031245 -0.04717676 0.041118447 -0.035151623 -0.010773801 0.042138994 0.038238857
0.03591353 0.050896086 -0.00071876496 0.060943305 -0.05902165 0.100733556 0.017430661 0.016927512
0.10811812 -0.02049985 -0.030642664 -0.03310609 0.066086024 -0.0875925 0.065022856 0.011113886
0.040703937 0.03567655 0.09774885 0.01158847 -0.15190238 0.03199859 0.17038888 0.03648076
-0.07128576 -0.020119157 -0.119814426 -0.018062403 0.0055241347 0.04873535 -0.0034748637 -0.034500554
-0.055740844 0.022293735 0.020485282 0.06325961 0.04645452 0.040938 -0.020672988 -0.030395623
0.112536594 -0.056673966 0.03292446 -0.048775095 -0.0148857655 0.014122698 0.06939945 -0.055004705
-0.093127 -0.00017618413 -0.08628866 0.03143285 0.02960075 -0.018680694 -0.019391065 0.0030296831
0.08363036 0.08588866 0.10317586 0.075839646 -0.014697765 -0.075182244 -0.096595384 0.03441619
0.056233034 0.10587171 -0.072893985 -0.09598748 0.034206733 0.081036255 -0.035953976 -0.03696811
0.09496328 0.10173598 -0.055759728 -0.14613068 -0.07021547 0.019843586 -0.03662847 0.040836018
-0.0017684654 0.037675705 0.008485168 0.018975426 -0.07101358 -0.018368538 -0.05353159 -0.054142047
-0.051337745 -0.04661959 -0.00627857 0.110630535 -0.07567391 0.12493328 -0.098662205 -0.06541836
-0.14173426 0.059537478 -0.026525794 -0.05719023 -0.0243286 0.078973405 -0.044194683 -0.02001871
00000000: f9e5 c63d 3093 eb3d 00f0 13be 28d3 e6bd
00000010: 0ef1 bd3c a304 053e 4f9b 973d 2bf5 ab3c
00000020: 6ce3 d53b cbc5 f7bd b9e6 433d 6b52 dbbd
00000030: 8694 13be d9b2 803c b310 99bd f370 933d
00000040: 5adf febd 6ef2 b5bd 1f94 b43d 3ed8 373e
00000050: 4d7d 5bbe 020c e6bd aa9a 1d3e 7b0a b33d
00000060: 9174 16be 4802 303d 04f4 2e3d f256 a6bd
00000070: 29c2 edbd 8e91 1c3e c0fc a03d a3d9 ad3d
00000080: 4902 c43d 5e42 adbd a440 71bd 0e64 f0bc
00000090: 918f 4abd d522 31bd 2064 c43d c0e9 bcbd
000000a0: 7bf3 983d be21 babd 521b bc3c 930e fb3d
000000b0: ded3 c6bd 2b06 f2bd 6e9b 9a3d 5091 023e
000000c0: 7017 8e3c 3927 833b 8739 9f3d 3b35 a8bd
000000d0: 69e2 6c3d 2edf 34bc 29d0 183b c92b 523d
000000e0: 960d 5ebd 94bf a4bd f193 20be a265 823d
000000f0: eeb0 babd f4aa fb3c d261 c3bc 1bef febb
00000100: 1f92 24bc 7dbf c53d f6c0 423d 558a 7ebd
00000110: 44eb d3bd 6818 afbd dd34 e03d ea93 0fbe
00000120: 0103 3dbd 950e 25bc 3577 f63c 6ef8 a23d
00000130: de57 263d 7549 e0bc bcc8 143d dbc4 8a3c
00000140: 4108 7abd 78cd 0f3e 48c7 be3d 9d00 463d
00000150: d74e f7bd b8b3 8abd fcb4 ef3c 6705 11be
00000160: 2369 163d 63df 59bc a56f 43bd e425 703d
00000170: 44d1 5a3c 195c 61bd 36a0 8bbd 560f 373d
00000180: e469 73bd 0480 e1bc 70f1 40bd 6fa5 b33d
00000190: fd81 9cbd 06bc 8abc 4ba9 493d e04c cd3d
000001a0: 0ab6 8fbb 6fb8 993c 1641 ea3d 4efe 213e
000001b0: 71d0 f3bd bc9c 9fbd 3ad2 2dbd fb5c cabc
000001c0: f358 e63c 0c1f 66bd 6bc8 93bd 3215 d23c
000001d0: 9a1c 583d 6128 cebd 595c c33d 1fb8 ebbd
000001e0: e1f6 063e 649b edbc 7ace bbbd cf3c c03d
000001f0: 7ae7 f2bd 8a0a 48bd 1dcc 293c 804e 5f3c
00000200: f767 d93d a12d 86bc 2839 3d3b 757c 17bc
00000210: 713c 70bc c658 8a3d 17d5 d9ba 4eb2 903b
00000220: 5d54 b83c 2f3e 0bbe 6545 36bd 1fd7 17bb
00000230: f9ba 0fbd 0cda 60bc ddfd 693c 41e2 903c
00000240: 6ada f1bd f9ff 8f3d 6b3c 41bd d16b 283d
00000250: 26fb 0fbd 9984 30bc f099 2c3d 59a0 1c3d
00000260: 111a 133d 6a78 503d 806b 3cba b09f 793d
00000270: b0c0 71bd 654d ce3d bfca 8e3c 91ab 8a3c
00000280: 086d dd3d 4def a7bc 5306 fbbc 409a 07bd
00000290: 1c58 873d b263 b3bd b42a 853d 0417 363c
000002a0: 2cb9 263d 9321 123d 8d30 c83d 91dd 3d3c
000002b0: 4c8c 1bbe f410 033d 6c7a 2e3e d96c 153d
000002c0: 45fe 91bd eed0 a4bc 4461 f5bd 9bf7 93bc
000002d0: cd03 b53b b89e 473d 8aba 63bb 7450 0dbd
000002e0: 8350 64bd 5aa1 b63c c0d0 a73c 418e 813d
000002f0: 1847 3e3d 9bae 273d 665a a9bc 3e00 f9bc
00000300: 9679 e63d f622 68bd ccdb 063d 65c8 47bd
00000310: 6de3 73bc e462 673c 4d21 8e3d 9d4c 61bd
00000320: 5eb9 bebd 11be 38b9 1cb8 b0bd bbbf 003d
00000330: 467d f23c 4108 99bc 03da 9ebc a68d 463b
00000340: 6546 ab3d 65e6 af3d de4d d33d d151 9b3d
00000350: e5ce 70bc 26f9 99bd cdd3 c5bd fef7 0c3d
00000360: 9c54 663d 44d3 d83d 7149 95bd 1595 c4bd
00000370: 5c1c 0c3d 56f6 a53d 7a44 13bd df6b 17bd
00000380: 1c7c c23d f45a d03d 5064 64bd 48a3 15be
00000390: 21cd 8fbd 048f a23c bc07 16bd ab43 273d
000003a0: dacb e7ba d751 1a3d 6005 0b3c 5a72 9b3c
000003b0: 916f 91bd 9e79 96bc f143 5bbd 0dc4 5dbd
000003c0: 8747 52bd 2ff4 3ebd 76bc cdbb 4392 e23d
000003d0: ecfa 9abd 05dd ff3d 690f cabd 10fa 85bd
000003e0: c922 11be 92dd 733d 9f4c d9bc 4d40 6abd
000003f0: c64c c7bc cfbc a13d 7c05 35bd 47fe a3bc

fc1.bias f4 [32]
-0.07816258 -0.07622815 0.09016318 -0.06084985 -0.114359275 0.07893372 -0.044906773 0.13549796
0.033847075 0.012162334 0.05408893 0.056331795 -0.06257575 -0.010864508 -0.090625174 0.115020804
0.070332564 0.1485519 0.019994373 -0.15100555 0.12708482 -0.123185016 -0.07216704 -0.03306975
-0.08631122 0.04111032 -0.01859415 -0.07649818 0.038803447 -0.14406767 -0.011344469 0.03689732
00000000: b413 a0bd 811d 9cbd 79a7 b83d b13d 79bd
00000010: 3235 eabd 01a8 a13d 2af0 37bd fabf 0a3e
00000020: 3ba3 0a3d 8744 473c 5b8c 5d3d 2bbc 663d
00000030: b727 80bd 0d01 32bc b199 b9bd 0790 eb3d
00000040: 850a 903d fd1d 183e 3dcb a33c 33a1 1abe
00000050: 8622 023e 6d48 fcbd 50cc 93bd 2574 07bd
00000060: f0c3 b0bd 4b63 283d c252 98bc 14ab 9cbd
00000070: 5df0 1e3d 7a86 13be 27de 39bc a521 173d

fc2.weight f4 [5, 32]
0.095279485 0.020917919 -0.008018739 -0.13495235 0.028315648 -0.04079187 0.03731695 -0.005530262
-0.191016 -0.054567944 0.0582379 -0.09152321 -0.014889878 0.08599086 -0.09446103 -0.0123505
-0.05824395 -0.10111491 -0.058460828 -0.04241084 0.0022038394 -0.094011605 -0.16919939 -0.08328364
-0.15918887 0.16650699 -0.1415498 0.08578772 0.15282723 -0.009043379 0.11336997 0.1097717
-0.107415594 -0.04583507 0.054009363 -0.12478047 0.031954825 0.016009487 0.08854549 -0.08433981
0.13516667 0.11261618 -0.09605858 -0.034179237 -0.022637092 0.12063084 0.112388425 -0.034760997
0.05788561 -0.10024313 -0.158648 0.14602901 0.03463408 0.120544836 0.13366131 0.09127677
0.008502073 -0.035247326 0.12883763 -0.011106605 0.019973652 -0.059913203 -0.0028467327 0.04714612
-0.10467416 -0.09842886 0.15186945 0.08978264 -0.017202603 0.013489206 -0.09524686 -0.03129406
-0.012791495 0.06758421 -0.010242923 0.064240284 0.07528139 0.10240846 0.038302153 -0.03787842
0.19321239 -0.043365266 -0.10371565 0.1748682 0.0069287377 -0.118858576 0.098780386 -0.046176266
-0.120440386 0.07586332 -0.09532371 0.021246353 0.002890131 0.052738763 0.17610787 0.18150552
-0.11683125 0.089767344 -0.01856344 -0.14105752 -0.022694755 -0.079083756 0.10064284 -0.07540873
0.048301764 0.05771246 -0.17911838 0.019749874 -0.14035764 0.092349544 -0.19982369 -0.04554965
0.01105156 -0.1173356 -0.035462897 -0.0062013934 -0.048192326 -0.19130865 0.16181433 0.063581035
0.13596599 0.011970237 0.12639639 -0.07816294 0.11385254 -0.080807954 0.07734167 -0.002462031
-0.018094612 -0.073299944 -0.14862168 -0.16230097 -0.11561816 -0.1589309 -0.03275262 -0.24523833
-0.111045875 -0.0326717 -0.11001997 -0.2008243 0.09658344 -0.1662547 0.1286064 -0.24077082
0.061637767 -0.24727681 -0.14867635 -0.08667966 -0.13637602 0.12507905 0.022026313 -0.031903867
0.13687612 -0.04673977 0.04302543 0.014435303 -0.1422426 0.14550857 -0.030253645 0.07952239
00000000: e421 c33d 0e5c ab3c 0761 03bc f330 0abe
00000010: 38f6 e73c 6015 27bd a8d9 183d 3337 b5bb
00000020: b399 43be a382 5fbd dd8a 6e3d 8570 bbbd
00000030: adf4 73bc fa1b b03d c974 c1bd c059 4abc
00000040: 3591 6ebd 5515 cfbd 9f74 6fbd fdb6 2dbd
00000050: 4a6e 103b 2889 c0bd 9b42 2dbe 9d90 aabd
00000060: 6802 23be cf80 2a3e 6ef2 10be 79b1 af3d
00000070: be7e 1c3e ae2a 14bc 842e e83d fccf e03d
00000080: b5fc dbbd 8ebd 3bbd ec38 5d3d e78c ffbd
00000090: 10e3 023d 5426 833c 5657 b53d 5aba acbd
000000a0: 2269 0a3e 50a3 e63d 5cba c4bd 87ff 0bbd
000000b0: 6c71 b9bc 4d0d f73d e72b e63d 8c61 0ebd
000000c0: 7619 6d3d 454c cdbd 9f74 22be a188 153e
000000d0: 77dc 0d3d 36e0 f63d 83de 083e 51ef ba3d
000000e0: 474c 0b3c 805f 10bd 03ee 033e 7af8 35bc
000000f0: c99f a33c 8c67 75bd 4090 3abb 4a1c 413d
00000100: 685f d6bd 1295 c9bd aa83 1b3e f6df b73d
00000110: 79ec 8cbc d501 5d3c c910 c3bd 332e 00bd
00000120: 6b93 51bc 9769 8a3d efd1 27bc 6990 833d
00000130: 212d 9a3d 87bb d13d b8e2 1c3d 6726 1bbd
00000140: 78d9 453e c79f 31bd df68 d4bd a610 333e
00000150: 770a e33b 206c f3bd 5f4d ca3d 5323 3dbd
00000160: 73a9 f6bd 3a5e 9b3d 1439 c3bd d50c ae3c
00000170: 5a68 3d3b 9a04 583d 9f55 343e 95dc 393e
00000180: 3945 efbd f1d7 b73d 5b12 98bc 6271 10be
00000190: 5aea b9bc aaf6 a1bd d51d ce3d e46f 9abd
000001a0: 12d8 453d e763 6c3d cf6a 37be 7dca a13c
000001b0: eab9 0fbe c221 bd3d 959e 4cbe 4592 3abd
000001c0: 9a11 353c a64d f0bd 8b41 11bd 0f35 cbbb
000001d0: 5165 45bd 6ae6 43be a8b2 253e c636 823d
000001e0: ab3a 0b3e d01e 443c 0e6e 013e e413 a0bd
000001f0: 852b e93d a47e a5bd 4f65 9e3d 075a 21bb
00000200: 273b 94bc 481e 96bd 4830 18be 3a32 26be
00000210: 37c9 ecbd c8be 22be 9c27 06bd c21f 7bbe
00000220: 056c e3bd c3d2 05bd 2652 e1bd e3a4 4dbe
00000230: 8acd c53d ac3e 2abe 65b1 033e a08c 76be
00000240: e277 7c3d 2236 7dbe 9d3e 18be 1b85 b1bd
00000250: 28a6 0bbe b914 003e 8770 b43c a1ad 02bd
00000260: 4129 0c3e 3372 3fbd 6f3b 303d 0d82 6c3c
00000270: 0ba8 11be 3300 153e 7ed6 f7bc a3dc a23d

fc2.bias f4 [5]
0.13530993 -0.025223408 0.30354577 -0.1218633 -0.3957939
00000000: b08e 0a3e 52a1 cebc 5a6a 9b3e 7793 f9bd
00000010: 80a5 cabe

onnx::LSTM_195 f4 [1, 512, 2]
0.0874528 -0.19403511 -0.13213466 0.14278321 -0.057820763 0.005312228 -0.048259884 -0.10216166
0.2023153 -0.09398275 0.12633835 0.037986323 0.09697569 -0.14407426 -0.08290548 -0.061957803
-0.15012082 -0.10951297 -0.026732098 -0.04208466 0.0063746134 -0.017794851 0.1794522 -0.020217368
-0.10422328 -0.05504668 0.09461795 -0.22121057 0.018414684 0.0073242327 -0.02380231 -0.076190665
0.047744922 -0.15353245 -0.02542218 -0.12736008 0.026035683 0.03414628 0.15126425 -0.05748233
0.095425494 0.05130429 -0.07691536 0.06053594 -0.1331198 0.033778522 0.05553481 -0.072559595
0.027698427 -0.036118004 -0.02052754 -0.19772512 -0.13385007 -0.01985977 0.0036120818 -0.16344097
0.17627402 -0.14027435 0.020591432 0.075352676 -0.068439685 0.05389965 -0.09490245 0.15714122
-0.16797592 -0.15179643 0.09228473 0.05517621 0.17507878 -0.101589404 0.046437535 -0.109733246
-0.007929922 -0.1926425 0.015014492 0.028457304 0.027500251 -0.02366848 -0.07381097 -0.10273767
-0.020986257 0.039852202 0.06882333 -0.11403818 0.11227766 -0.06025315 0.0840916 0.021454329
0.14604075 -0.017103756 0.06897488 -0.090014875 0.042494297 -0.19380741 -0.08188712 0.048591755
-0.07866292 -0.056145173 0.3248041 -0.10666833 -0.030165706 -0.11409529 0.0707584 0.04838149
-0.23421189 0.12282356 0.11670648 -0.0012800272 0.08616561 -0.21806422 0.07454014 0.035458993
-0.07238377 -0.0037822276 0.046083182 -0.06658788 0.29532996 -0.23669924 -0.032962877 -0.046423234
0.09461071 -0.0022621783 0.18819636 0.019008547 0.017918082 0.07649332 -0.08317274 0.07352527
-0.06807494 -0.18971887 -0.041290857 0.090431206 -0.21182063 0.07588956 -0.072769925 -0.09937683
0.0072504785 0.07373079 0.21406595 -0.061869234 -0.02974276 -0.30785677 -0.04473043 -0.047176253
-0.19546773 -0.08262929 0.06742771 0.032618787 0.078318596 -0.07276907 -0.0060925507 -0.011781749
0.021082627 0.05104435 -0.0061950902 -0.17975616 -0.05394503 0.026270496 -0.05008091 -0.061763853
0.07426979 0.022680782 -0.077151135 -0.10189869 0.1316152 -0.09610004 0.040852915 0.120826945
-0.04234473 0.0041349647 -0.177414 0.13768283 -0.037446413 -0.051176522 0.067189395 0.09430682
0.103388526 0.041544724 -0.15817034 -0.13751248 -0.17799534 0.053706627 0.11520369 0.0019848002
-0.061227467 -0.19993436 -0.05197982 0.004049484 0.12481944 -0.18035768 0.0109052025 0.0026709049
0.08084405 -0.110819556 -0.021168236 -0.080583036 0.05814251 -0.044757966 0.12190638 0.094071224
-0.006792092 -0.12057447 -0.10773971 -0.029657561 0.012674989 -0.06318636 0.015466871 -0.033747926
0.023983402 0.08481716 0.005932854 -0.15159747 -0.055781864 -0.13605942 0.043339424 0.0019106013
-0.0969727 -0.0200722 0.13313194 -0.03317756 0.056581113 -0.06338993 -0.08858915 -0.063904084
0.17380418 -0.193033 -0.103682 -0.1263714 -0.04686459 -0.13229448 0.1052267 0.043256305
0.07032647 -0.28684834 0.049005315 -0.006061139 -0.14066629 0.056575432 -0.11022194 -0.03956242
0.021748247 -0.21285418 -0.017564587 -0.040010206 -0.021159504 -0.02134463 -0.22335088 0.0034426374
0.19297722 -0.18472384 0.14783795 -0.13810754 0.17428859 -0.053954598 -0.08003953 -0.115833044
00000000: 741a b33d 24b1 46be 4f4e 07be c335 123e
00000010: 77d5 6cbd 3312 ae3b 28ac 45bd 223a d1bd
00000020: be2b 4f3e 077a c0bd d75e 013e 8c97 1b3d
00000030: 319b c63d 3488 13be 59ca a9bd 77c7 7dbd
00000040: 46b9 19be 5648 e0bd 46fd dabc f760 2cbd
00000050: 22e2 d03b 82c6 91bc 51c2 373e e59e a5bc
00000060: 0473 d5bd a178 61bd 0ec7 c13d 0685 62be
00000070: 64da 963c 1e00 f03b 10fd c2bc da09 9cbd
00000080: 2e90 433d 9c37 1dbe 2d42 d0bc ae6a 02be
00000090: c948 d53c f8dc 0b3d 04e5 1a3e 9772 6bbd
000000a0: 716e c33d 7224 523d cd85 9dbd 89f4 773d
000000b0: 8f50 08be 595b 0a3d 7878 633d 209a 94bd
000000c0: d0e7 e23c 79f0 13bd 5f29 a8bc 7478 4abe
000000d0: fe0f 09be f5b0 a2bc adb8 6c3b 125d 27be
000000e0: 2d81 343e 14a4 0fbe 5daf a83c 8152 9a3d
000000f0: 1b2a 8cbd e1c5 5c3d 375c c2bd a1e9 203e
00000100: e101 2cbe 8670 1bbe c7ff bc3d 7300 623d
00000110: da47 333e 1b0e d0bd 4935 3e3d d3bb e0bd
00000120: 81ec 01bc 1344 45be 58ff 753c 4b1f e93c
00000130: 3548 e13c 66e4 c1bc 352a 97bd 2168 d2bd
00000140: 5feb abbc 103c 233d 3ff3 8c3d d98c e9bd
00000150: d4f1 e53d 02cc 76bd 3738 ac3d fdc0 af3c
00000160: b58b 153e 2d1d 8cbc b442 8d3d b859 b8bd
00000170: 800e 2e3d 7375 46be 6fb4 a7bd 2608 473d
00000180: 061a a1bd 7bf8 65bd b94c a63e ed74 dabd
00000190: 121e f7bc cbaa e9bd c8e9 903d ab2b 463d
000001a0: 3ed5 6fbe eb8a fb3d cf03 ef3d 96c6 a7ba
000001b0: 9877 b03d 3a4c 5fbe 80a8 983d 733d 113d
000001c0: f13d 94bd 40df 77bb b8c1 3c3d 3a5f 88bd
000001d0: 7d35 973e 4961 72be 1504 07bd 4a26 3ebd
000001e0: 43c3 c13d 0e41 14bb 8cb6 403e d0b7 9b3c
000001f0: f1c8 923c 88a8 9c3d 7856 aabd 6b94 963d
00000200: e06a 8bbd aa45 42be 9a20 29bd ff33 b93d
00000210: 82e7 58be fc6b 9b3d 6608 95bd 1486 cbbd
00000220: 6c95 ed3b 2b00 973d 1b34 5b3e 986a 7dbd
00000230: 17a7 f3bc 679f 9dbe 4137 37bd e33b 41bd
00000240: b128 48be 8c39 a9bd 8a17 8a3d 479b 053d
00000250: 8065 a03d f307 95bd 05a4 c7bb 3d08 41bc
00000260: 79b5 ac3c e113 513d 2f00 cbbb 0012 38be
00000270: 77f5 5cbd 3935 d73c a421 4dbd 18fc 7cbd
00000280: c21a 983d 0ccd b93c 6a01 9ebd 43b0 d0bd
00000290: 23c6 063e 19d0 c4bd 6355 273d 1e74 f73d
000002a0: ab71 2dbd 997e 873b 04ac 35be bafc 0c3e
000002b0: 6961 19bd 799e 51bd 989a 893d ef23 c13d
000002c0: 5dbd d33d cd2a 2a3d 68f7 21be 12d0 0cbe
000002d0: 6944 36be 7bfb 5b3d eaef eb3d 6c13 023b
000002e0: a7c9 7abd 98bb 4cbe cbe8 54bd 89b1 843b
000002f0: 56a1 ff3d afaf 38be bcab 323c 590a 2f3b
00000300: 9191 a53d 5df5 e2bd 0269 adbc b808 a5bd
00000310: d726 6e3d 2154 37bd 0daa f93d 6aa8 c03d
00000320: 3390 debb bfef f6bd a3a6 dcbd 6af4 f2bc
00000330: c2aa 4f3c da67 81bd c268 7d3c 443b 0abd
00000340: d778 c43c 9fb4 ad3d 6368 c23b 5e3c 1bbe
00000350: 867b 64bd 2953 0bbe ae84 313d 246d fa3a
00000360: 9f99 c6bd 746e a4bc bd53 083e 31e5 07bd
00000370: 99c1 673d 94d2 81bd 3a6e b5bd 25e0 82bd
00000380: b9f9 313e 71aa 45be 3a57 d4bd 8167 01be
00000390: 16f5 3fbd 3478 07be 1981 d73d 862d 313d
000003a0: 5307 903d c9dd 92be ccb9 483d 859c c6bb
000003b0: d30a 10be a4bb 673d 0abc e1bd 340c 22bd
000003c0: 6129 b23c 72f6 59be 9ce3 8fbc bee1 23bd
000003d0: b256 adbc efda aebc 18b6 64be df9d 613b
000003e0: d29b 453e 3f28 3dbe d562 173e 106c 0dbe
000003f0: b578 323e 7fff 5cbd c4eb a3bd e039 edbd

onnx::LSTM_196 f4 [1, 512, 128]
0.025220897 -0.22178754 0.024751918 -0.0053810193 0.0097863395 0.12721018 0.112699755 -0.0073811635
-0.08627192 -0.025490154 -0.1595895 0.0032983918 -0.07085284 -0.04671822 0.048489764 -1.8625542e-05
0.18652876 0.09392911 -0.052531783 0.035499107 -0.10047958 -0.08903745 -0.074586794 0.11650487
0.10102416 0.039194126 -0.14521371 -0.08554087 0.13821027 -0.04205417 0.09168935 -0.0053727636
0.0015745073 -0.0759785 0.075716764 -0.13165623 0.053841487 -0.084179625 -0.01848679 -0.0071176803
-0.002869798 -0.02379671 -0.10685138 -0.052770395 0.103865355 -0.06516783 0.12985088 -0.21000206
-0.1004051 -0.02326163 0.1820392 -0.10719636 0.0034541925 0.04583324 -0.11702963 -0.047677603
-0.11209441 0.19633687 0.029166538 0.10171356 0.117134444 -0.013447263 -0.1640811 0.029360002
-0.052092757 0.035172302 0.0073704994 0.05822266 0.08900207 -0.02718002 0.23655608 0.0730123
0.14969361 0.12826042 -0.117012076 -0.021039542 0.017461013 -0.09102654 0.033430755 -0.028700447
0.11549167 0.040644057 -0.09920283 0.06278994 -0.08813924 0.08542867 0.054719064 0.10627765
-0.031531744 -0.12878278 0.109613776 -0.053044844 -0.041071367 -0.0127752265 0.2517864 -0.062194787
-0.014828718 -0.06981946 0.09324123 -0.029662129 -0.050596777 0.0125374235 -0.028439654 0.22095266
0.08822265 -0.0485414 0.0831777 -0.10357094 0.0046108197 0.03707139 0.07085993 0.030676967
-0.007373559 0.09560506 0.019352559 -0.08755358 0.026580846 0.002106258 0.12907939 0.090003535
-0.06546114 0.06673775 -0.051159155 0.11371583 0.116901256 -0.013486713 0.026219308 0.18212001
0.09173146 -0.09686561 0.025620973 0.0863945 -0.048737947 0.13002945 -0.021708524 0.046327278
0.12279665 -0.055566333 0.039679416 -0.031344958 -0.021580081 -0.0038661764 0.032751344 -0.0040811445
-0.05405571 -0.067229725 0.067408405 0.023797108 -0.029738845 0.029342024 -0.041510634 0.022898149
0.033655137 -0.03545273 -0.085259736 -0.008320516 0.013632655 0.068369135 0.08711496 -0.008696014
-0.026089935 -0.0151563985 0.054668106 -0.07390556 -0.109000094 0.03208076 -0.067348905 -0.03790155
0.0639533 0.021339253 0.022960229 -0.006647663 0.11353858 0.026933378 0.010572846 -0.07344168
0.084031336 0.062295523 -0.025478687 -0.0053481925 0.14998864 -0.010539776 0.04940999 -0.04373274
-0.10652488 0.029668786 -0.030801803 -0.087652944 0.0462686 0.020666907 0.12908119 0.14497289
-0.10997454 -0.0030132188 -0.038490932 0.009446032 0.06672859 0.09152022 -0.054485407 -0.04112127
0.25017634 0.088633224 -0.022619918 0.18375114 -0.0018918492 -0.062126346 0.03816087 0.17146637
-0.0422488 0.15935397 -0.06737097 0.103917405 -0.0315525 0.08130271 0.017150734 0.08876571
0.09638664 -0.100166775 0.047157943 0.037695214 0.052815493 0.15316163 -0.08603993 0.020816036
0.022505732 -0.05353612 -0.0029039455 0.0197226 0.045026757 0.03789363 -0.011796037 0.13505563
-0.09827179 -0.116657384 -0.029473558 -0.014069766 -0.09993068 0.09240056 0.08464657 -0.07780594
-0.086505614 0.20968233 0.13978563 0.0032690885 0.02044929 -0.07660495 0.045349516 0.051093947
0.026422177 -0.06550759 0.10787903 0.11456985 -0.01784591 0.014277971 -0.023692034 -0.0002358365
00000000: 0e9c ce3c 461c 63be 89c4 ca3c 4353 b0bb
00000010: e256 203c 6343 023e 21cf e63d b0dd f1bb
00000020: 55af b0bd bad0 d0bc 6e6b 23be d529 583b
00000030: 4b1b 91bd 9b5b 3fbd 349d 463d 0c3e 9cb7
00000040: 6501 3f3e e85d c03d 912b 57bd 8367 113d
00000050: 3dc8 cdbd 4459 b6bd f6c0 98bd 1b9a ee3d
00000060: c1e5 ce3d 058a 203d e7b2 14be 0d30 afbd
00000070: fe86 0d3e fe40 2cbd a0c7 bb3d 020e b0bb
00000080: b35f ce3a 9e9a 9bbd 6411 9b3d e4d0 06be
00000090: e488 5c3d 5e66 acbd 9c71 97bc 6e3b e9bb
000000a0: 3913 3cbb 51f1 c2bc e5d4 dabd c525 58bd
000000b0: 5cb7 d43d b676 85bd a1f7 043e c80a 57be
000000c0: 30a1 cdbd 2d8f bebc 7c68 3a3e c489 dbbd
000000d0: bc5f 623b a3bb 3b3d 3bad efbd 9749 43bd
000000e0: c191 e5bd 880c 493e aaee ee3c 334f d03d
000000f0: 2fe4 ef3d e951 5cbc e004 28be 6384 f03c
00000100: 375f 55bd d510 103d 3b84 f13b e27a 6e3d
00000110: b846 b63d a2a8 debc c23b 723e 7987 953d
00000120: 4849 193e b356 033e 07a4 efbd 1e5b acbc
00000130: 660a 8f3c 1f6c babd b0ee 083d 331d ebbc
00000140: e686 ec3d 627a 263d da2a cbbd 0398 803d
00000150: 5982 b4bd 3af5 ae3d 1921 603d 19a8 d93d
00000160: 6e27 01bd a2df 03be 307d e03d 8d45 59bd
00000170: 733a 28bd 2f4f 51bc 26ea 803e f6bf 7ebd
00000180: 27f4 72bc 81fd 8ebd 42f5 be3d fefd f2bc
00000190: 913e 4fbd c469 4d3c 47fa e8bc 6a41 623e
000001a0: 14ae b43d 59d3 46bd 1259 aa3d 001d d4bd
000001b0: 5c16 973b 2bd8 173d 031f 913d 434e fb3c
000001c0: e59d f1bb 96cc c33d 4289 9e3c 4b4f b3bd
000001d0: 13c0 d93c 2509 0a3b 632d 043e c653 b83d
000001e0: 7d10 86bd cdad 883d 438c 51bd d8e3 e83d
000001f0: ed69 ef3d 60f7 5cbc e0c9 d63c ab7d 3a3e
00000200: b4dd bb3d 7a61 c6bd 13e3 d13c 9aef b03d
00000210: 71a1 47bd 7126 053e 13d6 b1bc acc1 3d3d
00000220: cf7c fb3d 8699 63bd e286 223d 9263 00bd
00000230: b6c8 b0bc ad5f 7dbb 4626 063d 1fbb 85bb
00000240: 8569 5dbd bdaf 89bd 6b0d 8a3d 27f2 c23c
00000250: e19e f3bc af5e f03c 0e07 2abd e694 bb3c
00000260: f8d9 093d e236 11bd a89c aebd c652 08bc
00000270: 805b 5f3c 1e05 8c3d 5469 b23d ba79 0ebc
00000280: 8fba d5bc 8b52 78bc aaeb 5f3d cc5b 97bd
00000290: 713b dfbd 1d67 033d 39ee 89bd a83e 1bbd
000002a0: f3f9 823d a8cf ae3c 1717 bc3c a4d4 d9bb
000002b0: ea86 e83d 63a3 dc3c bb39 2d3c 9768 96bd
000002c0: 9f18 ac3d 9729 7f3d aeb8 d0bc e43f afbb
000002d0: 9f96 193e 06af 2cbc 2162 4a3d 1a21 33bd
000002e0: b729 dabd f40b f33c 1054 fcbc 6383 b3bd
000002f0: 2584 3d3d a54d a93c dc2d 043e c673 143e
00000300: 553a e1bd 6c79 45bb aba8 1dbd 88c3 1a3c
00000310: 00a9 883d f46e bb3d 172c 5fbd c76e 28bd
00000320: 1d17 803e 5685 b53d 684d b9bc 4229 3c3e
00000330: edf7 f7ba 3278 7ebd 934e 1c3d e194 2f3e
00000340: 140d 2dbd b02d 233e cbf9 89bd a6d2 d43d
00000350: 323d 01bd 0982 a63d b27f 8c3c ccca b53d
00000360: 5c66 c53d 3d24 cdbd b028 413d 4c66 1a3d
00000370: 0f55 583d 67d6 1c3e b435 b0bd 6486 aa3c
00000380: f15d b83c b148 5bbd 1f50 3ebb 4a91 a13c
00000390: fa6d 383d 5a36 1b3d 2a44 41bc 064c 0a3e
000003a0: b842 c9bd 11ea eebd 8872 f1bc e084 66bc
000003b0: 75a8 ccbd 813c bd3d 2e5b ad3d b858 9fbd
000003c0: db29 b1bd f7b6 563e f723 0f3e 343e 563b
000003d0: 4585 a73c 0ee3 9cbd 6ac0 393d e347 513d
000003e0: 5273 d83c d828 86bd aeef dc3d 99a3 ea3d
000003f0: 9631 92bc 27ee 693c cc15 c2bc e14a 77b9

onnx::LSTM_197 f4 [1, 1024]
-0.06791385 0.13845864 -0.004827075 -0.0071309838 -0.18909396 -0.009922871 -0.09609476 0.10229386
-0.10769365 -0.06374772 0.011336332 0.0034804987 -0.0010443665 -0.08813961 0.070609935 -0.051365465
-0.070578866 0.007722698 0.016281856 0.043347523 -0.09703304 -0.11902609 -0.03650572 0.05855256
-0.120492145 0.024578799 -0.12232699 -0.046705924 -0.030018467 -0.15468423 -0.082002595 -0.038694408
-0.0864956 -0.071356215 -0.033980772 -0.13667907 -0.0745479 0.019155161 -0.05607499 -0.018551787
-0.044747647 -0.012058567 -0.062448002 -0.11108301 0.03538164 -0.06052032 -0.053686034 -0.014590794
-0.021311099 0.02287315 -0.047909558 0.11979857 0.03545864 0.01733147 -0.14414111 -0.017754922
-0.0072879177 -0.081924014 0.035545114 -0.08003259 0.07142838 0.014338053 -0.025019575 0.040571913
-0.11425355 0.009932768 0.06626829 -0.020109246 0.025963584 -0.04220545 -0.014989615 0.0061967676
-0.11549358 -0.09620553 -0.07301109 -0.0396372 -0.07048067 0.008952923 -0.08714723 -0.024335533
-0.078028254 -0.13494112 -0.054840118 -0.06776563 0.050697736 0.13670419 -0.080090344 -0.028134204
-0.14451157 -0.08847063 -0.034214377 -0.062260438 -0.04698973 -0.063356675 -0.029680837 -0.08333681
-0.0697249 -0.08831114 -0.051114604 -0.049766567 -0.08551616 -0.029059336 -0.031643704 -0.16657183
0.09101676 -0.016746739 -0.12708214 0.021545079 -0.065744795 0.025997534 -0.08336906 -0.08598381
-0.032174394 0.05164168 -0.14179923 -0.014107518 -0.17165335 -0.03573527 0.085135564 -0.091684066
-0.1306951 -0.07625965 -0.06472635 0.0890301 -0.075011596 -0.022596836 -0.0629832 0.013902824
-0.1609095 0.081752054 -0.0849121 -0.094157204 -0.13411917 0.030308677 0.032187384 -0.023716887
-0.14748254 -0.087655 -0.09211289 -0.03923091 -0.0056802523 -0.104446925 -0.07709431 -0.0920882
-0.14709069 -0.021913834 -0.08698488 -0.022803191 -0.06666326 0.009401307 -0.0070959884 -0.04959812
-0.2030619 -0.10235288 -0.0877912 -0.058181968 0.008985633 -0.096986495 0.017031008 -0.059463438
-0.071813874 -0.010500855 0.0012339887 -0.095973365 -0.055824082 -0.13558139 -0.07137158 0.015266231
-0.020449316 -0.04809298 -0.049475938 -0.10321649 0.029230887 -0.116043314 -0.085663326 0.06547634
0.11402772 0.044167638 -0.09213214 -0.0634794 -0.058106404 0.016392034 -0.004606071 -0.01464989
-0.10391646 -0.11225026 0.03387832 -0.11531386 -0.019730378 -0.060327135 -0.10861072 0.12214169
-0.041222434 -0.06102031 0.04749451 -0.049421817 0.028539648 0.018529693 -0.037390374 0.08386074
-0.17647485 -0.04740681 0.004315599 -0.053133573 -0.05266242 -0.11066469 0.017205765 -0.11723116
-0.025361707 -0.03647226 -0.043937888 -0.010832035 0.069708675 0.015676273 -0.12447394 -0.06227949
-0.09155533 -0.055345286 0.007687049 -0.07379186 -0.0548297 -0.07450774 -0.007305124 0.046037614
-0.10505908 0.019892927 0.07422228 0.021675479 -0.042948313 0.008807344 -0.106449075 -0.02280868
0.014263806 -0.07242542 -0.07060454 -0.013398768 -0.11110568 -0.00890742 0.002640134 -0.10035905
-0.03952054 -0.09055001 -0.11407246 0.009580542 -0.084790796 0.01913702 -0.04738483 0.008671826
-0.0918686 -0.10466466 0.04593332 -0.015139057 -0.027517984 -0.02083458 -0.0023303407 -0.106723465
00000000: 6b16 8bbd 1ac8 0d3e 712c 9ebb 07ab e9bb
00000010: d9a1 41be 8a93 22bc 54cd c4bd 717f d13d
00000020: 7d8e dcbd 2a8e 82bd 06bc 393c 1419 643b
00000030: 20e3 88ba 8a82 b4bd f19b 903d 9864 52bd
00000040: a78b 90bd b00e fd3b 8761 853c 2c8d 313d
00000050: 42b9 c6bd f3c3 f3bd 0687 15bd cfd4 6f3d
00000060: 96c4 f6bd 7a59 c93c 9386 fabd b64e 3fbd
00000070: 4ae9 f5bc 8b65 1ebe faf0 a7bd 077e 1ebd
00000080: 9b24 b1bd 3523 92bd 6c2f 0bbd 99f5 0bbe
00000090: 92ac 98bd 49eb 9c3c e4ae 65bd ebf9 97bc
000000a0: 4f49 37bd 4c91 45bc 7ac9 7fbd 7d7f e3bd
000000b0: 57ec 103d 28e4 77bd e3e5 5bbd 3a0e 6fbc
000000c0: 9d94 aebc 7960 bb3c d03c 44bd f458 f53d
000000d0: 143d 113d bafa 8d3c ba99 13be c572 91bc
000000e0: 7ccf eebb c7c7 a7bd c197 113d 20e8 a3bd
000000f0: 0b49 923d 27ea 6a3c daf5 ccbc bc2e 263d
00000100: c4fd e9bd 0cbd 223c abb7 873d 25bc a4bc
00000110: 95b1 d43c 9fdf 2cbd 0197 75bc 410e cb3b
00000120: e687 ecbd 6807 c5bd d786 95bd 9e5a 22bd
00000130: 2b58 90bd 48af 123c 3f7a b2bd 505b c7bc
00000140: 47cd 9fbd 012e 0abe 08a0 60bd b5c8 8abd
00000150: 6ea8 4f3d 2ffc 0b3e 6806 a4bd b479 e6bc
00000160: d7fa 13be 1730 b5bd 6024 0cbd cd04 7fbd
00000170: 4e78 40bd 25c1 81bd 3a25 f3bc 7dac aabd
00000180: eecb 8ebd 79dc b4bd 8c5d 51bd 07d8 4bbd
00000190: 1923 afbd d80d eebc d49c 01bd ce91 2abe
000001a0: ff66 ba3d 7530 89bc d221 02be 4e7f b03c
000001b0: 35a5 86bd c8f8 d43c 66bd aabd 4818 b0bd
000001c0: 4cc9 03bd 3a86 533d d133 11be 3823 67bc
000001d0: e5c5 2fbe 255f 12bd 8e5b ae3d dbc4 bbbd
000001e0: f0d4 05be 052e 9cbd 408f 84bd 6a55 b63d
000001f0: ae9f 99bd 001d b9bc 56fd 80bd acc8 633c
00000200: 76c5 24be 9f6d a73d 65e6 adbd 7ed5 c0bd
00000210: 8956 09be e749 f83c ebd6 033d eb49 c2bc
00000220: aa05 17be 7784 b3bd afa5 bcbd 97b0 20bd
00000230: 6921 babb 45e8 d5bd 9fe3 9dbd bd98 bcbd
00000240: f19e 16be a484 b3bc 2125 b2bd c2cd babc
00000250: bf86 88bd f107 1a3c 7785 e8bb 6627 4bbd
00000260: 75ef 4fbe 639e d1bd dfcb b3bd 3750 6ebd
00000270: 7a38 133c dba0 c6bd 9d84 8b3c ef8f 73bd
00000280: 2713 93bd c70b 2cbc cabd a13a af8d c4bd
00000290: cba7 64bd d9d5 0abe 432b 92bd 371f 7a3c
000002a0: 5385 a7bc 25fd 44bd 48a7 4abd 2b63 d3bd
000002b0: 9d75 ef3c 1ea8 edbd 4170 afbd 7618 863d
000002c0: 5e87 e93d 20e9 343d c7af bcbd 7d01 82bd
000002d0: fb00 6ebd 9648 863c 86ee 96bb 1806 70bc
000002e0: 27d2 d4bd 77e3 e5bd fec3 0a3d ac29 ecbd
000002f0: 9aa1 a1bc 9619 77bd 4c6f debd 6c25 fa3d
00000300: dbd8 28bd 6ff0 79bd 9a89 423d 886e 4abd
00000310: fbcb e93c 95cb 973c a626 19bd 2ebf ab3d
00000320: d3b5 34be a52d 42bd de69 8d3b 97a2 59bd
00000330: 8db4 57bd 2ba4 e2bd 1bf3 8c3c e416 f0bd
00000340: 5bc3 cfbc f063 15bd 37f8 33bd d978 31bc
00000350: 6cc3 8e3d 876b 803c 31ec febd c718 7fbd
00000360: 5c81 bbbd bdb1 62bd a4e3 fb3b 3020 97bd
00000370: 1c95 60bd 8497 98bd d25f efbb f091 3c3d
00000380: 3729 d7bd 7ef6 a23c da01 983d c690 b13c
00000390: 92ea 2fbd ae4c 103c f901 dabd 45d9 babc
000003a0: bdb2 693c c753 94bd 1d99 90bd 8286 5bbc
000003b0: 608b e3bd 6df0 11bc 1906 2d3b 0c89 cdbd
000003c0: 4ae0 21bd 4972 b9bd d29e e9bd b5f7 1c3c
000003d0: cca6 adbd 3dc5 9c3c 9816 42bd 4614 0e3c
000003e0: 9b25 bcbd 6d5a d6bd 9424 3c3d cf09 78bc
000003f0: 656d e1bc 48ad aabc a1b8 18bb d591 dabd

onnx::LSTM_217 f4 [1, 256, 128]
-0.07997131 0.10540642 -0.094174966 0.10091758 0.03478486 -0.06813958 -0.1149051 -0.042388007
-0.067439795 0.049738944 -0.009921748 -0.10949759 -0.092718564 -0.027639616 -0.061595522 0.14080487
0.00657275 -0.07250641 -0.04755265 0.11506442 -0.068373054 -0.053490028 0.09538564 -0.07257542
0.09856945 -0.014542817 0.09813624 0.0810547 0.016688634 0.06383319 -0.06666658 -0.016069194
-0.078794606 0.13116607 -0.07961294 0.18934055 0.11770168 -0.019540513 0.054379184 -0.04493946
-0.07638415 -0.032877177 0.012183138 0.049818512 0.10089666 -0.029636666 -0.12784746 -0.083246246
-0.048968006 0.070642844 0.009905887 -0.052936543 -0.03152732 -0.12719893 0.047754694 -0.06548402
-0.0036042673 -0.053478424 0.045302294 -0.15276521 0.06825685 -0.09129316 0.07513063 -0.08174235
0.018291317 0.10883061 -0.09364659 -0.07871572 0.002714539 0.10385916 -0.106478535 -0.1400055
-0.1272343 -0.09671163 0.047818873 0.075235106 0.08598314 -0.09333377 -0.07816307 0.054741837
-0.02191714 -0.12885636 -0.11643563 0.099434964 0.017047387 0.09607809 -0.1005661 0.07729328
-0.023827903 0.00040862703 0.08526654 -0.0012631664 0.0053485027 -0.18682444 0.11060143 0.0149789965
-0.1131143 -0.0606148 0.059399158 0.05910003 0.033758715 0.14154188 -0.03239847 -0.002569315
-0.10826786 0.057874016 0.029703107 0.1356287 -0.021055378 -0.101674855 -0.0074203927 0.023437642
-0.09283837 -0.0897918 0.08819211 -0.10957856 -0.016964829 0.007635504 -0.0018581605 0.07796636
-0.12745069 0.009881271 0.0013447643 -0.11664995 0.11648828 0.054737378 -0.07875113 -0.100405715
0.053904872 -0.14153591 0.045136612 0.10283211 -0.065996535 0.084975906 0.08064619 0.2664669
-0.12838672 0.022743363 0.027774071 0.04179106 -0.03937326 -0.015522425 0.18212551 0.24039795
0.17096612 0.060279574 0.06951151 0.029845234 0.0603181 -0.036874462 -0.20764956 0.2381776
-0.024759341 -0.097700074 -0.058618836 0.06262054 0.14021441 0.08426254 0.073111266 0.07401548
0.0264731 0.04296542 0.022999851 0.0535787 -0.0820296 -0.090691894 0.0004746898 -0.038568377
-0.013683098 -0.0054614297 0.12205819 0.028387243 -0.038645275 0.16905823 -0.10384825 -0.3393605
0.235376 0.02368424 -0.011456075 -0.07413661 0.14955936 -0.036742974 0.17076334 -0.070768036
0.08873563 0.081575856 -0.083901055 -0.13066941 -0.10399769 0.037560105 -0.12167987 0.1178665
-0.045197546 0.20267767 -0.011487782 0.017820325 0.11290882 0.01876947 -0.066007175 -0.17821671
0.12306495 0.026530342 -0.060429264 0.06719493 -0.018296177 -0.08473873 -0.07310546 -0.12570664
-0.029998856 0.12674505 -0.00840362 0.095479056 -0.18801492 0.21738675 0.204978 0.22100064
-0.09982341 -0.23886602 0.044781446 -0.0076732626 0.11414034 0.06851247 -0.101689845 0.08425765
0.0057055433 0.021301253 -0.060348473 -0.03337545 -0.10811089 0.12864475 -0.034974154 0.098513685
0.012606494 -0.07964062 0.011255244 -0.02278625 0.11330975 -0.010613766 0.2427571 -0.06935581
0.060632236 0.21086684 0.06623494 -0.047078717 0.09978075 -0.022756264 0.05986859 0.20440938
0.11941437 -0.08905368 0.15332745 0.22326101 -0.06737497 0.050070055 0.00354079 -0.099425904
00000000: 00c8 a3bd 52df d73d cede c0bd e0ad ce3d
00000010: 927a 0e3d c48c 8bbd 5d53 ebbd 0c9f 2dbd
00000020: e01d 8abd 10bb 4b3d d48e 22bc 4640 e0bd
00000030: 3be3 bdbd 7a6c e2bc 964b 7cbd 272f 103e
00000040: 3960 d73b 3e7e 94bd 91c6 42bd e5a6 eb3d
00000050: 2c07 8cbd 5c18 5bbd 8c59 c33d 6ca2 94bd
00000060: c8de c93d ff44 6ebc a7fb c83d 0200 a63d
00000070: 9ab6 883c faba 823d 7d88 88bd 8ba3 83bc
00000080: 115f a1bd 6650 063e 1c0c a3bd 7de2 413e
00000090: 940d f13d 6d13 a0bc b5bc 5e3d 7012 38bd
000000a0: 4b6f 9cbd 38aa 06bd c99b 473c 7f0e 4c3d
000000b0: e8a2 ce3d 98c8 f2bc 72ea 02be 027d aabd
000000c0: ad92 48bd 32ad 903d 4d4c 223c fdd3 58bd
000000d0: cb22 01bd 7040 02be 6d9a 433d 7c1c 86bd
000000e0: 9235 6cbb 310c 5bbd e68e 393d 7c6e 1cbe
000000f0: 3fca 8b3d e9f7 babd 16de 993d 8868 a7bd
00000100: acd7 953c 95e2 de3d c9c9 bfbd b535 a1bd
00000110: 68e6 313b 1cb4 d43d 6b11 dabd 9a5d 0fbe
00000120: b549 02be bf10 c6bd b9dd 433d dd14 9a3d
00000130: ee17 b03d c725 bfbd f613 a0bd fa38 603d
00000140: 938b b3bc ecf2 03be ce75 eebd 8fa4 cb3d
00000150: f6a6 8b3c 97c4 c43d 99f5 cdbd f04b 9e3d
00000160: bc32 c3bc fe3c d639 39a0 ae3d d590 a5ba
00000170: 7e42 af3b e84e 3fbe 0183 e23d 776a 753c
00000180: 78a8 e7bd 3947 78bd 884c 733d e012 723d
00000190: 9446 0a3d 5bf0 103e 42b4 04bd f461 28bb
000001a0: 8abb ddbd 4e0d 6d3d ee53 f33c 40e2 0a3e
000001b0: 547c acbc e83a d0bd c426 f3bb 4c00 c03c
000001c0: 0b22 bebd c3e4 b7bd 119e b43d b96a e0bd
000001d0: d3f9 8abc 4033 fa3b 858d f3ba d4ac 9f3d
000001e0: 6f82 02be 0ee5 213c cd42 b03a 2be6 eebd
000001f0: 6891 ee3d 4d34 603d 4648 a1bd 83a1 cdbd
00000200: 5bcb 5c3d caee 10be 2be1 383d a499 d23d
00000210: 3129 87bd d907 ae3d d429 a53d 596e 883e
00000220: cf77 03be 4a50 ba3c 7386 e33c 1a2d 2b3d
00000230: db45 21bd c551 7ebc 1c7f 3a3e e12a 763e
00000240: be11 2f3e b7e7 763d 0d5c 8e3d fe7d f43c
00000250: 1d10 773d ad09 17bd 16a2 54be d4e4 733e
00000260: 1ad4 cabc fa16 c8bd 4e1a 70bd 333f 803d
00000270: 5e94 0f3e d791 ac3d 5cbb 953d 6e95 973d
00000280: 1dde d83c 82fc 2f3d 2f6a bc3c 5775 5b3d
00000290: 23ff a7bd acbc b9bd c9df f839 e0f9 1dbd
000002a0: 132f 60bc cbf5 b2bb a5f9 f93d 5d8c e83c
000002b0: 824a 1ebd 9a1d 2d3e 64ae d4bd a9c0 adbe
000002c0: 6806 713e 7405 c23c 43b2 3bbc efd4 97bd
000002d0: 1726 193e cd7f 16bd 96dc 2e3e d5ee 90bd
000002e0: 07bb b53d 3e11 a73d 51d4 abbd 34ce 05be
000002f0: befc d4bd a0d8 193d 4c33 f9bd fe63 f13d
00000300: 1021 39bd bc8a 4f3e 4037 3cbc eefb 913c
00000310: bd3c e73d 6ec2 993c c52e 87bd 717e 36be
00000320: 7a09 fc3d 2956 d93c ad84 77bd 7f9d 893d
00000330: dde1 95bc 808b adbd 51b8 95bd 3eb9 00be
00000340: 29c0 f5bc 74c9 013e 56af 09bc 868a c33d
00000350: fc86 40be a29a 5e3e c1e5 513e fe4d 623e
00000360: 3770 ccbd 4b99 74be c06c 373d fe6f fbbb
00000370: 69c2 e93d 4450 8c3d c442 d0bd 468f ac3d
00000380: 91f5 ba3b f77f ae3c f62f 77bd b2b4 08bd
00000390: 3e69 ddbd 73bb 033e 0f41 0fbd 8bc1 c93d
000003a0: 788b 4e3c 9f1a a3bd ea67 383c 3baa babc
000003b0: f10e e83d 5ce5 2dbc 5195 783e 6b0a 8ebd
000003c0: 8259 783d 7aed 573e 2fa6 873d 9dd5 40bd
000003d0: da59 cc3d 586b babc c438 753d b150 513e
000003e0: 858f f43d c761 b6bd df01 1d3e 899e 643e
000003f0: e3fb 89bd 4216 4d3d 990c 683b cf9f cbbd

onnx::LSTM_218 f4 [1, 256, 64]
0.0159753 0.1750067 -0.0028172156 -0.16888304 0.11244737 -0.024569076 -0.031573582 0.13917409
0.017649833 -0.02790637 0.048113465 0.13300705 -0.053974856 -0.029303728 -0.10734926 0.09904409
0.119989745 -0.041185733 0.0122799305 0.04931559 -0.073265195 0.013438029 0.038547687 0.0758789
-0.0027021768 0.063224725 0.057274383 -0.041956432 0.04983198 0.0070041404 0.009765313 -0.12540041
0.029047126 0.02334098 -0.04393775 0.0022505291 0.04549731 -0.0037172646 -0.12382088 0.117042795
0.0670713 -0.039354198 0.028231733 -0.17218967 0.16023414 0.0056728567 -0.16664541 -0.07949163
0.09441418 -0.09963196 -0.044843823 -0.0602715 -0.065515324 -0.06510328 -0.033660363 0.07441528
0.048256338 -0.11463885 0.13300945 0.12010296 0.056029566 0.046261758 -0.07332546 -0.027334828
-0.12578991 -0.012379067 -0.06527818 0.112963274 -0.12820183 -0.16650811 -0.15554132 -0.24873528
0.06967243 0.0025763577 -0.0077004656 0.022102375 0.16964975 -0.0011631317 -0.059421226 -0.013692025
-0.09380236 0.03851572 0.11971112 -0.061002176 0.16363557 0.05206671 0.006808766 0.029768897
0.036845673 0.096567534 -0.0022248589 0.02447041 -0.16820866 -0.13104454 -0.011783727 0.0025617734
0.020952174 0.08322956 -0.013352885 -0.0546787 -0.081176996 0.08110343 0.00038492243 -0.052621156
0.009933021 -0.09811099 0.07398979 0.07098709 -0.0067013255 -0.13774484 0.03375219 0.09432762
0.15016544 -0.16874889 0.19387391 0.02669286 0.022597436 0.008846686 -0.0032604798 0.07524583
-0.018037273 0.014724984 -0.029137079 -0.019895788 0.050058965 -0.07689936 0.056857925 0.09166767
-0.12687427 -0.09285915 -0.11493258 -0.1517615 -0.13931057 -0.019899644 0.04148128 -0.053096253
-0.12767935 -0.12705575 0.12030927 0.0976689 0.110245645 -0.022654092 0.025295228 -0.055177916
-0.015627738 -0.014431409 -0.12805003 -0.11030843 0.06490391 -0.026912829 0.1578424 0.030569224
-0.031653732 0.0050607743 -0.06399973 0.007774004 -0.12954423 0.054216925 -0.009149978 -0.021999864
0.1488054 0.07258981 -0.043229755 0.11733355 0.009349798 -0.020011147 -0.058741946 0.12520023
0.07778524 0.031191539 -0.033467725 -0.10096737 0.10084788 -0.000834206 -0.057748575 -0.14390753
0.011739079 0.05231731 0.13807379 0.06382958 -0.112947054 -0.19629247 0.10308595 -0.12615564
0.034658413 0.007207306 -0.15913251 0.11371164 -0.07458957 0.02247341 -0.05081396 -0.012876189
-0.2614272 -0.28361654 -0.06270472 0.07958583 -0.036910385 -0.13440488 0.029419735 -0.014084153
-0.13331477 -0.013891753 0.11988827 -0.0052542463 0.23851983 0.016157707 -0.0011140553 -0.041887812
-0.12718338 0.27693388 -0.16709638 -0.055336088 -0.048232086 -0.062383074 0.12845375 -0.28011474
0.023832178 0.063549094 0.1713058 -0.036271784 -0.07001213 0.27913222 0.053992644 -0.20993374
0.15990846 -0.0037764877 -0.11896129 -0.015677748 0.20592499 0.053346347 0.12987225 0.09479017
0.11176852 0.11647935 0.22124791 -0.084031835 0.086096294 -0.010650834 -0.12351263 -0.09905475
-0.100395754 0.008677019 0.1296195 -0.13239144 -0.2468848 -0.16992034 0.067753494 -0.11861721
-0.007947793 -0.006219404 -0.16671121 -0.012759815 -0.011605761 -0.11983965 0.30834314 0.11531208
00000000: a2de 823c f534 333e 09a1 38bb adef 2cbe
00000010: cf4a e63d 1645 c9bc 4d53 01bd a783 0e3e
00000020: 6296 903c e69b e4bc a012 453d 0033 083e
00000030: bd14 5dbd 5f0e f0bc eed9 dbbd a1d7 ca3d
00000040: 2fbd f53d 5fb2 28bd c331 493c 25ff 493d
00000050: 100c 96bd 2e2b 5c3c 2ee4 1d3d 6666 9b3d
00000060: 0117 31bb f77b 813d 8b98 6a3d 82da 2bbd
00000070: 9e1c 4c3d fd82 e53b b1fe 1f3c f768 00be
00000080: 3df4 ed3c 9535 bf3c 12f8 33bd 9d7d 133b
00000090: 635b 3a3d 5a9d 73bb cd95 fdbd 22b4 ef3d
000000a0: ae5c 893d de31 21bd 3c46 e73c 7d52 30be
000000b0: 6b14 243e 5fe3 b93b 18a5 2abe 82cc a2bd
000000c0: 395c c13d d70b ccbd 28ae 37bd 40df 76bd
000000d0: e62c 86bd de54 85bd 73df 09bd 0a67 983d
000000e0: 70a8 453d c6c7 eabd a133 083e 8af8 f53d
000000f0: 427f 653d f87c 3d3d a92b 96bd 4aed dfbc
00000100: 12cf 00be 92d1 4abc 91b0 85bd 4a59 e73d
00000110: 5747 03be 1a81 2abe 3946 1fbe 76b4 7ebe
00000120: 6bb0 8e3d 1cd8 283b 3054 fcbb 0a10 b53c
00000130: aab8 2d3e 3974 98ba ac63 73bd 8454 60bc
00000140: 741b c0bd a9c2 1d3d 1b2b f53d 6bdd 79bd
00000150: 1590 273e e743 553d 121c df3b e7dd f33c
00000160: 7deb 163d 33c5 c53d f0ce 11bb 2b76 c83c
00000170: e43e 2cbe 8a30 06be 8910 41bc 6de3 273b
00000180: e5a3 ab3c 4274 aa3d 0fc6 5abc c6f6 5fbd
00000190: 2040 a6bd 8e19 a63d 6acf c939 4889 57bd
000001a0: 1cbe 223c 6aee c8bd f687 973d ae61 913d
000001b0: cb96 dbbb fc0c 0dbe bd3f 0a3d d72e c13d
000001c0: f8c4 193e 82cc 2cbe e286 463e fcaa da3c
000001d0: 421e b93c b1f1 103c c6ad 55bb 7c1a 9a3d
000001e0: e7c2 93bc 0f41 713c e2b0 eebc 7efc a2bc
000001f0: a10a 4d3d 697d 9dbd dbe3 683d 42bc bb3d
00000200: 54eb 01be f02c bebd c661 ebbd 5e67 1bbe
00000210: 6ea7 0ebe 9404 a3bc 46e8 293d 757b 59bd
00000220: 60be 02be e71a 02be b564 f63d a206 c83d
00000230: 78c8 e13d 1395 b9bc f037 cf3c 3d02 62bd
00000240: be05 80bc b771 6cbc 8c1f 03be 63e9 e1bd
00000250: 57ec 843d 4b78 dcbc 70a1 213e 4f6c fa3c
00000260: 58a7 01bd dad4 a53b 4a12 83bd 12bd fe3b
00000270: 3ea7 04be 9112 5e3d cae9 15bc 0f39 b4bc
00000280: 7160 183e f7a9 943d af11 31bd 924c f03d
00000290: e52f 193c 6bee a3bc 659b 70bd 7d34 003e
000002a0: de4d 9f3d 6685 ff3c 7415 09bd fbc7 cebd
000002b0: 5589 ce3d 9eae 5aba c589 6cbd 7f5c 13be
000002c0: 4455 403c ad4a 563d 3763 0d3e 15b9 823d
000002d0: c950 e7bd e500 49be ba1e d33d f22e 01be
000002e0: fbf5 0d3d 442b ec3b a2f3 22be a6e1 e83d
000002f0: 6bc2 98bd 281a b83c 4d22 50bd a7f6 52bc
00000300: c9d9 85be 3036 91be 556b 80bd e5fd a23d
00000310: 582f 17bd 6fa1 09be a801 f13c 38c1 66bc
00000320: ab83 08be 3c9a 63bc fb87 f53d d02b acbb
00000330: 8b3e 743e 2b5d 843c 7e05 92ba 8e92 2bbd
00000340: 5c3c 02be 47ca 8d3e 501b 2bbe 18a8 62bd
00000350: 028f 45bd 6585 7fbd 6189 033e 336b 8fbe
00000360: b33b c33c 0726 823d ca6a 2f3e b991 14bd
00000370: 8562 8fbd 6bea 8e3e 6427 5d3d dff8 56be
00000380: 0bbf 233e f37e 77bb faa1 f3bd 9f6e 80bc
00000390: 00de 523e b381 5a3d 3bfd 043e 5921 c23d
000003a0: e5e6 e43d ba8c ee3d d08e 623e e218 acbd
000003b0: 4153 b03d d680 2ebc 31f4 fcbd 37dd cabd
000003c0: 4a9c cdbd 0e2a 0e3c f9ba 043e 9f91 07be
000003d0: 5ecf 7cbe 99ff 2dbe 58c2 8a3d 94ed f2bd
000003e0: 7637 02bc 24cc cbbb 58b6 2abe 8b0e 51bc
000003f0: 1726 3ebc 7e6e f5bd 27df 9d3e bd28 ec3d

onnx::LSTM_219 f4 [1, 512]
0.05048196 -0.07087604 -0.13960242 -0.3186536 -0.02426739 -0.10269772 -0.14389107 0.08918258
-0.11156616 -0.07516602 0.0056957123 -0.047314357 0.03888978 0.0556663 -0.1309305 -0.090834
0.099373996 -0.0010651287 0.06867861 -0.09685212 -0.20748799 0.0036594716 -0.06986321 0.048685152
-0.18683587 -0.027330678 -0.13163838 -0.051653404 -0.08212671 -0.018180696 -0.12404914 0.07370835
-0.11781147 -0.080784045 -0.11231468 0.023055186 -0.07504785 -0.01896222 -0.13150996 -0.046775434
0.04246661 -0.1000241 -0.14322709 -0.10475232 -0.13564977 -0.115878545 -0.12300663 -0.032082573
0.015205132 -0.31908178 -0.124650374 -0.108406276 0.06289977 -0.015795141 0.02206756 -0.03153408
-0.10943025 -0.09903612 0.023006307 0.08056574 -0.046740815 -0.15048847 0.02207504 -0.0032223994
0.034673646 -0.020666473 -0.18427925 -0.3335887 -0.08718797 -0.15152894 -0.14789633 0.016233943
-0.10466791 -0.051719915 0.06690664 -0.010600638 -0.10062507 -0.16740735 0.032680515 0.028705386
-0.04606598 -0.009324146 -0.03462376 0.013646501 -0.114188485 0.0057220426 -0.14574845 0.02109396
-0.05005812 0.037450716 -0.024028005 -0.16441146 0.03946341 -0.12392667 -0.08747575 -0.01791369
-0.24185915 -0.110005714 -0.09572124 0.060692854 -0.13499098 0.0010375377 0.05384118 -0.19250841
0.0018476449 -0.04813225 0.041646574 -0.086867295 -0.056554746 -0.14853285 0.022648236 0.04648519
-0.19024754 -0.091207966 0.025361227 -0.1789023 0.037131444 -0.20705555 -0.21210033 -0.024851762
-0.0139050195 -0.09291218 -0.059702702 -0.055056255 -0.111515835 -0.05482429 -0.1761543 -0.16024508
-0.050188314 0.009626729 0.024538323 -0.21734649 0.022628002 -0.07744917 -0.044457134 -0.016704429
0.06440485 -0.19216831 0.0948645 0.014041754 -0.15257868 -0.110458925 -0.08207529 -0.1138196
-0.11625627 0.0002651316 0.035656683 -0.0904046 -0.051390085 -0.20491153 -0.07024494 -0.15315464
-0.20240964 -0.24392392 -0.028838776 -0.06677462 -0.1871645 0.099302955 0.014683929 -0.10515575
-0.13663208 -0.035483245 -0.07657319 0.054469712 -0.14304397 -0.14462851 -0.09593801 0.006620576
0.0003061062 -0.16348475 0.011189689 -0.18179634 -0.15245034 -0.18079998 -0.12151896 0.06033888
-0.17109084 -0.04238282 0.10989262 -0.026341988 0.11566644 -0.23106983 -0.06095185 -0.024920952
-0.1749465 0.03306844 0.0041915746 0.0041286214 0.011527926 0.07183465 -0.10196555 -0.031317852
0.12926455 0.12107133 -0.012716186 -0.06406938 0.01250568 -0.047923677 -0.06400168 -0.004777742
0.017287415 -0.04666481 -0.064286135 -0.107834585 0.0022945213 0.11484013 0.108466156 -0.03746114
0.056499444 -0.049348682 -0.035696775 0.042891204 0.016625147 -0.046026353 -0.07580764 0.084631786
-0.059303045 0.061568975 -0.0057394058 0.00848473 0.036119234 -0.049382757 0.031985965 0.077829204
-0.083621256 -0.07348974 -0.07448936 0.056485895 -0.07928867 -0.09143538 0.020650163 0.06971372
0.03792913 0.016728567 -0.081223585 0.06894262 0.035352733 -0.0037640873 -0.00049789075 -0.04714016
0.076307885 -0.032436606 0.06505914 -0.035609525 0.07720643 0.05493635 -0.06677821 0.023342745
0.066633634 0.11689924 0.0018262202 -0.011512969 0.010353398 0.05365406 -0.07969459 0.07449045
00000000: 2cc6 4e3d 7527 91bd f0f3 0ebe 9126 a3be
00000010: 68cc c6bc 2f53 d2bd 2e58 13be 5ba5 b63d
00000020: cd7c e4bd a4f0 99bd 19a3 ba3b b3cc 41bd
00000030: e44a 1f3d 5902 643d a512 06be 2d07 babd
00000040: 9884 cb3d ca9b 8bba 5fa7 8c3d 675a c6bd
00000050: bb77 54be bfd3 6f3b 7114 8fbd 156a 473d
00000060: e751 3fbe 96e4 dfbc 36cc 06be 8592 53bd
00000070: 0c32 a8bd afef 94bc 7a0d febd 67f4 963d
00000080: 2447 f1bd 1b72 a5bd 3d05 e6bd 3bde bc3c
00000090: b0b2 99bd a856 9bbc 8caa 06be 9997 3fbd
000000a0: 78f1 2d3d 6fd9 ccbd 1faa 12be 6288 d6bd
000000b0: c6e7 0abe bb51 edbd e6ea fbbd 0469 03bd
000000c0: f21e 793c b05e a3be b248 ffbd 1c04 debd
000000d0: 98d1 803d d064 81bc 07c7 b43c e129 01bd
000000e0: f81c e0bd 73d3 cabd b977 bc3c a7ff a43d
000000f0: 4c73 3fbd a619 1abe b7d6 b43c e42e 53bb
00000100: f405 0e3d bc4c a9bc b3b3 3cbe 23cc aabe
00000110: 9b8f b2bd 672a 1bbe 2372 17be 0cfd 843c
00000120: 215c d6bd 43d8 53bd 5906 893d 4cae 2dbc
00000130: 8414 cebd d56c 2bbe 01dc 053d 8f27 eb3c
00000140: aeaf 3cbd 4ec4 18bc a5d1 0dbd 9395 5f3c
00000150: a7db e9bd f97f bb3b 153f 15be 3ecd ac3c
00000160: be09 4dbd ec65 193d 61d6 c4bc 7a5b 28be
00000170: 62a4 213d 44cd fdbd 7c26 b3bd bbbf 92bc
00000180: eda9 77be ad4a e1bd 7f09 c4bd 1299 783d
00000190: 133b 0abe fdfd 873a 9288 5c3d ed20 45be
000001a0: ad2c f23a 5226 45bd 9995 2a3d 7be7 b1bd
000001b0: f3a5 67bd ff18 18be cb88 b93c 4167 3e3d
000001c0: 40d0 42be 3ecb babd 59c2 cf3c 2a32 37be
000001d0: 2417 183d 5f06 54be d430 59be ec95 cbbc
000001e0: e1d1 63bc be48 bebd d28a 74bd ab82 61bd
000001f0: 6a62 e4bd 6f8f 60bd cb61 34be 4917 24be
00000200: 4392 4dbd 6eb9 1d3c 9804 c93c 1490 5ebe
00000210: 5c5e b93c ac9d 9ebd af18 36bd bad7 88bc
00000220: b1e6 833d c5c7 44be 5248 c23d 630f 663c
00000230: 963d 1cbe 4a38 e2bd 1717 a8bd 401a e9bd
00000240: c417 eebd 5c01 8b39 be0c 123d 0c26 b9bd
00000250: 697e 52bd 54d4 51be 94dc 8fbd 92d4 1cbe
00000260: 7944 4fbe 31c7 79be 4c3f ecbc 22c1 88bd
00000270: 0da8 3fbe 595f cb3d dd94 703c e65b d7bd
00000280: 48e9 0bbe e156 11bd 68d2 9cbd a21b 5f3d
00000290: 1e7a 12be 7f19 14be 267b c4bd 6bf1 d83b
000002a0: e17c a039 8c68 27be f554 373c d228 3abe
000002b0: f11b 1cbe a123 39be efde f8bd e725 773d
000002c0: 7032 2fbe 9c99 2dbd 620f e13d 27cb d7bc
000002d0: 87e2 ec3d 929d 6cbe a6a8 79bd 0627 ccbc
000002e0: 2d25 33be c672 073d 7a59 893b 6349 873b
000002f0: a0df 3c3c 0c1e 933d 50d3 d0bd 2647 00bd
00000300: ed5d 043e 3ff4 f73d 8d57 50bc cf36 83bd
00000310: a0e4 4c3c 9e4b 44bd 5013 83bd 9b8e 9cbb
00000320: 569e 8d3c 9a23 3fbd 73a8 83bd 61d8 dcbd
00000330: ae5f 163b 4d31 eb3d 8123 de3d da70 19bd
00000340: f66b 673d d821 4abd c836 12bd b0ae 2f3d
00000350: 7631 883c 2186 3cbd 0941 9bbd 6e53 ad3d
00000360: c0e7 72bd c02f 7c3d a011 bcbb 8903 0b3c
00000370: c3f1 133d 9345 4abd b703 033d eb64 9f3d
00000380: 9f41 abbd ca81 96bd e18d 98bd c15d 673d
00000390: 1962 a2bd 7942 bbbd 882a a93c 11c6 8e3d
000003a0: 935b 1b3d 590a 893c 8d58 a6bd ca31 8d3d
000003b0: 07ce 103d e8ae 76bb e284 02ba 0a16 41bd
000003c0: 4f47 9c3d 3fdc 04bd ba3d 853d 4bdb 11bd
000003d0: 681e 9e3d f004 613d 04c3 88bd 4939 bf3c
000003e0: 3777 883d de68 ef3d c85d ef3a e4a0 3cbc
000003f0: 4ca1 293c 5cc4 5b3d eb36 a3bd 738e 983d
