cw-monitor-dnn/morse_lstm_model_v2.onnx (onnx, 125964 bytes, 10 tensors)

fc1.weight f4 [16, 32]
000000 08 1d 25 3e 23 83 a1 3d 5f d7 f4 3c 61 04 d4 bd
       0.16124356 0.078863405 0.029887853 -0.10352398
000010 bc 1a 6f be aa a4 04 be d8 a1 33 3e c4 0e 09 3e
       -0.23350042 -0.1295344 0.17542207 0.13384539
000020 61 f5 85 bd ad 18 03 3e 6b f2 8b 3c ba ae a8 3d
       -0.06540943 0.12802382 0.017083367 0.082364514
000030 39 80 9c bd 8a b2 19 3e 46 b7 a5 bd 4c 26 a7 3b
       -0.07641644 0.15009513 -0.08091597 0.005101001
000040 24 67 ae bc 43 af ec bd ab 99 1f 3d f1 16 3b bd
       -0.021289416 -0.11556866 0.03896491 -0.045676176
000050 36 a7 e7 3d 20 01 97 3d ae 65 a0 3d f6 d9 27 bc
       0.1131119 0.073732615 0.07831894 -0.010244837
000060 34 c8 73 3c 33 04 02 3c 88 11 0d be 7f fb 1b 3e
       0.014879275 0.0079355715 -0.13776219 0.15232657
000070 03 ca 26 be 9c da bd bd 39 60 01 3e 57 26 04 be
       -0.16287999 -0.09270212 0.12634362 -0.1290525
000080 15 c5 e0 bd 03 03 54 3d e8 d5 02 3e f3 b0 4f 3e
       -0.109750904 0.051760685 0.12776911 0.20282345
000090 a2 1b c6 bd 59 74 15 bd 86 64 0a 3e e4 d7 af bc
       -0.09673239 -0.03648791 0.13514909 -0.02146525
0000a0 b1 a2 09 3e a5 80 8e bd b2 5d 79 bd 30 4c cc 3d
       0.13440968 -0.06958131 -0.06088037 0.09975469
0000b0 91 07 33 3e 83 77 f1 bd 08 cc 93 3c 42 d8 2d 3e
       0.17483355 -0.11790373 0.018041626 0.16977027
0000c0 19 1b ce 3c 11 59 44 bd b4 4e f3 3d c2 a6 b7 3d
       0.025159406 -0.047936503 0.11880246 0.089673534
0000d0 49 51 7a bd dc 7a f4 3d d6 9a f1 3c d9 7a e3 bd
       -0.061112676 0.11937496 0.029492777 -0.11107416
0000e0 e9 0f d5 bd f1 40 31 be df d9 62 bd 9f 6b 1f 3e
       -0.10403425 -0.1730993 -0.05538356 0.15568398
0000f0 12 ab f4 bc 6d a0 37 bd cc e2 97 3d 7f 9a c4 3d
       -0.029866729 -0.04483073 0.07416305 0.0959978
000100 e4 db 02 bd e6 f4 c8 bd ec f5 b3 3d 17 60 ac 3d
       -0.031947985 -0.09812336 0.0878714 0.08416765
000110 48 e8 a0 bd c5 f2 24 be ff d1 e1 3b d1 e7 34 3e
       -0.07856804 -0.16108234 0.0068914886 0.17666556
000120 e9 f6 b0 3c c7 dc 39 3e 14 19 0a 3e 77 af 65 bd
       0.021602111 0.18150626 0.13486129 -0.05607554
000130 fb 25 47 3d 3a f4 79 bc 77 18 19 bd 8c db 81 3e
       0.048620205 -0.015255982 -0.037376847 0.25362813
000140 0b 66 4f 3e 48 71 b9 bd e2 d7 07 be bf bf 51 3d
       0.2025377 -0.0905481 -0.13265947 0.051208254
000150 ce b3 a7 b9 82 0b d3 3d e2 9f 3d 3e bb 27 b6 3d
       -0.00031986687 0.10304929 0.18518022 0.08894297
000160 d4 d0 c4 bd df 95 89 3d 39 b6 80 3d fc 54 02 3e
       -0.09610143 0.06718039 0.06284756 0.12727731
000170 e6 5f a4 3d a2 8d fc 3d f2 7a 05 be 23 7c 49 3d
       0.08026104 0.12331702 -0.13035181 0.04919065
000180 89 8f 1e 3d c6 88 1e 3e 05 0c 39 3e 03 64 89 3d
       0.038711105 0.15481862 0.18070991 0.06708529
000190 42 30 98 bd 9e bb a5 3d eb 66 e1 3d 11 e1 9d bd
       -0.074310794 0.08092426 0.11005958 -0.07708944
0001a0 91 62 6b 3d 07 98 ab 3d 63 a1 48 bd 61 e1 86 3d
       0.057467047 0.08378606 -0.048982035 0.06585956
0001b0 e3 f5 f8 3d 73 43 0b bd e1 85 9b bb 3d 5e ea 3d
       0.12156274 -0.03399987 -0.004746184 0.11443756
0001c0 ef d8 29 bd 14 f1 df bc ef 69 1a 3e a7 11 88 3d
       -0.04146665 -0.027336635 0.15079473 0.06643992
0001d0 13 b2 46 3e 84 fe 7a bd 51 5a b0 bd 88 47 87 3d
       0.19403867 -0.06127788 -0.086109765 0.066054404
0001e0 4f 61 1f bd 52 f8 f6 3d 26 2e 0b be d4 a8 09 3e
       -0.03891116 0.12059082 -0.13591823 0.13443309
0001f0 3d a9 41 bc 66 37 eb bd 21 1c e1 3d a1 31 c2 bc
       -0.011820135 -0.11485176 0.10991693 -0.023705306
000200 0e a4 83 bd 8c 13 21 be ca 61 53 be db 99 3e 3e
       -0.06427775 -0.15730113 -0.20642772 0.18613379
000210 02 48 01 be 60 05 9d bd 77 39 95 3c 35 5a da 3d
       -0.12625125 -0.07667041 0.018215878 0.10661737
000220 72 b0 32 bd 0d d3 4c be fb 39 06 be 1e c2 aa 3d
       -0.043625303 -0.20002384 -0.13108055 0.08337806
000230 40 07 38 be a8 8f 8e 3a 86 6f 0f be c7 6b ab 3d
       -0.17971516 0.0010876553 -0.14007387 0.08370166
000240 f9 b6 c2 3c b1 81 3b be 7c 0f 5a be 02 f8 2c 3e
       0.023768889 -0.18311192 -0.2129497 0.16891482
000250 d5 cd 55 bd 51 dc b9 bd 75 f0 58 bd f7 4d 0d 3e
       -0.05219825 -0.09075225 -0.052963693 0.13799272
000260 c5 65 a9 bd 02 ed 1c be 9e 50 e8 3b 1d 01 8d 3d
       -0.08271364 -0.15324786 0.0070896884 0.06884978
000270 8d 1f ac bd c3 d7 43 3e 62 fe 0c 3d 48 d1 d5 3d
       -0.08404455 0.19125275 0.034422286 0.10440308
000280 84 2d 8a bc ff e7 38 be ff 62 d2 bd 0a 9e 47 3d
       -0.016867407 -0.1805725 -0.10272788 0.048734702
000290 20 40 64 bd d1 c6 24 3d 84 42 d0 3d 87 e9 a6 bc
       -0.055725217 0.04022867 0.10168937 -0.020375026
0002a0 eb fc f3 bc 31 66 40 be d8 f8 29 be 7f 83 09 be
       -0.029783687 -0.18788983 -0.16598833 -0.13429068
0002b0 11 cb a7 bd 55 58 0e be 14 9e 52 bd 2b 28 24 be
       -0.08193029 -0.13900883 -0.051420286 -0.16030948
0002c0 1e ad 20 bd 89 b7 c5 bd fb 31 98 3c 25 b2 99 bd
       -0.039227597 -0.09654147 0.01857852 -0.075046815
0002d0 fb c0 a1 3d 54 57 2a bd 73 ec 28 bd d7 ad 62 3d
       0.07898136 -0.04158719 -0.04124112 0.055341568
0002e0 fe 30 21 3e f2 69 40 3e 70 0e a7 bd 1c 28 09 bd
       0.15741345 0.18790415 -0.081570506 -0.033485517
0002f0 7e 47 b7 bc d3 a2 84 3b 42 df ca bd 5f 16 86 3b
       -0.022372957 0.0040477305 -0.09905864 0.0040920223
000300 46 4a c8 bd 85 c5 51 bd 7d f5 29 be 3c 21 44 b9
       -0.097797915 -0.05121376 -0.16597553 -0.00018704397
000310 30 4f 6c 3d 1a 77 26 3e 79 c8 e4 3d 14 aa 1a bd
       0.057692707 0.16256371 0.111710496 -0.037759855
000320 45 82 0c be b3 06 49 bd 81 80 5a be 79 5e a9 bd
       -0.13721569 -0.049078654 -0.21338083 -0.08269972
000330 f1 2e 30 3e 8a b1 f2 3d b5 5a 33 be 7a 46 9d 3d
       0.17205407 0.11850269 -0.1751507 0.07679458
000340 6f 65 74 3d 00 23 fe 3d 05 7d df 3d 73 2a 70 bd
       0.059667047 0.124090195 0.109125175 -0.058634233
000350 78 4d b0 bd 38 26 51 bd 7f 6c ec bd 2f fe 18 3e
       -0.08608526 -0.05106184 -0.115441315 0.14940713
000360 8b 46 ec 3d 36 8f 80 bd a0 b4 bb bd 0b d0 f6 3d
       0.115368925 -0.06277315 -0.09165311 0.120514
000370 5a c3 dc 3d 82 ac 5a 3e b7 ea 2c bc 5c f4 0d be
       0.10779448 0.21354869 -0.010554007 -0.13862747
000380 b6 2e 49 bc 8d 35 55 bd d4 22 80 bd b6 ed 12 3d
       -0.012279203 -0.052053023 -0.06256643 0.03587123
000390 ba d8 5b 3d b8 4e e9 bd 9d 71 3f 3d f0 f4 fd 3b
       0.053673483 -0.113919675 0.04673921 0.007750146
0003a0 f8 28 c4 3d af fa 45 3e 83 7b 86 3d 79 87 e4 3d
       0.09578127 0.1933391 0.06566527 0.11158652
0003b0 05 ef bc bc 06 2e a6 bd 62 79 2e be 92 17 19 3e
       -0.023063192 -0.08114247 -0.17038491 0.14950398
0003c0 04 8a 1d be 39 68 d2 3d c6 a0 4a be 4d 5c 1b be
       -0.1538468 0.10273785 -0.19787893 -0.15171929
0003d0 ef 39 73 bd 85 53 8f bd 04 d0 49 bd 0d e7 ad bc
       -0.05938142 -0.06998352 -0.049270645 -0.021228338
0003e0 58 59 4d bb ed 3f 62 3d fa 00 1a 3e 9e 3b bc bd
       -0.003133377 0.055236746 0.15039435 -0.091910586
0003f0 fe ad 61 3d 79 6e 0f 3e dc e5 10 be 83 5c 43 bd
       0.055097573 0.14006986 -0.14150184 -0.047695648

fc1.bias f4 [16]
000000 ea f1 ca bd 04 6d 92 bd b5 67 0c be 22 8b 08 3d
       -0.09909423 -0.07149699 -0.13711436 0.033335812
000010 4d 55 f1 bd 94 d1 0b 3e 0a 1b c4 bd 6a e0 73 bd
       -0.11783848 0.13654166 -0.0957547 -0.05954019
000020 d3 c5 14 bd b0 2e a1 bd 5e 77 23 3d d4 c8 ee 3d
       -0.036321472 -0.07870233 0.03990876 0.11659399
000030 e2 94 6b 3e 51 39 2f bd e8 2c bc bd 93 48 93 3d
       0.23006013 -0.04277927 -0.09188253 0.07191577

fc2.weight f4 [4, 16]
000000 61 3a 3c bd da 30 11 be bd 06 66 be 4f ed d6 bd
       -0.045954112 -0.14178792 -0.22463508 -0.10494482
000010 a5 34 a4 bd 61 1c 18 be 98 8d 1b 3e 72 cd f5 bd
       -0.08017854 -0.14854576 0.15190732 -0.12002076
000020 af 6b 84 bd 0e 7a 8d 3c 7e 2a 97 3d 99 b9 b5 3d
       -0.064658515 0.017270114 0.073811516 0.088732906
000030 c7 60 0a 3e 40 ca 43 bc f2 7d a9 3d d3 85 30 3e
       0.1351348 -0.011950076 0.08275975 0.1723855
000040 b4 2b 03 3b fd 8f 19 3e b0 db af 3d 1d 76 52 3e
       0.0020015063 0.14996333 0.08586824 0.20552869
000050 03 58 b1 bd ce a7 1d 3b 8c f0 af 3d 3d 6e 4e 3e
       -0.08659365 0.0024056318 0.085908026 0.2015924
000060 e2 71 52 be ef 60 80 3d 50 2c 7d 3e 60 30 d9 3d
       -0.20551255 0.062684886 0.24723935 0.1060493
000070 25 b8 0d 3d 75 5a 87 bd b5 8b a6 3d 61 cc cb 3d
       0.034599442 -0.0660905 0.08132116 0.099510916
000080 15 b5 26 3e bc 23 0c 3b 87 d0 13 be 51 74 19 be
       0.16280015 0.0021383604 -0.14435016 -0.14985777
000090 a3 74 64 be 7d e2 cf 3d 20 6c 3e 3d c9 2c 75 be
       -0.22310118 0.10150621 0.046489835 -0.23942865
0000a0 57 6a 82 bd 2f 07 2a be 74 64 b2 3d 39 fd ea 3c
       -0.06367939 -0.16604303 0.08710566 0.0286852
0000b0 26 ca d5 bd 25 bc 51 be 14 ed 47 be 6c 0e ec bd
       -0.104389474 -0.20481928 -0.19524032 -0.11526188
0000c0 ee d7 f8 bd 77 84 ef bd 4e 58 cc 3c 9f f3 27 bd
       -0.1215056 -0.116951875 0.02494445 -0.04100382
0000d0 32 ce 4c bd ae a4 92 be 25 69 b4 3d 8e 0a 21 be
       -0.05000133 -0.28641266 0.08809117 -0.15726683
0000e0 85 2a 14 3e 8e e5 62 3e 04 7a 32 be 20 32 19 3d
       0.14469345 0.2215788 -0.17429358 0.03740132
0000f0 3b 85 0f be 99 69 ae bd dc 09 96 bd 60 2e 86 be
       -0.14015667 -0.08516235 -0.07326099 -0.26207256

fc2.bias f4 [4]
000000 10 6f b6 bd 27 d7 05 be 72 ec 83 3d c2 f3 fa 3d
       -0.08907902 -0.13070355 0.06441583 0.12253524

onnx::LSTM_195 f4 [1, 256, 2]
000000 1b 53 12 3d bd bb 4f be 4d d2 4a bd 14 56 18 3d
       0.035723787 -0.2028646 -0.049516965 0.037191465
000010 67 ae 25 3e e2 fb 92 3c 34 c4 b3 bd fc 83 c1 3d
       0.1617981 0.017942373 -0.08777657 0.09449002
000020 58 ac aa 3d 31 83 9c bd d8 a7 5b bd 2e 36 80 bd
       0.08333653 -0.0764221 -0.053626865 -0.06260334
000030 31 42 c7 bc a4 5d 25 3d c9 6c df 3c 76 44 d9 3d
       -0.024323555 0.040372506 0.027273552 0.10608761
000040 71 88 20 bc 93 37 31 3e e1 32 d6 3d 4a e5 8a bd
       -0.009798155 0.17306356 0.10458923 -0.06782015
000050 99 c3 26 3e 8d 7a 71 3d 16 e5 80 3d 89 f7 97 3e
       0.16285552 0.058954764 0.06293695 0.29681042
000060 0f af 02 3e bb 58 0f be 9b f5 53 be c6 0e 2e 3e
       0.12762092 -0.13998692 -0.2069916 0.16997823
000070 2f c5 53 3e 38 50 27 be 85 8a 65 3d e9 63 db bd
       0.20680688 -0.16339195 0.056040306 -0.10712416
000080 06 3a fe bd cc a1 95 3d 66 53 4c 3e 40 61 94 bd
       -0.12413411 0.07306251 0.19953689 -0.072451115
000090 4d 8f 7c 3d ba 22 e6 3c 08 57 a5 3d a6 e4 aa bd
       0.0616601 0.02809273 0.080732405 -0.083443925
0000a0 69 ee a1 3c 6e d1 21 3c 4f 8b a4 3d 78 eb 59 be
       0.019767003 0.009876592 0.080343835 -0.2128123
0000b0 c6 9d 0b be da 62 c0 bd 9d 2b 80 3c 58 72 88 bd
       -0.13634405 -0.093938544 0.015645796 -0.06662434
0000c0 29 80 ce bd 10 13 e9 bc 04 5a 15 3e 26 85 32 3e
       -0.10083038 -0.028451473 0.1458512 0.17433605
0000d0 02 ba 14 3c 11 79 bb 3d 53 e7 6b be ab 4c 18 3e
       0.009077551 0.09153951 -0.23037462 0.14872997
0000e0 6f 6d 4c bc ca cc d3 3c 73 6f 88 bd a1 b8 a4 bd
       -0.012477263 0.025854487 -0.06661882 -0.08043028
0000f0 23 bf 23 3d b4 9f 37 3d db fa d1 3d 6f 23 24 3e
       0.039977204 0.04483004 0.10252925 0.16029142
000100 a0 47 0f bd e6 59 e8 bc 6a 7d d0 bb 50 08 e2 3c
       -0.034980416 -0.02836318 -0.006362607 0.027591854
000110 8e e4 30 3d c1 eb 4e 3e 7e 40 59 3d d6 d0 b7 bd
       0.043186717 0.2020712 0.05304002 -0.08975379
000120 06 7a 82 bd f7 e7 d1 bc 22 74 21 be 98 6b 0f 3d
       -0.063709304 -0.025623305 -0.15766957 0.03501472
000130 18 15 f4 bd 22 6f 21 3e 31 9c aa bc 33 69 df 3c
       -0.11918086 0.1576505 -0.020826431 0.027271843
000140 71 2d e0 3d 49 20 31 3d 07 59 be 3d 9c cd 4b 3e
       0.10946167 0.04324368 0.09294324 0.19902653
000150 16 6c ce 3c 53 7a 5e 3d ee 7c 97 bd 0c 0f 02 be
       0.025198024 0.054315876 -0.07396875 -0.12701052
000160 1d d6 a3 bc c7 8a 0c 3e 19 b8 b9 3d 74 0d b7 3d
       -0.019999558 0.13724814 0.09068317 0.08938113
000170 4f 6e ce bc a0 73 0a 3e a4 92 0d be 59 98 08 bd
       -0.025199084 0.1352067 -0.1382547 -0.033348415
000180 a3 27 10 be 79 f9 d2 3d ee 48 0c bd ff d7 dc 3d
       -0.1407762 0.103014894 -0.03424924 0.107833855
000190 18 04 0a 3e ff f2 55 3c c6 cd dd 3d 11 65 d0 bc
       0.13478124 0.013058423 0.10830264 -0.025438817
0001a0 30 16 98 3c 1e df 8d bd 6d 26 7c bd e5 6a 81 bd
       0.018565267 -0.06927322 -0.061560083 -0.06319217
0001b0 07 94 fe bc 2e 54 29 bc 85 a0 08 3d ac 61 e8 3b
       -0.031076444 -0.010335011 0.03335621 0.0070917215
0001c0 f8 11 f4 bd 1a 4a b3 3d c4 92 d4 bc 30 50 40 3e
       -0.1191749 0.08754368 -0.02594889 0.18780589
0001d0 65 cb fb 3d b1 fc a6 bc 6c aa 48 bc f8 15 8c 3d
       0.12294654 -0.020384165 -0.012247663 0.06840128
0001e0 cc 3f 56 3e 97 cd bf 3d 3a 00 c1 bd a0 d0 7e be
       0.20922774 0.09365385 -0.09423871 -0.24884272
0001f0 14 09 e3 3b 8b 74 c9 3d a3 76 8d 3d ad 79 b0 bd
       0.0069285724 0.09836682 0.06907394 -0.08616958
000200 7d 91 ce 3c e3 1d 6c 3d de cd 11 3b d7 11 67 3d
       0.025215859 0.05764569 0.002224795 0.056413498
000210 ab 4f 27 3e e3 2f 7c 3e 60 b4 86 3c bb 88 e2 bb
       0.16338985 0.24627642 0.016443431 -0.006913272
000220 93 0e 4c 3d 11 01 81 bd 04 98 1f 3e 17 f9 0a 3d
       0.049818587 -0.062990315 0.15585333 0.033928957
000230 71 64 88 3d af c8 ca bd c1 9a 25 bc b2 0f dd bc
       0.06659783 -0.099015586 -0.010107697 -0.026985023
000240 0c d3 87 bd 43 46 00 3e b7 18 79 3e ef c2 ab bc
       -0.06632051 0.12526803 0.24325834 -0.020966975
000250 3f 6f 49 3e 5a b0 f3 3d f5 a2 0d bd a7 48 78 3e
       0.19671343 0.11898871 -0.034579236 0.24246465
000260 13 a8 8e 3c 8a c1 46 bb 42 3f ab be 74 e8 95 3d
       0.017414128 -0.003032776 -0.334467 0.073197275
000270 94 53 6e 3e 02 9e 2c be 9c e5 30 bd 80 30 1e bd
       0.2327407 -0.1685715 -0.043187723 -0.038620472
000280 9e 38 0d be 27 c8 03 3c ad 59 e1 3c cc db 13 3e
       -0.13791129 0.0080433255 0.027508581 0.14439315
000290 65 7e c4 3d a5 32 9c bc d6 67 93 3b c2 c6 2e 3a
       0.0959442 -0.019067118 0.004498462 0.00066671905
0002a0 c7 6a 0b be 66 d3 20 3e 36 9b 25 3e a1 f7 66 be
       -0.13614951 0.15705642 0.1617249 -0.225554
0002b0 94 27 8a bd db b1 82 3c b6 a8 32 be 94 2c d6 bc
       -0.0674583 0.015953949 -0.1744717 -0.026144303
0002c0 68 f7 dd 3c e3 f0 8d bc d7 2a 12 3e 7b 58 8b 3e
       0.027095512 -0.017326778 0.14274155 0.27215943
0002d0 da ea fe 3d c7 49 13 be 22 1b 4f be f9 4a d7 3d
       0.12447138 -0.14383613 -0.20225194 0.10512347
0002e0 b0 2d 1b 3d 89 22 93 bd b0 21 0a 3e 9a e7 aa bd
       0.037885368 -0.071843214 0.13489413 -0.08344956
0002f0 3a bf bc 3d 02 94 f4 bb 43 9f 3a be 12 3a 59 3e
       0.09216161 -0.007463933 -0.18224816 0.21213558
000300 0b fc 84 bc 62 00 b2 3d ec 45 01 3d 87 4b 30 3e
       -0.016233465 0.08691479 0.031560823 0.17216311
000310 1d 00 5a 3d cf 09 32 3e 91 88 a1 bc 21 32 c4 3d
       0.053222764 0.17386554 -0.01971844 0.09579874
000320 ce 57 d0 3d e8 14 df bd 31 2c df bc fb ef cc 3d
       0.101729974 -0.108926594 -0.027242752 0.1000671
000330 75 54 3f be f9 24 58 3e 86 70 06 3e 94 8d 9d 3d
       -0.18684562 0.21107854 0.13128862 0.076930195
000340 5d d2 05 3c 3d 0b 8e bd 0c cc 08 bc 01 25 54 3e
       0.00816783 -0.06935737 -0.00834943 0.20717241
000350 07 cb 93 3d 1d 7c 38 3e d6 89 89 3c 9a 33 f1 bd
       0.07216459 0.18016095 0.016789358 -0.1177742
000360 7b f4 c1 3d ae fa 13 3e 31 84 41 3e f0 a2 57 3e
       0.09470459 0.14451095 0.18898083 0.2105825
000370 56 bf 88 bd b3 ae 5c 3d b9 b2 20 be ec 7f d2 3c
       -0.066771194 0.053877544 -0.15693177 0.025695764
000380 72 77 92 3b 66 c8 76 3d 44 ce 40 3d 53 b0 b1 3d
       0.0044698054 0.06024971 0.04707171 0.08676209
000390 c4 c2 57 3e dc ac 0a bd ec bd 03 be 7e 11 f8 3d
       0.21070391 -0.033856258 -0.12865418 0.12112711
0003a0 60 07 4c 3c 99 0e 66 3c 06 f6 08 3d 03 9c 2c 3b
       0.01245293 0.014041566 0.03343775 0.0026338107
0003b0 50 40 14 be 6b 9e 8d 3d 8d 1a 25 3c 35 ae 78 3d
       -0.14477658 0.069149815 0.010077131 0.06071301
0003c0 a5 ff 93 3d 9a f2 48 3e 52 7b 03 bc 48 53 fd 3d
       0.07226495 0.19623795 -0.008025007 0.123694
0003d0 ec e3 8d bd 33 c8 a2 3d fd 0d 51 bc bc c2 f5 3d
       -0.06928238 0.07948341 -0.012759683 0.12000033
0003e0 2c be 32 3e e0 bb 3c 3d 9e 62 a3 bc e9 c1 b0 bd
       0.17455357 0.04607761 -0.019944485 -0.086307354
0003f0 23 5b 8f bc 77 74 d7 3d 08 10 f8 3d 36 0a e3 3d
       -0.017499512 0.10520261 0.12112433 0.11085932

onnx::LSTM_196 f4 [1, 256, 64]
000000 e4 7a 47 bd c2 c8 96 3d 42 96 0a bd c4 b4 82 3d
       -0.048701182 0.0736251 -0.033834703 0.063821346
000010 51 5e a5 bd 00 75 20 bc 83 ac d6 3d 7c 98 94 3d
       -0.0807463 -0.00979352 0.10482123 0.072556466
000020 01 c3 60 bb 03 49 3d 3d b1 64 7f be 48 cd 91 3c
       -0.003429592 0.046212208 -0.24940754 0.017798081
000030 8d 49 81 bc f1 71 de bd 77 54 24 3d a1 d4 eb bd
       -0.015782142 -0.10861576 0.040119614 -0.11515165
000040 e9 c6 d8 bd 4f 2d 09 be 8a 72 88 bd 15 3f ea 3d
       -0.10584814 -0.1339619 -0.066624716 0.11437813
000050 b6 e4 97 bd c7 1c 08 be 5e a8 f2 bc d4 c2 2c bd
       -0.0741667 -0.13292228 -0.0296213 -0.04217799
000060 c8 78 13 3c bd 16 c9 3c 1f c4 12 3e 97 e2 17 3d
       0.009000964 0.024546975 0.14332627 0.037081327
000070 65 1e 08 3d 43 00 d0 3d c4 ad 17 be be 00 ba bd
       0.03323211 0.101563 -0.1481238 -0.09082173
000080 7b 1f 58 3d c9 82 47 3d be d7 9b 3d 3d 62 a3 3d
       0.052764397 0.04870871 0.07609509 0.07977722
000090 5b 2e 41 3e 8e 08 0a bd 6c d1 52 bd 07 2e bb bd
       0.1886534 -0.033699565 -0.05146925 -0.091396384
0000a0 74 7a 36 be e6 5b ef bc 16 16 cd 3c 7c 4e 1e bd
       -0.1782015 -0.029218625 0.025034945 -0.038649067
0000b0 d5 81 1f be 8a 9d 31 be 4d e3 8b bd 09 bf 37 bd
       -0.1557687 -0.17345253 -0.068304636 -0.04485992
0000c0 5f ac fb 3d 73 73 0d be ab 52 31 3d e5 86 8d 3d
       0.122887366 -0.13813572 0.04329173 0.06910495
0000d0 10 91 1f 3b 84 02 10 bd 8a 67 a3 3d c7 f7 d8 3d
       0.0024347939 -0.03515865 0.07978733 0.10594135
0000e0 87 99 25 3c 21 0b 9a bd 6a 47 06 3e 04 ec 4e bd
       0.010107405 -0.07521654 0.1311318 -0.05051805
0000f0 5d 48 07 be e3 62 e5 3c fe 50 73 3d 63 8f 2b be
       -0.13211198 0.028001254 0.059403412 -0.16753916
000100 04 f7 a4 3d 61 3b 7e bd c6 91 b3 3d 25 15 b8 bd
       0.08054927 -0.062068347 0.087680385 -0.08988408
000110 03 9c bb bd de 12 de bd 50 b1 d2 bd aa ce e4 bd
       -0.09160616 -0.108434424 -0.10287726 -0.111722305
000120 ee ae 4a bd 9e 2a e9 bd a9 75 29 bd 2f b5 d0 bd
       -0.049483232 -0.11385082 -0.041371975 -0.10190808
000130 1a 58 a7 3c 36 bc 86 bc 63 89 ca bd 24 a9 49 bd
       0.020427752 -0.016447168 -0.09889486 -0.04923357
000140 49 74 c9 bd 91 cd bd 3d 10 0e 4e bd 12 20 83 bd
       -0.09836633 0.09267724 -0.05030638 -0.06402601
000150 75 2a 06 3e a8 1e 2b be ae 59 4f bd 2c 82 07 bd
       0.13102134 -0.16710913 -0.050622635 -0.033083126
000160 5a 0e 39 3d cd a8 f7 bd 91 f0 ec 3d a7 09 f5 3c
       0.045179702 -0.12092743 0.11569322 0.02991183
000170 21 54 e1 3d e0 d1 4d 3e 57 3d 5a 3c 68 a2 12 bc
       0.110023744 0.20099592 0.013320289 -0.0089498535
000180 2e 28 db 3c ba 36 a5 3c f2 06 8c bd 30 cb 05 3d
       0.026752558 0.020167697 -0.06837262 0.032664478
000190 4a a4 34 be bb f4 b0 bd 66 ba 9b bd e8 2f 41 be
       -0.17640796 -0.08640429 -0.07603912 -0.18865931
0001a0 de e8 33 bd 23 9d 75 3d ce 51 26 be 4e c9 b1 3d
       -0.04392325 0.05996431 -0.16242144 0.08680974
0001b0 9a 06 58 3c 99 23 1b be 5b a0 76 3d fb 80 88 3d
       0.013185168 -0.15150298 0.06021152 0.06665226
0001c0 86 7d b4 bd 7d 98 fc 3d c9 7b 40 be da b7 1c bd
       -0.08813004 0.12333772 -0.1879722 -0.038261272
0001d0 42 dd c4 bc c5 0f ac bd e1 9a 2e 3c 21 2e 20 bd
       -0.024031285 -0.08401445 0.010657043 -0.039106492
0001e0 f0 d1 c8 bd 46 1c 95 3d ed c8 db 3d f5 fe 9d bd
       -0.098056674 0.07280783 0.10731683 -0.07714645
0001f0 1f 0e 4d 3d c4 fc db 3c 0d 7a a6 bd 6a b8 ca bc
       0.050062295 0.026853926 -0.08128748 -0.024746139
000200 ad 16 9b b9 74 1a 09 be 9c 7b dd bd 2b c2 d5 3c
       -0.000295808 -0.13388997 -0.10814592 0.026093563
000210 ff e3 84 bd 78 08 13 bd 5b 08 00 3e b0 b9 02 3e
       -0.06488799 -0.03589675 0.12503187 0.12766147
000220 ab 19 c1 bd f3 96 0c 3d 6e 9e 52 3e 24 cd 12 be
       -0.09428724 0.034323644 0.20568249 -0.14336067
000230 64 a4 2c bc 47 09 80 3e 7c b6 0f be 8c 04 40 bd
       -0.010537241 0.25007078 -0.14034456 -0.046879336
000240 16 68 33 bd 67 83 d5 3d de 78 76 3d ba 58 4e 3d
       -0.043800436 0.10425454 0.06017386 0.050377585
000250 f0 41 7b be d9 29 32 3d 78 c1 44 3b 3b 01 27 3e
       -0.24536872 0.04349694 0.0030022543 0.16309063
000260 1c b8 04 3e ac 07 05 be ef 19 0a bc 5f ec 8c bc
       0.12960857 -0.12991208 -0.008429035 -0.017202554
000270 14 8f 14 3e 2b cd e4 3d eb be b9 3b 99 54 eb 3d
       0.14507705 0.11171945 0.005668511 0.11490745
000280 d9 32 0a be b7 ed 18 be 43 3c 27 be 17 b9 0f 3e
       -0.1349596 -0.14934431 -0.16331582 0.1403545
000290 e1 7d e5 bb 95 a7 1c 3d cb 58 a2 bd 12 ff e1 3d
       -0.0070035313 0.038245756 -0.07927092 0.11034979
0002a0 52 54 8c 3d 7d 09 0f 3d c4 fc 8f bc 10 c8 17 bc
       0.0685202 0.034921158 -0.017576583 -0.009264007
0002b0 b8 b1 23 3e 64 02 29 3e e2 1b a5 3d 86 fe 1f bc
       0.15985763 0.16504818 0.08061959 -0.009765273
0002c0 4a 2c 35 bd 38 cf 87 3d 9a b5 dd bd fc 9f c1 bd
       -0.04423169 0.06631321 -0.108256534 -0.09454343
0002d0 28 01 d7 3c 6d be 19 3e 80 8d 76 3d 52 39 cd bd
       0.026245669 0.15014048 0.06019354 -0.100206986
0002e0 04 52 e4 3c 4e 69 83 3d 13 b7 23 be 27 ec 99 3d
       0.02787114 0.0641657 -0.15987806 0.075157456
0002f0 09 6f 95 3d b4 e4 3e 3d ed 9d cb 3d cb 44 19 3e
       0.07296569 0.046604827 0.09942231 0.14967649
000300 8f 85 c6 bd 65 27 54 bd cf 25 5f 3d ee 7e 11 be
       -0.09693443 -0.051795382 0.054479416 -0.14208576
000310 3e 36 b4 3d 18 d0 5b bc ba 13 95 3c f8 95 9f 3d
       0.087994084 -0.013416313 0.018197883 0.07792276
000320 a8 f2 20 3e 8a 6d 8f bc db 8d a6 bd ef ab 83 bd
       0.15717566 -0.017508287 -0.081325255 -0.06429278
000330 0d 04 af bd 11 e8 28 be 67 7d 00 bd 78 9f 04 bd
       -0.085456945 -0.16494776 -0.031369593 -0.032378644
000340 4d 9e 86 3d 0d 54 f8 bd 99 69 ef bd b4 21 e8 3b
       0.06573162 -0.121254064 -0.11690063 0.007084096
000350 be cc 5d 3d 02 09 cc bc 3e a5 82 bc 04 4f 89 3d
       0.054150335 -0.024906639 -0.015947934 0.06704524
000360 9c 23 71 3d fc f3 ff 3b 8a 53 ac 3d bc a9 a0 bc
       0.05887185 0.0078110676 0.08414371 -0.019612186
000370 90 fe 1c bc 92 9f 7e 3e c7 42 0c be 26 b7 17 be
       -0.009582177 0.24865559 -0.13697349 -0.1481596
000380 4e b9 86 3d 94 b0 e6 3d dd e1 16 bd 46 b9 5c 3d
       0.06578313 0.11264148 -0.036836494 0.053887628
000390 b9 0e e8 bd f9 47 29 bd 97 75 05 3e c5 37 ed bc
       -0.11330933 -0.041328404 0.13033138 -0.028957257
0003a0 4a a4 6b 3d c1 75 58 3e 3a 3c 84 3d f3 00 13 be
       0.057529725 0.2113867 0.064568 -0.14355831
0003b0 ed 76 7e bd 24 b8 c4 3d 4c 83 cb bd 90 c5 df 3d
       -0.062125135 0.096054345 -0.09937152 0.10926354
0003c0 f6 7a 92 3d df 52 a2 bd d4 67 ac 3c 43 61 e0 3c
       0.07152359 -0.07925963 0.021045603 0.027390128
0003d0 98 03 e7 3c a1 30 54 3d b7 51 e3 3c 32 f1 90 3d
       0.028199956 0.05180419 0.027748926 0.07077254
0003e0 89 2a ac 3d 36 e2 65 be 49 98 dc 3d 75 e2 5d bd
       0.084065504 -0.22449574 0.107712336 -0.054171044
0003f0 dd 52 1d be 14 77 aa 3b 3b ec a8 3d 14 22 cf bd
       -0.15363641 0.0052021835 0.082481824 -0.10113922

onnx::LSTM_197 f4 [1, 512]
000000 85 68 23 bd bc 52 f3 3c 1c cf 34 3e 15 a8 81 3b
       -0.0398946 0.029702537 0.17657131 0.0039568045
000010 af 76 b6 3d ba ca 80 bd 86 af 3e bd 14 3f 30 3d
       0.08909356 -0.06288667 -0.04655411 0.043028906
000020 90 af c4 3c 8e 59 19 3e 99 95 73 3d 75 95 2e 3e
       0.024009496 0.14975569 0.05946884 0.17049201
000030 0a 5e 48 bd 4f 8b 1d 3e 31 24 a1 bd 94 12 e1 bd
       -0.048917808 0.15385173 -0.07868231 -0.109898716
000040 9d ed 2d bd 38 d1 5a bc 02 5a 0b 3e cd c0 cc bc
       -0.042462934 -0.013355546 0.13608554 -0.024994278
000050 55 de 8e bd 63 c9 3c be b4 63 b4 bd a3 75 63 bd
       -0.06976 -0.18436198 -0.08808079 -0.05553211
000060 cd 70 59 3d 2b 9b a3 3d 33 2f d6 3c a6 ac 8e bb
       0.05308609 0.0798858 0.026145553 -0.0043540774
000070 4b 7d 02 bd a5 f0 a5 bd df 81 42 bc 1f b3 9f bd
       -0.03185777 -0.0810254 -0.011871784 -0.077978365
000080 db 65 0e 3c 6b 6e dd bd bf 04 a3 bd 21 f8 3a bd
       0.008691276 -0.10812076 -0.079598896 -0.04564679
000090 0f 4f 0f bd 6e 13 17 be e9 88 83 bc 58 20 e0 3d
       -0.034987506 -0.14753506 -0.016056495 0.10943669
0000a0 d1 2f 1d be da 9c 03 3d c4 1e 1a be 64 14 ef 3b
       -0.15350272 0.032132007 -0.15050799 0.007296132
0000b0 57 ae 8f 3d c5 9b 4e 3e 3e e0 ac bd 0d 58 a0 bd
       0.070156746 0.20176609 -0.08441208 -0.07829294
0000c0 8d 91 ac bd 5a d8 0c bd b1 38 9c 3c 2f a6 8a 3d
       -0.08426199 -0.034386016 0.019070001 0.06769978
0000d0 c6 92 1a bd ec 48 0f be d1 81 20 3c 65 8a 81 3c
       -0.03773763 -0.13992661 0.009796576 0.015813062
0000e0 2d 61 bd 3a 15 3a 92 bd 16 10 0a be d4 92 83 bd
       0.0014448516 -0.071399845 -0.13482699 -0.064244896
0000f0 76 71 d8 bd d4 c0 1f be e7 31 c0 bc 1d 10 ac bd
       -0.10568516 -0.15600902 -0.023461295 -0.08401511
000100 70 1a 96 3c 5a 96 36 bd 8e a3 63 3c 6b ba 27 3d
       0.018323153 -0.04457698 0.013893975 0.040949266
000110 e5 e2 5b bc c7 6b 6e 3d 4e 0a fe bd cc 64 fa bb
       -0.013420795 0.058208253 -0.12404309 -0.0076414105
000120 54 f8 9a bb 5a 15 60 bc 6a 33 cb 3d 62 cc 03 3e
       -0.00472931 -0.013676966 0.09921916 0.12870935
000130 b7 d6 90 3b 29 75 15 3d b0 94 9b 3d b3 9d f9 bb
       0.0044201273 0.036488686 0.07596719 -0.007617676
000140 19 f8 11 be 36 68 41 3d b0 89 48 bd 95 82 22 be
       -0.14254798 0.047218524 -0.048959434 -0.15870126
000150 8f a1 d4 3d 61 c8 5a be f6 f3 f6 bd 8d 44 b8 bd
       0.10382377 -0.21365501 -0.120582506 -0.0899745
000160 5c c5 8a 3c 62 83 1b 3e d1 15 fe 3c b4 d5 89 3c
       0.016939811 0.15186837 0.031016262 0.016825534
000170 d9 fe ec bc a0 46 59 bd 2f ab 2b 3d 98 f0 95 bd
       -0.028930115 -0.05304587 0.0419113 -0.0732128
000180 03 d3 02 3e 4b 10 87 3d e0 76 78 bd f4 01 a8 bd
       0.12775807 0.065949045 -0.060660243 -0.082034975
000190 5f c3 2b bc 91 32 74 bc 18 33 1a be 5f f7 32 bd
       -0.010483592 -0.014904634 -0.15058553 -0.043692943
0001a0 33 bd c1 3c 36 f4 54 3e bf f2 a4 3d 87 91 ac bd
       0.023649788 0.20796284 0.08054113 -0.08426195
0001b0 23 8a 0c 3e a4 fe 7a bc 12 d8 dc bd f1 e5 0a be
       0.1372457 -0.0153195 -0.107834 -0.13564278
0001c0 90 48 14 3c 69 6b 45 3e 6d 53 58 3d 4d 7e 4a bd
       0.009050503 0.19279255 0.052813936 -0.049436856
0001d0 9d b5 62 bd 5f d8 4b bd 68 bb 22 3c bd f5 ef 3d
       -0.05534898 -0.049766894 0.009932376 0.11716793
0001e0 82 4b d6 3d c8 dc 43 be 31 e6 e8 3d 2d c7 71 bc
       0.10463621 -0.1912719 0.113720305 -0.01475696
0001f0 4c 96 cc bd af 4b f1 bd 8c 8c e7 bd 2d 3c 90 bd
       -0.09989604 -0.117820136 -0.11306104 -0.070427276
000200 14 26 6f 3d dc fd 40 bd dc 23 ff bd 2c 97 e2 bc
       0.058385924 -0.0471171 -0.124580115 -0.027659975
000210 c7 63 4e 3d e6 14 52 bd d5 1a 2f 3d 34 23 fb 3d
       0.050388124 -0.05128946 0.0427502 0.12262574
000220 51 23 f9 bd 14 4a 7a bd 05 38 0f bd a7 2d ea 3c
       -0.12164939 -0.061105803 -0.034965534 0.028586222
000230 11 7c 51 3d 9e 72 ed bd c5 79 f0 bd 29 0e ef 3c
       0.05114371 -0.11594127 -0.11741976 0.029181557
000240 05 67 e1 3b ae 7e b3 3d 22 3b 4d 3d 94 c1 20 be
       0.006878736 0.087643966 0.05010522 -0.15698844
000250 4b c3 d4 bd f7 3d 7b bd 5b 08 50 be 8b f1 9c bb
       -0.10388812 -0.06133839 -0.20315687 -0.0047895364
000260 8c 64 59 bd 64 16 fd 3c 1f 4e 36 be e2 0a 8f 3c
       -0.053074405 0.030894466 -0.17803238 0.017461244
000270 e3 71 7c 3d 2f 92 9d bb e4 f3 f9 3c 16 e0 98 3c
       0.06163205 -0.004808686 0.030511804 0.01866154
000280 1b 3d 4c 3c 07 d7 04 be 7f 2b ed bd 4d b1 ca 3c
       0.012465741 -0.12972651 -0.11580562 0.024742747
000290 ad 27 41 be f3 3a a3 3d 5f 3c 13 3d c1 ae 0f be
       -0.18862791 0.07970228 0.035946246 -0.14031507
0002a0 ee 63 7a be 19 23 ad 3b 2e 63 ae bd 9d 63 37 be
       -0.24452183 0.005283725 -0.08515011 -0.17909093
0002b0 fa 09 cc bd 9a 58 3d 3e be 8d 86 3d 11 90 20 3c
       -0.099628404 0.1849083 0.06570004 0.009799973
0002c0 21 80 77 3d e9 68 fa 3c e9 fa c8 ba 6c 93 a6 bd
       0.060424928 0.030567603 -0.0015333566 -0.08133587
0002d0 62 30 13 bd f0 24 94 bd dd 68 d8 bc b2 b4 97 b9
       -0.035934813 -0.07233608 -0.02641719 -0.00028935593
0002e0 23 65 fe 3c 94 04 27 be 56 ee 8e 3d 6a c0 ec 3d
       0.031054085 -0.1631034 0.06979053 0.115601376
0002f0 d8 82 c4 bb c4 bf f7 bd 44 9b 69 3d 03 16 c6 3d
       -0.005997043 -0.12097123 0.05703284 0.09672167
000300 40 6b 36 bd c7 60 b4 3d 5c 58 66 bd 81 15 09 3d
       -0.044535875 0.08807521 -0.05623661 0.033467773
000310 7e a7 39 3d 60 62 57 bc a3 91 ea bd 67 3a b1 3d
       0.04532575 -0.013146013 -0.11453559 0.086537175
000320 fd bd 6b bd 52 1b 33 3d 27 8e 96 bc 7b f2 92 bd
       -0.057554234 0.043727227 -0.01837833 -0.07175156
000330 6d 3b 08 3e fe d7 aa bd 60 4e cc bd bc dc f1 bc
       0.13303919 -0.083419785 -0.09975886 -0.0295242
000340 c7 4f a3 3b 77 9b 3c bd ef 24 9a bb e8 9a 73 3c
       0.0049838754 -0.0460467 -0.00470411 0.0148684755
000350 f0 c4 6f bd 83 8a eb 3c 0b 68 07 bd f1 52 77 3d
       -0.058537424 0.028752571 -0.033058207 0.060381833
000360 d9 a0 67 3d 73 9f a3 3d 2a ef 0d 3d de 88 8e bc
       0.05654988 0.07989397 0.034651913 -0.017399248
000370 45 e1 4e 3d 47 bb e7 3d 6d 2a b8 3d 58 fc bc bd
       0.050507803 0.11315017 0.08992467 -0.09227818
000380 a2 17 61 3d eb 90 a7 3d 9f 6a 8e bd ee e8 1a 3d
       0.05495418 0.08181938 -0.0695393 0.037819795
000390 26 20 ae bc 3b d0 bf bc d5 7e 3b 3d c9 cc 3a bd
       -0.021255564 -0.023414722 0.045775253 -0.045605455
0003a0 a2 90 14 bd 6e 37 34 bd 3d 14 00 3c 86 1e a8 bb
       -0.036270745 -0.043998174 0.007817325 -0.005130592
0003b0 d2 b0 65 3d 43 59 de bc 51 69 89 bc 3e 5e 96 bd
       0.056076832 -0.027142173 -0.016773852 -0.07342194
0003c0 f6 56 2b bb 75 c6 c1 3c cd 1c dc bd a2 e6 88 bd
       -0.0026144362 0.023654202 -0.10747681 -0.06684615
0003d0 72 af 63 bd 95 26 1b 3c 1c 1f ab 3d c6 06 94 bd
       -0.05558724 0.009469648 0.08355543 -0.072278544
0003e0 e7 83 87 3c e5 34 c2 3d 28 ed 76 bd ea c1 85 3d
       0.016542388 0.09482745 -0.060284764 0.06531127
0003f0 a7 1c ab bb be cc bd 3c 2f 96 36 3d 1a c5 05 be
       -0.0052219215 0.023168918 0.04457682 -0.1306347

onnx::LSTM_217 f4 [1, 128, 64]
000000 2a 5c 71 bd 1f 35 a8 3d 6a 44 da 3a 30 dd 1b bd
       -0.058925785 0.08213257 0.0016652469 -0.038052738
000010 f7 4e 62 3c 84 c6 8b bd 2b 31 ec 3d 88 44 01 be
       0.013812772 -0.06824973 0.115328155 -0.12623799
000020 41 45 db 3d 20 63 76 3e b8 7e d2 3d e1 d4 f1 3d
       0.107065685 0.2406125 0.10278076 0.118081816
000030 76 a0 a5 bd 5d 0c bf 3d 00 e4 dc bc ea ef d2 bd
       -0.08087246 0.0932853 -0.026964188 -0.10299666
000040 3e 65 65 3d a1 02 3e be 40 4a b8 bb 79 0e 33 3e
       0.056004755 -0.1855569 -0.0056240857 0.1748599
000050 5a 86 c2 3d 16 0b 09 3e 00 d7 1a be 71 c3 79 3d
       0.09498282 0.13383135 -0.15121078 0.060977403
000060 fc fd 3c be 6d 19 d8 3d 74 4d 47 3d cc 8a f2 bc
       -0.18456262 0.105517246 0.04865785 -0.0296072
000070 78 53 15 3d 82 5c b4 bd bd 29 02 be 48 3f 19 3d
       0.036456555 -0.08806707 -0.12711234 0.037413865
000080 ed 6e 85 bd 37 ca 3b bd 97 86 61 3e a3 d7 11 3e
       -0.06515298 -0.045847144 0.22023998 0.14242415
000090 1e b3 38 3e 01 76 77 3c 0a 94 b4 3d 95 7f 59 3e
       0.18037078 0.015103818 0.08817299 0.21240075
0000a0 ec e0 5d be 4a c4 31 3c 97 b1 fe 3a 1e 21 3b bd
       -0.21667832 0.010850022 0.0019431588 -0.04568588
0000b0 89 b7 00 be 5a f4 b5 3c 15 08 20 be 26 c2 5d 3d
       -0.12570013 0.022211242 -0.15628083 0.054140233
0000c0 87 cf 32 bd 87 77 12 3e 45 42 d5 3d 9f 75 25 be
       -0.043654945 0.14303409 0.104130305 -0.1615815
0000d0 37 17 10 bd b0 77 cc 3d 05 46 6b bd f3 c9 05 3e
       -0.03517839 0.09983766 -0.057439823 0.13065319
0000e0 2f 7d f4 bd 44 3c 12 be e7 0d da 3b c9 a8 85 3c
       -0.119379394 -0.14280802 0.0066544893 0.016315835
0000f0 2b 4c d8 3d 8a 83 40 3e 57 19 0c 3e eb 85 e5 3c
       0.10561403 0.18800178 0.13681541 0.028017959
000100 3e 66 07 3e a0 65 5b be 34 ad f2 3c 11 04 4b be
       0.13222596 -0.21425486 0.029623605 -0.1982577
000110 ad 91 fe bd 90 94 78 3d c2 09 c3 3c 6a 7b ae 3c
       -0.12430129 0.060688555 0.023808364 0.021299083
000120 2a 0d 20 3e d9 27 04 3e 1f 91 92 3e 19 87 08 be
       0.15630022 0.12905826 0.28626344 -0.13332786
000130 a6 ff 13 3d cc 2e 2b be 22 f0 f4 3d 0b 6a 3a 3e
       0.036132477 -0.1671707 0.11959864 0.18204515
000140 9d e0 d9 bd e1 eb 5b 3c bd 16 7a bb 2c ed 38 3c
       -0.10638545 0.013422937 -0.0038160526 0.011287015
000150 e8 7f d2 3d 8b 6b 85 bd 7b 8b 1d be 57 5e f1 bc
       0.102783024 -0.06514653 -0.15385239 -0.02946393
000160 d6 66 a8 bd be 19 bb bd b8 72 c8 3c 3e 0a b0 3d
       -0.082227394 -0.09135769 0.024468765 0.085957035
000170 38 c1 90 bc 68 62 2c 3e cf 7f 89 3e c4 19 18 3e
       -0.017670259 0.16834414 0.26855323 0.14853579
000180 38 1d 15 3e 7d c4 41 3d 94 d6 96 bd 85 fe 98 bd
       0.14561927 0.047306526 -0.07365146 -0.07470421
000190 94 43 5b be db 89 d5 3c a7 73 9b bd 40 89 20 3e
       -0.21412498 0.026066711 -0.07590418 0.15677357
0001a0 cf f0 39 3e e6 5a c5 3d 5e b3 56 3d 97 1d b7 3c
       0.18158267 0.09636478 0.05241715 0.022352977
0001b0 6e a2 4e 3d 11 16 27 3d 9d 90 0f 3d 89 b6 33 3e
       0.050447874 0.04079253 0.035050023 0.175501
0001c0 6c 9a 97 bc ce a9 9c bc c7 cc de bd 70 7c 0c 3b
       -0.018506251 -0.019123938 -0.10878902 0.0021436475
0001d0 c2 95 2e be 90 c2 6d be 5f 77 37 3d 15 77 c8 3d
       -0.17049316 -0.23218751 0.044791576 0.09788338
0001e0 fc 88 05 be 3f 9f 33 3e d6 39 25 be 9c 02 4e 3e
       -0.13040537 0.17541216 -0.16135344 0.20118183
0001f0 a4 c8 af bb 01 54 a3 bd d4 92 f6 bd 40 f5 02 3e
       -0.0053644944 -0.07975007 -0.12039724 0.12788868
000200 ab 9a bb bd 26 78 c5 bd 55 ec 37 be ba a1 14 be
       -0.0916036 -0.09642057 -0.17961247 -0.14514819
000210 66 e0 13 bd 5d f0 35 be 7b 9a 90 be eb 33 d5 bd
       -0.036102675 -0.17767473 -0.2824286 -0.10410293
000220 cf b5 3b 3e a5 bb 59 be 09 0c 8d 3e 66 ca b2 3c
       0.18331073 -0.21262987 0.27548245 0.021825027
000230 2c 28 8d be 33 9b 9c 3d cb 46 24 3e cf 90 2b 3e
       -0.2756971 0.076467894 0.1604263 0.16754459
000240 47 31 cb bd 6b 63 cd 3a 7e 66 57 3e 96 49 06 3e
       -0.09921508 0.0015669888 0.21035191 0.13114008
000250 b5 49 8d bd a9 bc 63 be 05 37 11 be 9e e9 ab 3d
       -0.06898824 -0.22239937 -0.14181145 0.08394168
000260 e9 6e 60 bd 95 9c bc bb 80 43 2e bd 96 0b 9f 3d
       -0.054793272 -0.0057559707 -0.04254484 0.07765882
000270 1a 12 84 bd fd d6 94 3e 04 10 9b bd 90 b0 64 3e
       -0.06448765 0.29070273 -0.07571414 0.22332978
000280 e8 3d 15 bd 9f de 2f bd 1d 93 dd bd 50 65 07 3e
       -0.03643599 -0.042936917 -0.10819075 0.13222241
000290 25 b1 bb 3c 7a 4e bc 3d d7 e9 86 bd 6e 72 6c bd
       0.022911618 0.09194656 -0.0658757 -0.057726316
0002a0 e5 b6 25 be 95 bf 9b ba 2f 24 2b be 2d 32 db 3d
       -0.1618305 -0.0011882657 -0.16713022 0.1070293
0002b0 bb d1 dd bc 7c c1 ea 3d 1a 0f 08 be ef 52 a6 bd
       -0.027077546 0.114626855 -0.13287011 -0.08121287
0002c0 03 94 3c 3e a4 89 e6 3c 46 c9 9c be 67 90 45 3e
       0.18415837 0.028141804 -0.3062231 0.19293366
0002d0 c3 0b bf bd 36 c3 b3 3d 63 96 39 be 91 9c 39 3e
       -0.09328415 0.08777468 -0.18123774 0.18126132
0002e0 f5 cf 01 be c5 19 3c 3e 39 9b a9 3c 0f 05 3c 3d
       -0.12676986 0.18369205 0.020703899 0.04590326
0002f0 3f b5 6e 3e cc 54 7c be d5 0b bc bd 99 5b 2d 3e
       0.23311327 -0.24641722 -0.09181944 0.16929473
000300 37 5e 7d 3d b7 9e 8e be 30 56 48 3d 8f 5a 16 be
       0.06185743 -0.27855465 0.04891032 -0.14682983
000310 32 5e 2e 3e 77 0d 23 3d e4 c6 85 bd 2c c1 1d be
       0.1702812 0.039807763 -0.06532076 -0.1540572
000320 8a 45 4f 3d 2f 05 f2 3c 34 d9 91 3e 65 d1 6f 3e
       0.050603427 0.029543487 0.28486025 0.23419721
000330 f3 07 b5 bc ae 74 1a be 40 97 0d 3c ee 34 91 bc
       -0.022098517 -0.15083572 0.008642018 -0.017725434
000340 3d cd e9 3b 3c e8 98 be ae fd 0a 3e 0b c3 1b 3e
       0.007135062 -0.2986468 0.13573334 0.15211122
000350 d6 cf 16 be 54 6f 28 be fc d0 04 be ac 1b 86 3d
       -0.1472772 -0.16448718 -0.12970346 0.06548247
000360 d1 f3 cd 3d b9 69 00 be 1a 66 07 bd 84 31 86 3d
       0.1005627 -0.1254033 -0.033056356 0.06552413
000370 5b f5 5c bd 04 cf 07 be d2 7a da 3d cc 01 eb 3c
       -0.053944927 -0.13262564 0.10667957 0.02868738
000380 11 5e db bc 21 f0 5a be b9 96 9f bb 0c 92 45 3d
       -0.026778253 -0.21380664 -0.0048702625 0.048234984
000390 95 97 97 3d b9 47 5c bd e1 61 38 bc 4e 59 37 3e
       0.07401959 -0.053779338 -0.011253805 0.17905161
0003a0 90 ea 1d 3e d9 98 da bd ce 70 18 3d 51 2a ac 3e
       0.1542151 -0.106736846 0.037216954 0.33626035
0003b0 9a be f7 3d 67 21 b2 3d 9e 6a 41 3e c1 3e 6d 3e
       0.12096901 0.08697777 0.18888327 0.2316847
0003c0 b1 62 54 3e 2d 1a 09 bd 47 76 9a 3d b1 ac 10 3e
       0.20740773 -0.03347223 0.07542091 0.14128377
0003d0 25 48 fb 3d 81 75 05 bd 53 81 96 bd da 3f c7 3d
       0.1226962 -0.032582764 -0.073488854 0.097289756
0003e0 c7 97 80 bd b1 ef a8 bd 8b 20 4a 3e 1a db 4d be
       -0.06278949 -0.082488425 0.19738977 -0.20103112
0003f0 66 15 96 3e 7f 6c 4e be de f9 aa bd 9f 10 9c 3d
       0.293132 -0.20158575 -0.0834844 0.07620358

onnx::LSTM_218 f4 [1, 128, 32]
000000 83 ed 02 3e bd c7 64 3d 72 f4 34 3d 5c b1 cf bd
       0.12785916 0.055854548 0.044178434 -0.101412505
000010 76 18 c4 bd df c2 27 3e b2 d5 94 bd f4 a0 c3 bd
       -0.09574978 0.16382931 -0.07267322 -0.09552184
000020 53 ee 90 3d d8 f2 1d be bc 79 3c be 37 e7 e3 3d
       0.07076707 -0.15424669 -0.18405813 0.11128085
000030 f8 d4 35 be 9a 03 58 3e 6e dd 50 bd 26 03 e4 3c
       -0.17757022 0.21095124 -0.05099242 0.027833533
000040 b0 94 e5 3d 8d d2 33 be 14 6e f8 bd 58 57 1f be
       0.112100005 -0.17560787 -0.12130371 -0.15560663
000050 fd bd 55 be 6b 59 3d 3e a1 86 8a bd 1a bc ea bd
       -0.20873256 0.18491141 -0.0676396 -0.11461659
000060 50 bf 83 3c 9c e5 bc 3d 4d 8e cd bb e3 0f 18 be
       0.016082436 0.09223482 -0.006273067 -0.1484981
000070 82 0f c6 3d 12 24 21 be f0 e1 99 bd e0 5e e0 bd
       0.09670927 -0.15736416 -0.07513797 -0.10955596
000080 77 9f b7 3a 76 55 f6 3d 11 25 d1 3d a4 0f 14 be
       0.0014009316 0.12028019 0.10212148 -0.14459091
000090 77 9b a5 bd 2c 99 2f 3d 2c 40 60 be c4 8a 36 3d
       -0.08086293 0.042870685 -0.2189948 0.04456593
0000a0 b1 36 7f be 47 d5 a6 bd 3c d9 d9 bb 65 62 20 ba
       -0.24923207 -0.08146148 -0.006648211 -0.00061181776
0000b0 6e cf fc 3d 52 c8 57 3e 39 0d 12 bc 4f 0d 25 be
       0.123442516 0.2107251 -0.008914285 -0.16118358
0000c0 22 dc d0 3c 80 87 65 bd 59 4f 1a bc 9d 85 39 3e
       0.025495593 -0.056037426 -0.009418332 0.18117376
0000d0 ee bd 6c 3d 24 61 7c 3e 48 79 b8 bd 62 b6 2b be
       0.05779832 0.24646431 -0.090075076 -0.16768792
0000e0 f4 7c 99 3c a7 ae a2 bd 5d 3e a3 bc 61 4c 66 3d
       0.01873634 -0.079434685 -0.019927198 0.056225184
0000f0 dc 0e 1a 3d 9f c2 49 bd 39 e6 85 bc 40 b2 30 bc
       0.037611827 -0.04925787 -0.01634513 -0.010784686
000100 dd 14 6f bd 91 63 29 3e 6b 56 37 3d fc 34 a8 3d
       -0.058369506 0.16541888 0.04476015 0.08213231
000110 a2 4a e1 bc 0c ff 80 be a0 89 68 be 2c 6f b0 bd
       -0.027501408 -0.25194585 -0.2270875 -0.08614954
000120 1a 50 af 3d 16 c8 23 3e bc a5 58 be e1 1d bd bd
       0.085602 0.15994295 -0.21156973 -0.092342146
000130 e5 96 73 3e 26 e1 b6 3d e5 a4 93 3b e5 50 94 ba
       0.2378803 0.089296624 0.004505741 -0.0011315612
000140 a7 5e 0d bd aa e5 a8 bc eb e4 0c 3e b8 db 5a bd
       -0.034514096 -0.020617325 0.137592 -0.053432196
000150 1e 1c 24 be 31 11 49 3d 3d a5 77 bd fa f8 04 be
       -0.16026351 0.04908866 -0.060460318 -0.12985602
000160 f0 b7 a0 b9 08 75 a2 bd 4f 79 8e be f0 6d 21 bd
       -0.00030654622 -0.07932478 -0.27826926 -0.039411485
000170 18 5b 9d 3d 69 40 f3 3d 86 f3 44 3e 89 ec 8c 3d
       0.076833904 0.1187752 0.19233522 0.06881053
000180 33 f9 bd bd 9e a5 cd bd d5 91 07 be 56 f0 1d 3d
       -0.092760466 -0.100413546 -0.13239224 0.03855928
000190 70 7c 90 bd d6 7e b9 bd 35 10 ef bd 7f bb 9c 3c
       -0.070549846 -0.09057395 -0.11673013 0.019132374
0001a0 fd 43 e5 bb b7 59 80 3e 65 16 d4 3d 2a ef 52 3c
       -0.00699663 0.25068447 0.10355834 0.012874404
0001b0 15 f7 37 3e 1c d9 08 3e 4b 72 2b 3e cd dc d6 3d
       0.17965348 0.1336407 0.16742818 0.10491333
0001c0 ef 1e fb 3d 7f 13 f8 3b cd 49 4a bb a6 74 7e bd
       0.122617595 0.0075706835 -0.0030866743 -0.062122963
0001d0 85 d7 9a bd fe d9 08 3e cc c5 0e 3e 67 09 95 bc
       -0.07560638 0.13364407 0.13942641 -0.01819296
0001e0 f7 20 15 3e 93 cf 7c 3d b3 a0 e9 bd a0 29 92 3d
       0.14563356 0.061721396 -0.11407604 0.071368456
0001f0 dc 4e 5e bb be 2d 06 3e ac c5 17 3e ef f7 7a 3d
       -0.0033921516 0.13103387 0.148215 0.061271604
000200 b0 c6 e5 3c e3 5a 80 3d cf 04 1f be e1 e5 37 bd
       0.028048843 0.06267335 -0.15529178 -0.044896964
000210 d8 e7 17 be 3f 45 01 3d 23 8b 79 bd 12 e3 70 be
       -0.14834535 0.03156018 -0.060923707 -0.2352412
000220 60 0c ec 3c 6b 2c 80 bd ec e9 68 be f1 e6 9a 3d
       0.028814495 -0.06258472 -0.22745484 0.0756358
000230 22 aa e6 bd 3f 2e 98 bd 18 79 2e 3e a4 ae a6 bd
       -0.11262919 -0.07430696 0.17038381 -0.08138779
000240 3e b7 86 3d 74 21 bd bd 30 d3 3b bd 2c d7 5a be
       0.065779194 -0.09234896 -0.0458557 -0.21371144
000250 9f 59 3d 3a 1c 6d 0c 3d 84 35 63 3e 39 52 c8 3d
       0.00072231324 0.034283742 0.22188383 0.09781308
000260 51 8b 3c 3d 02 da af 3d 2a f5 ba bd 22 38 52 bb
       0.0460313 0.085865036 -0.091287926 -0.0032076915
000270 16 8f d9 bd 49 8d 5c 3e 8c ef 06 be c2 51 f9 3c
       -0.106229946 0.21538271 -0.13177317 0.030434493
000280 23 57 9e 3d 8e 93 6c 3e 9c 13 12 3d 35 6a 05 3e
       0.07731464 0.23103163 0.035663232 0.13028796
000290 1f e4 13 be 52 fd 9b bd 60 be 34 b8 fe 1b fa bc
       -0.1444249 -0.076166764 -4.3092645e-05 -0.030530926
0002a0 c7 5a cc bd ae 68 02 3e ae 8c 69 be 62 7d 1b be
       -0.09978252 0.12735245 -0.22807571 -0.15184548
0002b0 8b 86 93 3d 92 d2 1d 3d a2 e3 6d 3e a8 c6 57 be
       0.072033964 0.038530894 0.23231366 -0.21071875
0002c0 0f 26 ec 3d 38 e3 0d bc e3 60 1b be de 06 0c 3e
       0.115306966 -0.00866013 -0.15173678 0.13674495
0002d0 03 78 81 be 43 c5 79 bd 0e 22 ef 3d a2 33 eb 3d
       -0.25286874 -0.06097914 0.11676417 0.114844576
0002e0 e0 ff 5d be 61 eb 76 be 54 eb 7b bd cc e9 84 3b
       -0.2167964 -0.24113227 -0.061503723 0.004056191
0002f0 43 d8 98 bb 06 d1 2e 3d e3 98 3b 3e 7e fd a6 3d
       -0.0046644523 0.04267981 0.1832004 0.081538185
000300 cc 1c 60 3c 1f 7c 0b bd f9 61 db bd fd 2d f8 bc
       0.013678741 -0.034053918 -0.10712046 -0.030295366
000310 ea 9c 94 bc 75 fd 20 3d 25 69 27 3b 61 25 fe bd
       -0.018141229 0.039304215 0.0025544849 -0.12409473
000320 b5 68 4e 3b f5 dc dc bc f4 8b cf bd 6c 74 44 be
       0.0031495516 -0.02696083 -0.10134116 -0.19185036
000330 ad 1c eb 3c dc 44 f5 3d 85 7f 60 3d 47 7c 7d bd
       0.028700197 0.119760245 0.054809112 -0.0618861
000340 68 c6 e2 3d fa 67 12 3e 8c 12 b8 3d b0 c7 21 3e
       0.11072999 0.14297476 0.089879125 0.15798831
000350 62 ef 0f 3d 99 d3 02 3e 5d a6 e1 3d 07 a8 f1 bc
       0.035140403 0.1277603 0.110180594 -0.029499067
000360 e1 e7 4f bd 0a be 09 be 71 54 f3 bd 89 c2 f9 3c
       -0.050758246 -0.134514 -0.1188134 0.03048827
000370 bc c9 88 3d ce f2 0e 3c b9 ae 32 bd 34 35 88 3d
       0.06679103 0.008724881 -0.04362366 0.06650773
000380 4d d1 87 3e fe 56 6c 3e a1 b9 ef bd d6 10 3d bd
       0.2652687 0.2308006 -0.11705328 -0.046158634
000390 00 0b 79 3d 66 1a 04 be 01 dd 3c be 10 93 1f be
       0.060801506 -0.12900695 -0.18443681 -0.15583444
0003a0 71 98 a1 bd 29 ff 2a be 93 df 26 bd 4d df aa bd
       -0.07890404 -0.16698898 -0.04074056 -0.083433725
0003b0 1d 76 8c 3c b5 6c e0 bc 3b 9b 6d 3e b4 71 37 bd
       0.017146165 -0.027395586 0.23203747 -0.04478617
0003c0 25 ce bc 3d 37 c3 80 be 52 38 e4 3d 17 75 0f 3e
       0.092190064 -0.25148937 0.11143555 0.1400951
0003d0 30 4c a8 bd 2e 45 be bd 3a 66 dd bb 4c d5 a2 bd
       -0.082176566 -0.09290539 -0.006756571 -0.079508394
0003e0 75 e3 55 be da 86 99 bd 47 b2 23 be 6c 3d 49 3e
       -0.20887549 -0.07496424 -0.15985976 0.19652337
0003f0 5b 42 9c 3d c3 90 52 3e b1 f8 10 3e f6 91 3c bd
       0.07629844 0.20563035 0.14157368 -0.046037637
