cw-monitor-dnn/morse_dense_model.onnx (onnx, 12531 bytes, 8 tensors)

network.0.weight f4 [64, 1]
000000 5c 0a 79 3f 15 46 5e 3f 79 08 c4 be bc 8d 84 3f
       0.9728143 0.86825687 -0.38287714 1.0355754
000010 b0 5c 60 be 91 d8 46 3e 73 ea 1d bf 23 91 5b 3f
       -0.21910357 0.19418551 -0.61685866 0.85768336
000020 a4 e6 8b 3f 0e cf 3b bf 2d 57 81 3f b0 a6 3f 3e
       1.0929761 -0.73362815 1.0104729 0.1871593
000030 ec 1d 60 3f d0 72 10 3d bf 51 42 3f b1 06 d8 be
       0.8754566 0.035265744 0.75905985 -0.42192605
000040 2a 80 58 3f 38 5b 17 3e a5 f5 d6 be fe 6f df 3e
       0.8457056 0.14780891 -0.41984287 0.4364013
000050 19 4e fa be c0 2c f0 bd e1 94 c7 be 26 ca 50 3f
       -0.4888771 -0.117272854 -0.38980773 0.81558454
000060 05 c3 8f bf d1 b9 42 bf 2e c7 1b bf 83 34 61 bf
       -1.123139 -0.76064783 -0.608508 -0.8797075
000070 b8 cb 99 3d a9 93 9c bf 04 17 76 3f 9c d4 96 bf
       0.075095594 -1.2232562 0.9612887 -1.1783633
000080 a2 f3 86 3f b4 02 a0 3e ac 3f a6 be 69 90 5b 3f
       1.0543101 0.31252062 -0.32470453 0.8576723
000090 be 92 38 3e eb 3f 7a 3f 5e c8 6c 3e 98 78 a1 be
       0.18024728 0.9775378 0.23123309 -0.31537318
0000a0 42 9b f5 3e 08 d8 8a be 9f 17 2d 3f d4 a6 70 3f
       0.47970015 -0.27117944 0.6761417 0.9400456
0000b0 64 a6 48 3f 14 d5 df be 70 8b 0e 3f a9 fc cf 3e
       0.7837889 -0.43717253 0.55681515 0.40622452
0000c0 20 37 42 3f 86 08 1c bf 2a 80 ac bf 0c d1 c5 be
       0.75865364 -0.60950506 -1.3476613 -0.38636053
0000d0 bf a2 84 bf 5a b9 6b 3f e3 cd d5 3e e2 80 16 3f
       -1.0362166 0.920797 0.41758642 0.5879041
0000e0 92 a6 ec 3e 00 82 8e bc 8e 4c 46 3f 38 e4 35 bf
       0.46220833 -0.017395973 0.77460563 -0.7105136
0000f0 20 f3 80 3d f4 ba 2e bf 6a 9c d0 3e e0 52 b0 be
       0.062963724 -0.6825402 0.40744334 -0.3443823

network.0.bias f4 [64]
000000 9c cf fa 3e 1a 09 91 be e1 62 4a 3f 54 e4 28 bf
       0.48986518 -0.28327256 0.7905713 -0.659734
000010 8a ad 18 bf 8d af 1a bf 82 61 80 3f fe ce e4 3e
       -0.596398 -0.6042412 1.0029757 0.44689173
000020 b8 7a 55 3f 4e 45 53 bf b2 d8 67 bf fe 48 48 bf
       0.8339038 -0.82527626 -0.90565026 -0.7823638
000030 ee 7f 26 bf 73 32 f0 3e c4 4d cd 3e cb 86 4c 3f
       -0.65038955 0.4691349 0.40098393 0.7989318
000040 47 9a 15 bf aa 84 2e bf 9f b9 2e 3f cf 1d 9e be
       -0.58438534 -0.6817118 0.68251985 -0.30882117
000050 43 35 40 3f f0 fe 72 be e2 da 2f 3f cd d6 32 bf
       0.7508127 -0.23730063 0.68693364 -0.6985901
000060 a5 b8 47 be 3c b8 59 3e e7 05 27 3e 96 4d 60 bd
       -0.1950403 0.21261686 0.16310845 -0.05476149
000070 de 1f 2b 3f fc fc 0a 3f 02 13 4c bf 38 12 6f be
       0.668455 0.54292274 -0.79716504 -0.23346794
000080 6a c7 42 3f df 81 8e be 2c 83 b5 be c0 81 44 bf
       0.7608553 -0.2783346 -0.3545164 -0.7676048
000090 62 25 0c bf 1c 0d f5 3e 84 31 32 be aa d3 39 bf
       -0.5474454 0.47861564 -0.17401701 -0.725886
0000a0 72 05 83 3e 6e de 2e bf b2 3a 1c bf 54 46 31 bf
       0.25590092 -0.6830815 -0.6102706 -0.6924794
0000b0 dc 77 34 bf 44 01 23 bf d2 ec 83 3f 7d 1a 82 3e
       -0.7049539 -0.63673806 1.0306647 0.25410834
0000c0 8b 8b d6 3e 66 c4 6e bf 80 48 8d be 14 6c aa be
       0.41903338 -0.9326843 -0.27594376 -0.33285582
0000d0 54 5e 80 3d bc 03 5b bf 23 42 c3 be 43 c1 00 bf
       0.06267992 -0.85552573 -0.38136396 -0.50294894
0000e0 0d ef 77 3e 50 84 be be 53 8d a9 3e 24 79 2d bf
       0.24212284 -0.3721032 0.33115634 -0.6776297
0000f0 98 b7 2f bf d2 59 15 bf da 0c b1 be 50 0e 4a bf
       -0.68639517 -0.5834018 -0.34580117 -0.7892809

network.3.weight f4 [32, 64]
000000 7f 89 7e 3e 5b 08 4d 3d a1 18 7c 3d ef 45 dc 3d
       0.24857138 0.050056797 0.061546925 0.10755526
000010 b0 c7 d8 bd cc e0 eb 3d be 68 c5 bc f7 22 25 3e
       -0.10584962 0.11517486 -0.024097797 0.1612662
000020 9e d6 58 3b 50 81 fe bd 98 08 d2 3d c0 af df bc
       0.0033086906 -0.12427008 0.102555454 -0.027305484
000030 24 f9 da 3d 49 40 2d 3b 99 d4 86 3e c8 c5 3b bd
       0.10692051 0.0026436022 0.26334074 -0.045842916
000040 12 d2 2f 3d f0 e1 d5 3c 72 f9 88 3c 39 e7 26 3e
       0.042924948 0.026108712 0.016720507 0.16299142
000050 58 76 7a 3c f2 fc ca bd 43 5a ff 3b de 19 2b bb
       0.015287004 -0.09911527 0.0077927425 -0.0026107947
000060 36 ed d0 be 6a 10 2d be 3c 3a 85 bd 14 7c bc be
       -0.40805978 -0.16900793 -0.06505248 -0.36813414
000070 1e 3c ec 3d 94 f8 0d bd 29 25 d6 3d 75 a2 e7 be
       0.11534904 -0.03466089 0.104563065 -0.45241132
000080 5d 6c 66 3e 7a b1 cf 3d 38 ba 83 3c 33 2b 72 bd
       0.22502275 0.10141273 0.016080007 -0.05912323
000090 db c8 93 3d dd 4a 25 3e 48 02 18 3c ec e3 db 3d
       0.072160445 0.1614184 0.009277888 0.10736832
0000a0 3c 17 8c 3e 86 a3 8d bd 51 29 d9 bc 1c 01 61 3d
       0.27361476 -0.06915955 -0.026508959 0.0549327
0000b0 df 78 f9 3d 54 d5 02 bd 7a 64 8e 3d ee a5 31 3e
       0.121812575 -0.031941727 0.06952758 0.17348453
0000c0 ff 5e ee 3d 88 98 36 3d 4e c9 93 be 3c 02 f1 bd
       0.11639213 0.04457906 -0.2886452 -0.11768004
0000d0 80 5f 2b be 93 65 04 3e 65 b0 9c 3d a4 c7 3f 3c
       -0.16735649 0.12929372 0.07650832 0.011705313
0000e0 96 45 94 3e 08 88 86 3d 4c a8 4e 3e 50 f0 b3 bc
       0.2895934 0.06568915 0.20181388 -0.021965176
0000f0 08 94 07 bd d0 18 5b 3c 9d 76 63 3d 98 93 18 bd
       -0.033100158 0.013372615 0.05553304 -0.03725013
000100 41 57 e9 bd 48 d8 06 3e 47 e0 8e 3d b8 bf 16 bc
       -0.113935955 0.13168442 0.06976371 -0.009200983
000110 80 14 ef 3a b7 27 ca b9 30 68 c5 3d da ae 3c be
       0.0018240362 -0.00038558032 0.09639013 -0.18426076
000120 9b cd a7 3c 84 f2 3c bd 49 d1 19 3e c0 73 47 3d
       0.020483783 -0.04612972 0.15021242 0.048694372
000130 eb 37 1f 3c b4 37 90 3c 46 01 68 be 3f db 98 bc
       0.009717922 0.017604686 -0.22656736 -0.018659232
000140 d6 f0 e2 3b 90 e7 2c 3d a2 1a 18 3e af f4 de 3d
       0.0069256825 0.042213023 0.1485391 0.108865134
000150 d3 3b 93 bc e4 f2 99 bd 34 99 e1 3c 88 86 33 3e
       -0.017972862 -0.07517031 0.027538873 0.17531788
000160 e7 37 de 3d 38 ad b0 3a dd 12 10 3e 59 eb 16 3d
       0.10850506 0.0013479358 0.14069696 0.03684554
000170 bf 44 87 3c 35 a9 05 3e 13 54 d7 bc fb 61 09 3e
       0.016512273 0.13052829 -0.026285207 0.13416283
000180 f1 b1 85 bd b8 c4 fc 3d 58 f4 c1 3d c4 23 c5 3d
       -0.0652808 0.123422086 0.09470433 0.096259624
000190 96 f8 99 bd a3 7f a9 be 34 cf 2f bc 36 e6 be 3d
       -0.07518117 -0.33105192 -0.010730553 0.09321253
0001a0 6c a4 41 be d6 6c d7 3d 0f f5 0c 3e 69 41 a6 3d
       -0.18910378 0.10518806 0.13765357 0.08117945
0001b0 80 71 7b 3d 86 b0 c2 bd d8 6b b5 bc 40 93 0c be
       0.06138754 -0.095063254 -0.02214615 -0.13728046
0001c0 b5 d8 3b be 28 60 7b bd fd 94 c1 3d 50 54 93 bd
       -0.18344386 -0.061371 0.094522454 -0.07193816
0001d0 dc 58 c3 3d 5a a6 99 bd 6f 1f fc bc 1b 63 b3 3d
       0.09538433 -0.07502432 -0.030776707 0.08759137
0001e0 a0 7f b5 be 34 0a 9e 3d 5b 2e 71 be 10 cb bb bd
       -0.35448933 0.0771679 -0.2355284 -0.091695905
0001f0 68 ac b4 bc d0 30 78 bd e7 91 a3 bc fc b5 f3 bd
       -0.022054866 -0.060593426 -0.019967033 -0.11899945
000200 f9 b2 1a 3e c1 79 0b be b8 b2 fa 3d 7a 33 e0 bd
       0.15107335 -0.13620664 0.12241119 -0.109473184
000210 10 e5 b6 3d f3 c5 ee bd 0b 40 e7 3d ea 15 7f 3d
       0.08930409 -0.116588496 0.11291512 0.06227676
000220 87 47 8e 3d d2 69 f0 3d 78 4d 5d be 00 69 7d ba
       0.069472365 0.117389336 -0.21611583 -0.00096668303
000230 c4 3f 66 be 24 bc b3 3c f7 22 12 3e 34 d3 ed bc
       -0.22485262 0.021940298 0.1427115 -0.029031374
000240 55 80 d4 bd ae 8b bf 3d cb 9d ff 3d d0 12 87 be
       -0.1037604 0.09352814 0.124812685 -0.2638154
000250 40 cb ac ba e8 39 e6 3c 43 f2 d9 3d 6a 84 b1 be
       -0.0013183132 0.028103784 0.10641911 -0.34671336
000260 83 b3 a3 be d4 12 1e be 82 58 c6 bd 34 d3 a7 be
       -0.31972894 -0.1543687 -0.0968485 -0.32778323
000270 3c f3 8f 3c 95 fb 9b bd f7 74 8c be 40 29 5f be
       0.017572038 -0.07616345 -0.27432987 -0.2179308
000280 9a ad 17 3e 6b 1f 84 be 00 3b 69 bc 06 c8 9d be
       0.14812317 -0.2580522 -0.014235258 -0.30816668
000290 4b 89 1e be 7c 28 c4 bc cd 3a 37 be 4a 8e 8c bd
       -0.1548206 -0.023945086 -0.17893524 -0.06863077
0002a0 0d a4 5b 3d a0 ca 1f bc 06 a7 97 be b8 9f 37 be
       0.053623248 -0.009752899 -0.29619616 -0.17932022
0002b0 24 3a 75 be 00 34 d9 bc 5f e1 dd 3c 07 08 85 3d
       -0.2394796 -0.026514053 0.027085004 0.06495672
0002c0 a9 c7 2a 3d 68 a8 d6 3d f5 ac c5 be 64 ab 07 3d
       0.041694317 0.1048134 -0.38608518 0.033122435
0002d0 7b 68 58 be b8 db 33 be 79 4a 09 be 1c 7d 40 be
       -0.21133606 -0.17564285 -0.13407315 -0.18797725
0002e0 5a 62 ca bc d8 36 4b 3d 45 27 24 3e dc b2 06 3d
       -0.0247051 0.04961285 0.16030605 0.032885417
0002f0 f4 a0 ab 3d 20 63 fc 3d e3 57 46 be 28 89 d4 3c
       0.08380309 0.12323594 -0.19369464 0.025944307
000300 9c 58 b4 be 1d a4 49 bd 29 fd 3e 3e 51 05 44 3d
       -0.35223854 -0.049228776 0.1865126 0.047856633
000310 76 fe a1 bd 59 9f da bd 5a d6 c5 3b 65 9b ce be
       -0.07909863 -0.106749244 0.0060375156 -0.40352932
000320 16 15 99 bd 88 3b fd bc 49 c1 89 3d 40 66 ab 3c
       -0.07474725 -0.030912176 0.06726319 0.02092278
000330 b8 bc c8 bd ea 4e 5c bc bb 63 3d be 20 d8 9f 3c
       -0.0980162 -0.013446549 -0.18495075 0.019512236
000340 7d 9e ad bc 08 9c 75 3d 7b 71 38 3d 8f 81 f0 bc
       -0.021193737 0.059963256 0.0450301 -0.029358653
000350 8b e6 cb 3d e8 42 f2 bc ae 38 54 3d 4b 0e f5 bd
       0.09956082 -0.029572919 0.051811866 -0.11965617
000360 6b d9 81 3e 21 5a 9c 3d 4d 8b 97 3e 86 2f 5b 3e
       0.2536119 0.07634378 0.29598466 0.21404848
000370 ea d5 28 3c a8 19 bc 3d 28 70 a6 3c a9 1f b5 3e
       0.010304907 0.09184581 0.020317152 0.35375717
000380 12 4b 95 3d 73 08 5e 3d 02 d3 fd bd ca 14 36 bb
       0.07289709 0.054207277 -0.12393762 -0.0027783387
000390 de 27 94 3d 56 c6 93 be 47 bf b8 bd 14 0e f4 3d
       0.072341666 -0.28862256 -0.09020858 0.11916748
0003a0 b8 a1 c2 be 90 c0 91 bd ee c8 04 be 7a 57 07 bc
       -0.38014007 -0.071168065 -0.12967274 -0.008260602
0003b0 82 0f 18 3d f0 ac e2 3c 48 7c 4f 3d 12 44 67 be
       0.037124164 0.027670354 0.050655633 -0.2258456
0003c0 84 f5 cb be 80 41 10 3b 34 16 be 3e 1e b1 93 3d
       -0.3983575 0.0022011697 0.37126315 0.07211517
0003d0 46 20 10 3e e0 3a fb bc 8a ab e3 bd 05 7f 9f bd
       0.14074811 -0.030667722 -0.11116703 -0.07787899
0003e0 eb 78 ad be e0 66 8b 3d b5 d9 34 be 00 09 eb bd
       -0.33881316 0.06806731 -0.17661174 -0.11476326
0003f0 5e 2a ab 3d 06 8e b4 bd b9 30 27 3d 88 a3 d8 3d
       0.0835769 -0.08816151 0.04081795 0.10578066

network.3.bias f4 [32]
000000 f6 cc 23 3e b4 97 20 3e 75 0b 97 3d 8a d4 3a 3e
       0.15996155 0.1568287 0.07375232 0.1824514
000010 75 9a a8 3d 8d ac eb bd cc cd af 3c 28 49 91 be
       0.08232585 -0.11507521 0.021460436 -0.28376126
000020 bb e0 13 be e2 05 dc bd 6d be 2e be 8d 28 19 3e
       -0.14441197 -0.107433096 -0.17064829 0.14956875
000030 26 8a 19 bd d7 6a 7d be 7e 34 c6 bc 4d d3 de 3c
       -0.037485264 -0.24747787 -0.024194952 0.027200365
000040 f5 96 31 3d 6a e5 e2 3d fd 64 4b 3e 0d 1b 6f be
       0.043356854 0.110789135 0.19862743 -0.23350163
000050 b2 c7 d3 3d 86 35 43 3d 19 7c 5a 3e 82 29 67 3e
       0.10340823 0.047658466 0.21336402 0.22574428
000060 da e4 80 3e 2c 13 9b bd 0a 54 81 be 8e 8e c5 3d
       0.251746 -0.07572016 -0.2525943 0.09646331
000070 0d 10 47 3d 42 2d 10 3e 3b cc 8a bc 9c dc 02 bd
       0.04859929 0.14079764 -0.016943088 -0.03194867

network.6.weight f4 [16, 32]
000000 f5 f4 07 3e f4 43 09 be cb cc 26 3e 74 c7 0f 3d
       0.13277037 -0.13404828 0.1628906 0.035102323
000010 da 6d 34 3e 84 55 6b 3b ab 46 a8 3c aa 0e 9b 3c
       0.1762003 0.0035909126 0.02054151 0.01892789
000020 70 36 53 be b5 eb 61 be 20 47 12 be 51 c6 f8 3b
       -0.20626235 -0.22062571 -0.14284945 0.0075920005
000030 d1 13 0b 3d 36 65 bb bd e3 b5 b8 bd 51 83 bc bd
       0.033954445 -0.09150164 -0.09019067 -0.09204734
000040 98 71 1c 3d a2 90 bd 3d 03 07 5d bb 9f ed d4 3c
       0.03819427 0.09256102 -0.0033726103 0.025992213
000050 9f 2b 68 bc 72 fd 3f bc c9 4e f3 3c ac 1f 80 3d
       -0.014170556 -0.011718141 0.029700654 0.06256041
000060 67 39 48 3d 53 47 6d be 14 d6 84 bd 7f ea ae bd
       0.04888287 -0.2317174 -0.06486145 -0.0854082
000070 e0 31 b0 3e 4a 99 86 3e 1c 65 87 bd 92 e2 89 be
       0.34413052 0.26288825 -0.06611082 -0.26930672
000080 f6 35 c8 3d 28 1a 38 be 0e 0d 63 3e 80 e6 44 be
       0.09775917 -0.17978728 0.22172949 -0.19228554
000090 b6 43 9d 3e 4e e8 9b be 6c 96 ae 3d 8c d4 0c be
       0.30715722 -0.30450672 0.085247844 -0.13752955
0000a0 54 0f 1c bd e0 42 cf bd d5 db 90 be 38 ce 22 be
       -0.038100556 -0.10120177 -0.2829272 -0.15898979
0000b0 cb ca 0f be 8e 49 a2 be 5a e2 99 bd d8 c6 8a 3c
       -0.14042203 -0.31696743 -0.07513876 0.01694052
0000c0 7d 9d ca 3d 6a 68 22 3d 12 34 ad 3c 3e cd 7b be
       0.0989332 0.03965036 0.021142993 -0.24590012
0000d0 e0 ac 54 be 0c e5 0b 3e 4b b8 4b 3e 67 eb 01 3e
       -0.20769072 0.13661593 0.19894521 0.12687455
0000e0 03 86 15 3e 23 36 18 be ae 6f 3e be 80 0e 13 be
       0.14601903 -0.14864402 -0.1859729 -0.14361
0000f0 5f 79 b0 3e 36 2a a4 3e d7 9b 75 3d 0b ae c0 3b
       0.344676 0.32063454 0.059963074 0.0058801225
000100 31 83 2f 3e 78 8e a9 bc 38 02 76 3e 1f 89 47 be
       0.1713989 -0.020697817 0.24024284 -0.19485901
000110 f6 39 bd 3b 1b 44 6a be 8d 23 ec 3d b8 e3 3a be
       0.0057747317 -0.22877543 0.11530218 -0.1825093
000120 8c 6b 4d be 29 30 2f be 7d 99 83 be ca c5 8d 3c
       -0.20060557 -0.17108215 -0.2570304 0.017306227
000130 8b b2 f8 bc a5 7c 5f be 54 27 7c 3d c8 d2 92 bd
       -0.030358573 -0.21824892 0.061560944 -0.071691096
000140 cd 8e c6 ba fe 12 8e 3e 08 a0 30 3e 86 48 f2 bd
       -0.0015148759 0.27748865 0.17248547 -0.11830239
000150 20 36 27 be 3d c2 05 bd 96 25 ca 3d 3c 3a 7a 3e
       -0.16329241 -0.032655943 0.0987045 0.24436277
000160 f6 34 12 3e 32 55 e2 bd 53 ce 77 be 5e 80 07 be
       0.14278015 -0.11051406 -0.241998 -0.13232562
000170 ac dd ce 3d e6 60 d0 3d f4 71 9e bd 0e 1f 59 be
       0.10100874 0.10174732 -0.077365786 -0.21203253
000180 88 bb 0e 3e 4e 33 a6 bd 85 f0 d8 bd 4f 0e 47 be
       0.13938725 -0.08115254 -0.105927505 -0.19439052
000190 dd 76 88 bc 32 13 bb 3e 16 94 25 3e a6 31 ed 3d
       -0.01665824 0.36538082 0.16169772 0.11581735
0001a0 6d f3 31 3e 04 2c 6f 3e 0f de 0a 3e df 27 11 be
       0.17378016 0.23356634 0.13561271 -0.14175366
0001b0 68 03 87 be 05 f1 55 3d 39 17 83 3c a8 c4 a7 be
       -0.26369786 0.052231807 0.016002284 -0.32767224
0001c0 85 66 ef 3d 22 62 19 be bb e7 89 3e ff aa 9b 3e
       0.11689476 -0.14978841 0.2693461 0.30403897
0001d0 93 2b ae 3d 8b ac fc 3d 27 76 ed bd 68 6c c9 3d
       0.08504405 0.123375975 -0.115948014 0.0983513
0001e0 2d 8a 15 bd 6a c7 29 3d d7 97 e4 3d 21 59 6a be
       -0.036508728 0.04144994 0.11161774 -0.22885562
0001f0 b6 81 5e be 71 f9 fc 3d e9 18 87 3e b5 3b 56 3d
       -0.21729168 0.12352265 0.26386192 0.052303035
000200 13 3f 15 3e e2 22 2a be 2b fb 32 3e b0 fd de bd
       0.14574842 -0.16614869 0.17478625 -0.10888231
000210 57 8d be 3e 94 03 fa bd 50 9d 95 3d 0d 07 0d be
       0.3721721 -0.12207714 0.073053956 -0.13772221
000220 c4 ff 58 bd 28 ed 63 bd 79 5e 09 be 0b 0b 0f be
       -0.052978292 -0.05564609 -0.13414945 -0.13969056
000230 7b 29 31 be ed 0f 70 be e8 e3 6b be d0 87 68 bd
       -0.1730098 -0.23443575 -0.23036158 -0.056770146
000240 29 12 34 3e df 3d 88 3e d3 45 93 3c c4 ab 09 be
       0.17585053 0.26609704 0.01797763 -0.1344443
000250 78 0d a5 bd 38 b7 2d 3e c1 b6 e8 3d 77 89 6e 3e
       -0.080592096 0.16964424 0.113629825 0.23294626
000260 e7 9a e3 3d 3d 4a 90 be 42 5a 0c be 45 d2 84 3a
       0.1111353 -0.2818164 -0.13706306 0.0010133466
000270 71 13 b1 3e 8c 30 98 3e b5 40 41 3d 02 9c 22 3d
       0.34585145 0.29724538 0.04718085 0.039699562
000280 20 e2 d6 3d 1a 58 90 bd 95 50 ba 3e ae 20 26 be
       0.10492349 -0.07048054 0.36389604 -0.16223404
000290 75 2c ca 3d 5c 02 46 be 7b d3 37 3e d4 13 0b bc
       0.09871761 -0.19336838 0.17951767 -0.008488614
0002a0 e1 83 66 be bd 6e dd 3c b3 21 1a be f0 3e 84 be
       -0.22511245 0.027030343 -0.15051918 -0.25829268
0002b0 fc 05 45 be 82 28 08 be f1 0d da be 47 53 e3 bd
       -0.19240564 -0.13296703 -0.4258876 -0.11099868
0002c0 0d 9d 57 3e 55 04 a5 3e c2 0a 9c 3e b7 5b 4a be
       0.21056004 0.32229868 0.30476958 -0.19761549
0002d0 7b e3 0c be b3 01 c0 3d c8 66 84 3d 03 9a 61 3e
       -0.13758652 0.09375324 0.064649165 0.22031407
0002e0 4f 35 d1 3d 22 f7 a0 be 20 fc 68 be 13 f1 91 bd
       0.10215246 -0.31438547 -0.22752428 -0.071260594
0002f0 14 17 c3 3e 3f 85 88 3e be cb 9c 3d da 5d 3c be
       0.38103545 0.2666416 0.07656048 -0.18395177
000300 78 1e a6 bd 34 33 e2 3b 04 bd c1 3d 7a 8e 0b 3e
       -0.0811128 0.0069030765 0.0945988 0.13628569
000310 e6 68 5e 3e 7a 19 2a be 50 a7 3f 3e a5 1b 1b be
       0.21719703 -0.16611281 0.18716168 -0.15147264
000320 0a 72 6b be 0a df 0c bd 01 0b 42 be 92 77 37 3c
       -0.22992721 -0.034392394 -0.1894951 0.011197941
000330 7c 18 4e 3e ec 96 31 be ec 54 96 bd 42 6a c8 3d
       0.20126528 -0.17342728 -0.07340416 0.09785892
000340 88 fc a7 bd 6a 07 a8 3e 1c d2 1f 3d 88 fd d6 bc
       -0.082024634 0.32818156 0.039018735 -0.02624394
000350 1b 06 16 be ae 81 1c bd 09 55 f4 3d 0b 3b 64 3e
       -0.14650767 -0.03820961 0.11930282 0.22288148
000360 1d ce 54 3e cc 3c 0f 3e 23 b9 d3 bd 13 90 9c 3d
       0.20781751 0.13988036 -0.103380464 0.076446675
000370 8f 2a 68 3e 93 a1 aa 3d d5 f4 c0 3b 83 d6 6d be
       0.22672485 0.08331599 0.0058885613 -0.23226361
000380 e3 6d cb be ab 6d f3 3e 65 73 36 be e4 4a fe 3e
       -0.39732274 0.47544608 -0.17817457 0.49666512
000390 11 df 19 be 69 7d bf 3c 82 34 fd bd 96 12 24 be
       -0.150265 0.02337523 -0.12363531 -0.16022715
0003a0 30 4b a4 bd f2 0f a4 bd c2 6e 4c ba 54 2b d5 3d
       -0.080221534 -0.08010854 -0.00077984866 0.10408655
0003b0 f2 e1 ad 3e 04 5c 3c be b9 5a bc 3e 68 0a a2 3e
       0.33961445 -0.18394476 0.36787966 0.31648564
0003c0 b8 0b a0 be 82 1c 07 3e 75 0c 31 3e c6 09 8d 3d
       -0.3125894 0.13194469 0.17289908 0.0688663
0003d0 8a 57 d2 3e cf 01 24 be 13 71 15 3e da 3e 8c be
       0.41082412 -0.16016315 0.14593916 -0.27391702
0003e0 25 d7 8f 3e 2e 49 d0 3e 02 08 27 3d dc 58 13 3e
       0.2809383 0.40680832 0.04077912 0.14389366
0003f0 fa c9 90 3d a6 ab 0d be 2d 71 9b bd 12 fd f7 3d
       0.07069774 -0.1383501 -0.07589946 0.12108816

network.6.bias f4 [16]
000000 fc 8c c5 3d 73 35 5b 3e 45 24 81 3e 58 46 0e be
       0.09646031 0.21407108 0.25222984 -0.13894022
000010 91 a3 c9 3d 56 b5 dc 3d 51 8b 4b 3e 40 90 69 3d
       0.09845651 0.107767746 0.19877364 0.057022333
000020 1f f1 4c 3e ad 03 cb 3d 37 5d ad bc e5 15 86 3d
       0.20013855 0.099128105 -0.021162612 0.06547145
000030 f8 38 37 be 18 3b 18 3e 67 ac 73 3e 23 07 fc bd
       -0.17892826 0.14866292 0.23796235 -0.12306049

network.8.weight f4 [4, 16]
000000 15 f1 ad 3b 62 e6 21 bd 5e 68 a6 3d 4c 5d 5e be
       0.0053082802 -0.03952635 0.08125375 -0.21715277
000010 15 59 44 be fd d0 df be e9 91 40 bd e9 74 0b 3e
       -0.19174607 -0.43714133 -0.04701415 0.13618816
000020 56 17 fb bd e3 dd 04 3e e6 6c d9 be c6 1d 8a 3c
       -0.1226031 0.12975268 -0.42465895 0.0168599
000030 b1 28 93 bd f7 58 98 3e da 12 ab 3e 55 37 35 be
       -0.07185496 0.29755375 0.3341282 -0.17696889
000040 fe fe 00 3f 9b 76 ce 3e 01 34 b0 3e b5 fb 4d be
       0.5038909 0.40324864 0.34414676 -0.2011555
000050 65 e9 e9 3e 17 55 a5 3e 14 7b 1e 3e 95 09 15 bf
       0.45685878 0.3229148 0.15476638 -0.58217746
000060 00 fa e3 3e 10 4a 1c 3e 9e 9d 38 be 70 e1 9f 3e
       0.44526672 0.15262628 -0.18028876 0.31226683
000070 8d 48 db be d7 84 f7 be f0 fb 14 bf e5 85 3c 3e
       -0.4282879 -0.48343536 -0.58196926 0.18410452
000080 e5 79 79 be f0 c3 6e be f9 2a f0 bc 66 fe ac bd
       -0.24362905 -0.23316932 -0.029317366 -0.0844696
000090 6f 2f d7 be 39 e9 a6 be d4 76 e3 3d 49 ae 0b 3e
       -0.42028376 -0.3259981 0.11106649 0.13640703
0000a0 b1 a7 4a be bc bd 5a 3e 15 69 ae be fc 9a e6 bd
       -0.19790532 0.2136144 -0.34064546 -0.1126003
0000b0 f7 a9 ea 3c 25 00 15 3d ee 42 a4 3e 13 0a b2 be
       0.028645499 0.03637709 0.32082313 -0.3477331
0000c0 7d 19 1c be 6c c6 32 bc a4 08 d6 be b2 03 be 3e
       -0.15244098 -0.010911565 -0.41803467 0.37112194
0000d0 10 a9 4b bd cb 47 ee bd 3d 1c f3 be 54 96 15 bf
       -0.049721777 -0.11634787 -0.47482482 -0.5843251
0000e0 26 cc 8b be e5 a2 0b bf 95 33 60 3e 73 a5 73 bd
       -0.2730419 -0.5454543 0.21894677 -0.059483957
0000f0 d4 43 a4 3e d4 a4 07 be f9 50 1b be e4 ab 6d 3e
       0.32083 -0.1324647 -0.15167607 0.23210102

network.8.bias f4 [4]
000000 ca 85 0b 3e 56 15 67 3e 76 9e 93 3e cb 40 b0 be
       0.13625255 0.22566733 0.28831834 -0.34424433
