cw-monitor-dnn/morse_lstm_model.onnx (onnx, 124940 bytes, 10 tensors)

fc1.weight f4 [16, 32]
000000 75 0c 67 3d 19 e2 2a bc 12 00 45 ba 92 bd 9e bd
       0.056408364 -0.010429882 -0.0007514964 -0.077510014
000010 e9 66 92 3d eb 33 01 3e 7a f1 93 3a 60 ec 24 bd
       0.07148535 0.12617461 0.0011287176 -0.040264487
000020 c6 30 d0 bd 27 7e 11 bd 05 cd cf ba 36 8f 4c be
       -0.10165553 -0.0355207 -0.0015853947 -0.19976506
000030 4f 04 a7 bd ca 7b 34 3e d2 b5 29 be 7a a8 0d be
       -0.08155119 0.17625347 -0.16573265 -0.138338
000040 d2 0d 40 be 3c 0a f8 3d 5f 44 51 bc f6 cb c3 bd
       -0.18755272 0.12111327 -0.012772649 -0.09560387
000050 19 be 3b bc ab ff d0 3d 17 44 13 3e 14 34 90 3d
       -0.011458897 0.10205015 0.14381443 0.07041183
000060 22 10 28 3e 52 26 41 3b f1 8b 11 be 42 bf df 3d
       0.16412404 0.0029472304 -0.1421354 0.109251514
000070 e8 da a3 3d 57 59 c2 3d 8e 78 0a 3e 69 50 e1 bc
       0.080007374 0.094896965 0.1352255 -0.027504163
000080 2e d7 04 3e 98 b2 b2 3d c1 79 1e be c0 ef af bd
       0.1297271 0.0872547 -0.15476133 -0.085906506
000090 f4 96 93 bd 1a 2f 5a bd 6b 84 a1 bc ba c2 75 bc
       -0.072065264 -0.053267576 -0.019716462 -0.01500004
0000a0 c5 58 f8 3d ac a0 82 3d 37 ae e8 bd 13 70 00 3e
       0.121263064 0.06378302 -0.11361354 0.12542753
0000b0 e3 88 c7 3c cf 48 f5 bd 7c 9c 10 3e e9 f1 e4 3d
       0.024357265 -0.11976778 0.14122194 0.11178953
0000c0 90 64 1c 3e 98 99 c9 3c 46 4c e8 bd cd 49 e6 3d
       0.15272737 0.024609372 -0.11342673 0.11244545
0000d0 ca 72 a9 bd 04 e1 c4 3d 37 8d c5 bd 89 87 f2 3c
       -0.082738474 0.09613231 -0.09646075 0.029605644
0000e0 25 94 f3 bd d2 71 1f bc 1f e6 e1 bb 20 33 35 be
       -0.11893491 -0.009731727 -0.0068938877 -0.17695284
0000f0 27 ad 27 3e 95 d0 27 3e ee 0c d2 bd 17 aa 5d 3c
       0.16374646 0.16388161 -0.102563724 0.013529322
000100 c7 e3 cb bd 08 9e 82 bc 62 a4 f3 3c ef 68 64 bb
       -0.099555545 -0.015944496 0.02974147 -0.0034852584
000110 fa 6a 03 3c 29 95 07 3e fb c3 33 be 7a 07 ec 3d
       0.008021111 0.13240494 -0.1755523 0.115248635
000120 5a 6f 02 3e 0e 84 d3 bd 51 11 8b bd 94 27 11 be
       0.1273779 -0.10327922 -0.06790412 -0.14175254
000130 83 d5 18 bd a5 96 0e 3e a3 ac cb bb b2 41 0c 3e
       -0.037312996 0.13924654 -0.0062156483 0.13696936
000140 43 54 fe bd 7a 38 06 be 8e b4 45 3d 04 de 9a bd
       -0.124184154 -0.13107482 0.048267893 -0.07561877
000150 97 d8 02 be 00 8e 10 3e 79 f8 44 3d 40 fa df bd
       -0.12777935 0.14116669 0.048088524 -0.10936403
000160 d3 5c d5 3c e7 96 26 3e 7a 2d d2 bd 3a b4 27 be
       0.026045239 0.16268502 -0.1026258 -0.16377345
000170 0e de 48 bd bb fb 24 3e d7 ac dd 3d bb b8 bc 3d
       -0.049039893 0.16111653 0.10823982 0.09214922
000180 ed 15 06 3e 78 13 33 3c 30 7c 77 3d d2 a8 21 3d
       0.13094302 0.010929935 0.06042117 0.03946764
000190 68 16 8c bd 7c 0a ec 3d e1 eb 6a bd 94 04 99 bd
       -0.06840211 0.11525437 -0.057353858 -0.07471576
0001a0 6c fb 4f be 01 74 29 3e e0 67 28 be 32 1b cd 3c
       -0.20310754 0.16548158 -0.16445875 0.025037382
0001b0 cc 09 72 3a 36 e3 3a 3e eb 4e 23 3e 9d f9 48 be
       0.0009233027 0.18250737 0.15948074 -0.1962647
0001c0 33 51 00 be 65 d4 4e be b0 d9 3e bc 09 fd bc 3d
       -0.12530975 -0.2019821 -0.01164858 0.0922795
0001d0 0d 5f da bd ba f2 d2 3d 28 0c e7 bd e0 27 9b bd
       -0.10662661 0.10300203 -0.112816155 -0.07575965
0001e0 8c f2 8b bd 1a 3f e3 bc 1a 51 28 bc 8f 5b 7b bd
       -0.068333715 -0.02774005 -0.010273242 -0.061366614
0001f0 88 e2 b5 3c 69 16 3b be 6f 0e 3f bd 80 79 46 bc
       0.022202745 -0.18270268 -0.046644624 -0.012113929
000200 33 90 52 bd 27 98 c5 bc 2a bf d9 3d 26 25 cb bd
       -0.05140705 -0.024120403 0.10632165 -0.09919195
000210 1d a5 bf 3a 53 8d 96 3d 43 d3 a7 bd 95 24 94 bd
       0.0014621351 0.07351174 -0.08194592 -0.0723354
000220 dd fc 16 3e 7c 30 00 be 0f 37 47 bd 2b f7 20 3e
       0.14744897 -0.12518495 -0.048636492 0.15719287
000230 84 e4 73 3c 33 91 8d 3d cc ea 8f 3d 52 16 30 3d
       0.014886025 0.0691246 0.07027206 0.042990036
000240 eb bd 4f bd f5 d1 1c bc c4 60 00 3e b4 d4 5c 3d
       -0.05071823 -0.009571542 0.12536913 0.053913787
000250 91 f2 41 3d 7a ca 0e 3a c6 cc 42 bb ec ca 07 3e
       0.04735047 0.00054470415 -0.0029724105 0.13261002
000260 68 e9 8b 3c 49 22 d3 bc 5f 15 32 3e a3 30 53 bd
       0.01707907 -0.025773184 0.17390965 -0.051560055
000270 95 49 3b be cb 07 f7 3d 73 e9 12 3e 68 5e 27 bd
       -0.18289788 0.12062033 0.14346866 -0.040861517
000280 20 ce 89 3c a1 ed 9a bc 9b 42 44 be 18 81 7a 3b
       0.01682192 -0.018912138 -0.19166033 0.0038223919
000290 62 64 cb 3d ef 02 e8 bd b1 f8 95 bd 7e 96 1c be
       0.09931256 -0.113286845 -0.07322825 -0.15291783
0002a0 3a 1e 27 bd 59 78 13 3e 59 ab ef bd b5 69 28 3e
       -0.04080031 0.14401378 -0.11702604 0.16446574
0002b0 93 e2 fd 3c 01 58 1c 3e ea 8c f6 bc 29 45 0a bd
       0.030991828 0.15267946 -0.03009649 -0.033757363
0002c0 36 29 ad bd 7a 17 7f 3d 69 5e ca bd af 4b 0f be
       -0.08455126 0.06227825 -0.098812886 -0.13993715
0002d0 f4 b2 0f be 02 8a 8b bc 8a a6 d2 3d 55 26 07 be
       -0.14033109 -0.01703358 0.10285671 -0.13198216
0002e0 e6 b7 fc bd 6d e0 9d 3d 0e 44 07 3b d6 cb 62 3d
       -0.12339763 0.077088214 0.002063993 0.055370174
0002f0 46 dd 1d 3e c7 d8 12 3e ab 3a 1c bd 36 c2 50 3d
       0.1541644 0.14340506 -0.038141888 0.050966464
000300 8f b3 40 be 61 a7 8b 3d 1c bc b2 3d 85 98 0f 3d
       -0.18818496 0.06819034 0.08727285 0.035057563
000310 32 b5 eb 3c 3e 45 ea bd 36 4d df bd 56 16 30 3d
       0.028772924 -0.11438988 -0.10903399 0.04299005
000320 68 fc 9d 3d ac 6b c5 bd be fa 13 3e 3d e8 b7 bd
       0.07714158 -0.096396774 0.1445112 -0.08979843
000330 66 cf 1a 3e f7 54 40 be dd 32 29 be 0f 30 95 bb
       0.15118179 -0.18782412 -0.16523309 -0.004552848
000340 ec df 55 bd 8e 7c 63 bc 8a 04 93 bc 28 5c bc 3c
       -0.0522155 -0.013884677 -0.0179465 0.022993162
000350 be 0b 8b bd 90 6f 82 3b d0 f1 ae bd 98 c7 d2 bd
       -0.06789349 0.0039805844 -0.08542216 -0.10291976
000360 83 ff 94 3d 8d 36 d0 bd 66 ad 66 3e 94 b9 3a 3d
       0.072752975 -0.10166655 0.22527084 0.045587137
000370 8b 08 e3 bd 28 b7 35 3e db bf 53 be ec 7c cb 3c
       -0.11085614 0.1774565 -0.20678656 0.02483984
000380 94 70 9e 3d a3 18 e0 3d b1 bf 18 be 5b d2 72 3b
       0.07736316 0.10942199 -0.14916874 0.003705165
000390 64 00 2a bc 38 f4 1d 3d 0f d5 81 3d f8 89 2c be
       -0.01037607 0.038562983 0.06339466 -0.16849506
0003a0 7c 7a 0f bd a5 33 2d 3e 77 3a 90 bd 60 02 23 3d
       -0.03502892 0.16914232 -0.07042401 0.039797187
0003b0 6d a9 31 bb f2 e9 63 bd d6 2a 71 3d 81 1f a5 3a
       -0.0027109042 -0.05564303 0.058878742 0.001259789
0003c0 c5 49 f5 3b a2 8d fd 3d 98 3d 46 3e 07 62 70 bc
       0.0074856007 0.1238053 0.19359434 -0.014671809
0003d0 b3 de 15 be d7 a6 29 bc 2f 94 7f 3a ad eb be 3d
       -0.14635734 -0.010354719 0.0009749559 0.09322295
0003e0 52 ed 14 3e 53 d9 2f be 36 1d 60 3b 35 b0 76 bd
       0.14543656 -0.17172746 0.0034197099 -0.060226638
0003f0 2b 99 b8 bd d6 56 a3 3d 63 86 3f 3e b9 c0 aa bd
       -0.090135895 0.07975547 0.18703608 -0.0833754

fc1.bias f4 [16]
000000 61 11 de 3d 5b 09 1f be e8 61 56 3e 74 92 d8 3d
       0.108431585 -0.15530913 0.20935786 0.10574809
000010 a0 a3 f3 bd f3 0f 0f 3b f0 58 6f 3e b5 08 86 b9
       -0.11896443 0.0021829575 0.2337377 -0.0002556496
000020 da 8f d2 bd 62 7d 20 be bd 3a 19 3e 4a e8 f7 bc
       -0.10281344 -0.1567283 0.14963813 -0.030262131
000030 c4 00 90 bd 61 ea 3d 3e d1 28 54 3d d1 87 90 3d
       -0.07031396 0.1854644 0.051796738 0.07057155

fc2.weight f4 [4, 16]
000000 bd af 6d 3e 3f 21 d2 3d 68 8c 90 3d d2 94 e7 3d
       0.2321157 0.102602474 0.0705803 0.11307682
000010 94 6a f8 3d 09 b5 ae bd be 1c d2 3d 4f 3e 37 be
       0.12129703 -0.085306235 0.102593884 -0.17894863
000020 07 17 df bd 8b 8f fb bd 48 f2 55 bd 67 16 f5 3d
       -0.10893064 -0.12283238 -0.05223301 0.119671635
000030 5d 96 ec bd 68 76 ed 3c f9 78 69 3e 8b 1c 47 bd
       -0.11552117 0.028987125 0.22800054 -0.048611205
000040 ff bd 02 3e da 18 43 3e 66 19 00 3b e2 e9 3a 3e
       0.1276779 0.19052449 0.0019546389 0.18253282
000050 ab 51 0e 3e bd fc 8c bd 03 db 27 be f8 49 d0 3d
       0.13898341 -0.068841435 -0.1639214 0.101703584
000060 02 12 83 3d 81 46 70 bc 43 e0 84 bd 61 11 53 bd
       0.06399919 -0.014665247 -0.06488087 -0.051530246
000070 5f 85 36 3e 8b 03 59 3e cd 10 ca 3d 72 8b 33 3e
       0.17824315 0.21192758 0.09866486 0.17533663
000080 57 89 97 bd fe 22 d2 bd cc 59 b4 bd ec 5f 60 be
       -0.07399242 -0.102605805 -0.0880619 -0.21911591
000090 5a 87 e5 bd 5a 15 b6 3d 58 f9 ef bc ba ff 89 bd
       -0.11207457 0.08890791 -0.029293701 -0.06738229
0000a0 a1 75 1a 3e 62 8c aa 3d 83 c7 10 3e 63 ae 97 bd
       0.15083934 0.08327557 0.14138608 -0.074063085
0000b0 7b e8 0a 3d d6 8a db bc 6a 87 8b 3e 7b 40 18 be
       0.033913117 -0.0267996 0.2725175 -0.14868347
0000c0 96 fc b2 bd 0f 4e 05 be 2c 5b 33 be 21 d4 2a 3e
       -0.08739583 -0.13018058 -0.17515248 0.16682483
0000d0 ec 15 31 be 7c 6d 18 3e 71 3e 99 be 2b 76 0c be
       -0.17293519 0.14885515 -0.29930452 -0.13716953
0000e0 14 f8 e7 3c 8a 52 cc 3a da aa 57 be 1f 89 28 3e
       0.028316535 0.0015588563 -0.21061268 0.16458558
0000f0 5a 22 01 3e e3 2e 95 be b1 cf ce bd 79 b6 79 be
       0.1261076 -0.29137334 -0.10098208 -0.24386014

fc2.bias f4 [4]
000000 92 d1 e3 bd c7 aa 7c 3c dd 5f 05 3d 01 91 bb bd
       -0.11123957 0.015421576 0.032562125 -0.09158517

onnx::LSTM_195 f4 [1, 256, 1]
000000 cc 80 76 3d 9e a3 83 3d d0 68 03 3e 5a 86 95 bd
       0.060181424 0.06427692 0.12832952 -0.07301016
000010 b0 7c c1 bd 74 5f c5 bc 7d aa 06 3d f4 c8 ac bd
       -0.094476104 -0.024093367 0.032877434 -0.08436766
000020 34 a2 12 3c b1 c1 38 be 3f 1c 26 bd 1b 6a 03 3d
       0.008949805 -0.18042637 -0.04055428 0.032083612
000030 d4 50 0b be 9d 27 0f 3d 0b d3 a5 3b a9 01 af bc
       -0.13605052 0.034949888 0.0050605587 -0.021363096
000040 15 13 2f 3c 03 72 08 be 01 d7 1c 3c 8a 6b 3c 3e
       0.010685702 -0.13324742 0.009572745 0.18400398
000050 25 d5 62 3c f2 cc b5 bd 89 fb e5 bd cd b5 f2 3c
       0.013844763 -0.08876981 -0.11229617 0.029627705
000060 b6 05 76 bc ed 13 a7 bd 30 11 01 be 28 71 ed bd
       -0.01501601 -0.081580974 -0.12604213 -0.115938485
000070 12 0a f0 bc c7 9d e6 3c 46 df 98 bd b3 c5 0c be
       -0.029301677 0.028151406 -0.07464461 -0.13747291
000080 fe 50 27 be 25 84 04 be 08 4b 29 3d 45 16 ef 3c
       -0.1633949 -0.12941034 0.04133132 0.029185424
000090 64 fb ca bd 78 73 cb bc 30 65 09 bd 48 e3 88 3d
       -0.0991123 -0.024835333 -0.033543766 0.066839755
0000a0 4e a0 3c 3e f8 eb a9 3b 3e a0 b4 bd 16 a0 f7 3d
       0.18420526 0.0051856004 -0.08819626 0.12091081
0000b0 ad d8 ad 3d b5 7e 2b be 92 04 83 bd 94 5f cb 3c
       0.08488593 -0.16747554 -0.06397356 0.024825849
0000c0 6a 32 88 bd 38 4a a5 3d 19 d9 24 be af 42 80 bd
       -0.06650241 0.08070797 -0.16098441 -0.06262719
0000d0 c3 20 14 3d 03 6c bb 3d 94 f7 b5 bc 00 d0 47 3d
       0.036164057 0.09151461 -0.022212781 0.04878235
0000e0 70 a4 1d 3d 01 26 d4 bd 27 d8 39 3d 8e 79 2e bd
       0.038486898 -0.10358811 0.045372155 -0.042596392
0000f0 c0 9a e6 3c df 93 00 bd a4 fc de bd f8 c5 8a 3d
       0.028149962 -0.03139102 -0.10888031 0.06776041
000100 21 85 a6 bd f0 d6 e4 3d af 67 0c 3e 38 69 8f bb
       -0.08130861 0.111738086 0.13711427 -0.0043765567
000110 7b 80 bf 3d ed 13 3b 3e f4 17 8e bd 0e ec 6f bd
       0.093506776 0.1826932 -0.069381624 -0.05857473
000120 da ce cb bd ba 0f 01 be 6b 0c 81 bc 0b 88 0a bc
       -0.09951563 -0.12603655 -0.015752992 -0.008455287
000130 f5 b4 00 bd 59 05 ff bc 7e 2d 5e bd fe 34 22 3e
       -0.031422574 -0.03113048 -0.054242603 0.15840527
000140 70 48 2a 3e 45 33 a8 bd 09 9a 04 3e 29 aa 88 3e
       0.16629195 -0.08212904 0.12949385 0.26692322
000150 f1 33 23 bc f2 5b 44 3e 18 de cf bd 64 1a ae 3d
       -0.009961114 0.191757 -0.10149783 0.08501127
000160 34 7a 53 bd 38 38 c4 3d 50 84 24 bd 53 55 ea 3b
       -0.051630214 0.095810354 -0.040165246 0.0071512847
000170 ed 48 3e 3d 34 3c 91 bd 57 0d 58 3d 26 d2 e9 3d
       0.046456266 -0.07091561 0.052747097 0.11417036
000180 62 6c 58 bd 2b 27 b3 3c 9d 72 d3 bd c6 fc cd bd
       -0.052837737 0.021869263 -0.10324595 -0.10057978
000190 c7 55 13 3c 26 8f ac 3d 5c a1 87 bc 1b e6 45 bd
       0.008992619 0.08425741 -0.016556434 -0.04831515
0001a0 af 87 43 3e 7a 74 9c bd 92 27 de 3d 80 5f 16 bd
       0.19094728 -0.07639404 0.10847391 -0.03671217
0001b0 a4 2f 86 3e 0a c7 12 3e f2 fc c5 3b a1 dc 6b 3d
       0.26208222 0.1433374 0.0060421163 0.057583455
0001c0 b7 52 37 bd 7b c8 54 3e da 1a 1f be 77 fc ac bd
       -0.044756617 0.20779602 -0.15537587 -0.08446591
0001d0 88 5d 01 3d 39 45 80 3d 06 20 04 3d c4 bc ff bc
       0.03158334 0.06263203 0.032257102 -0.03121794
0001e0 35 de 88 3d 44 65 e9 bd 4d 0e fb 3d 98 26 87 be
       0.06683008 -0.11396268 0.12258587 -0.26396632
0001f0 a0 76 b2 bc 04 28 6e 3c a1 6c e8 3d 15 37 81 3e
       -0.02178508 0.014535908 0.11348844 0.25237337
000200 53 4c 0f 3e 40 39 9d bd 58 0b e1 3d 44 07 1a 3e
       0.13993959 -0.07676935 0.10988492 0.15041834
000210 ca 6f 00 bd cd bd 39 3e ab bb 1a be 87 c1 e0 3d
       -0.03135661 0.1813881 -0.15110652 0.109744124
000220 34 e4 0d 3e e0 40 21 3d 10 e1 ae bd 63 d8 9c bd
       0.13856584 0.03936851 -0.08539021 -0.0765846
000230 fb 50 55 3d 91 2f eb bd 48 08 81 3d 4e 21 10 bd
       0.052079182 -0.11483682 0.06300408 -0.03518801
000240 44 f9 10 3d dc eb 34 3d 73 63 3a 3d a9 f2 41 3d
       0.03539397 0.044170246 0.045505 0.04735056
000250 8d 4f 82 3d a6 f9 4c 3d dc 3f 0d bd 18 83 dd bd
       0.06362829 0.05004277 -0.03448473 -0.1081602
000260 c1 b9 ce 3d 1f 69 3b 3d d3 25 a2 3d 6b 49 9a bd
       0.100940235 0.04575455 0.07917371 -0.075335346
000270 39 50 ef 3c 09 ea 01 3d 1b 9a 86 3d 58 2a 01 bd
       0.029213058 0.031717334 0.06572362 -0.031534523
000280 bf e5 ce bd b5 17 91 3d 17 4f 2d bd c8 f3 3d bd
       -0.10102414 0.070846 -0.042311754 -0.046375066
000290 97 a0 f9 bd d5 63 df 3d fd 64 1f 3e 8a 91 64 bd
       -0.12188833 0.10907713 0.15565868 -0.05580286
0002a0 df f4 0f 3e 51 37 24 3e 65 3b 1a 3e 4e 55 28 3e
       0.14058255 0.16036727 0.1506172 0.16438791
0002b0 9f 30 d9 3d ac 61 86 bb 80 3c df bc 12 22 02 bd
       0.10604977 -0.004100999 -0.027250528 -0.031770773
0002c0 e8 7c e8 3d cd 72 a5 bc e4 d9 69 be 23 f7 d1 3b
       0.11351949 -0.020196343 -0.22837025 0.006407635
0002d0 15 d9 48 bd 8b ed c8 3d 4e c6 bb bd e6 a4 50 3d
       -0.04903515 0.09810933 -0.09168683 0.05093851
0002e0 56 ad 41 3d 82 f3 2c bd 0d e9 98 3d 8d 30 2f 3d
       0.047284447 -0.042224415 0.07466326 0.04277091
0002f0 ab 25 c8 3d 1a 03 bd bd ff 46 0b 3e d5 81 83 bc
       0.097728096 -0.09229107 0.13601302 -0.01605312
000300 7a be d3 bb bf 99 88 bb 53 0b 85 bd e9 03 94 3d
       -0.0064619156 -0.0041687186 -0.064963005 0.07227308
000310 15 5a 02 3e ad eb bf 3d 43 09 1b be fd 0e ae bd
       0.12729676 0.093711235 -0.15140252 -0.084989525
000320 39 8e de 3d e6 a0 db bd b7 df 05 be 9b f7 91 3b
       0.108669706 -0.10724048 -0.13073622 0.0044545657
000330 8c d5 43 be fd 3f a6 3d 46 93 ab bd 3a 73 0e be
       -0.1912443 0.081176735 -0.083776996 -0.13911143
000340 3c 0d c5 bd 3d 66 36 bd c5 2f 00 3e e4 53 33 be
       -0.09621665 -0.044531096 0.12518223 -0.1751247
000350 4d 43 8b 3d cd 7b ae 3d 13 91 81 bd 34 0a f1 3d
       0.06799946 0.08519707 -0.06326499 0.11769524
000360 68 4a 83 3c 0f f1 b8 3d 1a e8 d3 3d 26 fe 68 3e
       0.01602669 0.09030353 0.10347004 0.227532
000370 88 43 75 3d 88 0a a6 3d 87 f8 b9 3d 62 c6 ee bd
       0.059878856 0.081074774 0.09080606 -0.11658932
000380 d2 76 82 bd 03 24 90 3d 28 72 f1 bd 6f 38 04 bb
       -0.063703194 0.07038119 -0.11789352 -0.0020175239
000390 da b8 e3 bd 34 99 0d 3c ae f7 f2 bd c9 64 a8 3c
       -0.11119242 0.0086424835 -0.118636474 0.02055587
0003a0 51 f4 b9 bd b2 19 6c 3d 4d 95 83 bc 4e 93 c9 bd
       -0.09079803 0.057641692 -0.016062403 -0.09842549
0003b0 ad dd 27 3e 82 ec a4 3d ea 89 04 3e ca 75 7a bd
       0.16393156 0.08052923 0.12943235 -0.06114749
0003c0 8c ee 9c 3c c0 28 56 be 7d 85 1f be 6d bd 90 3d
       0.019156717 -0.20913982 -0.15578265 0.0706738
0003d0 31 b1 b4 bd 40 2a e8 3d 5b 5b 91 3d 6c 8a 61 b8
       -0.08822859 0.113361835 0.07097503 -5.3773096e-05
0003e0 13 8c 52 3d 42 93 49 bd 9e 55 73 3e 2b 21 1e be
       0.051403116 -0.0492127 0.23763129 -0.1544234
0003f0 58 ca 60 3d d4 69 4e bd d8 5c 1d bb 7c f1 5a 3e
       0.05488047 -0.050393894 -0.0024011638 0.21381181

onnx::LSTM_196 f4 [1, 256, 64]
000000 b6 25 fa 3d f9 37 3d bd aa d0 d6 3d cb 5e 11 3d
       0.12214224 -0.046195958 0.10489018 0.035490792
000010 9c 1a c1 3d c7 1a fb 3d 18 5d b0 3d 63 d7 44 3d
       0.094289035 0.12260967 0.08611506 0.04805697
000020 c9 0b db bd 02 0f e0 3d 74 6d 3e bc fb 86 c2 bd
       -0.10695607 0.109403625 -0.011622775 -0.09498402
000030 f9 91 e3 3d 1f de 85 3d 9b e4 19 3d af 1b f8 bd
       0.111118264 0.06536507 0.03757153 -0.12114655
000040 29 ff b8 bd e8 af c6 3d 76 13 37 bd 23 1a 89 3d
       -0.09033043 0.0970152 -0.044696294 0.06694438
000050 94 d0 05 be 81 b5 b1 3d b4 01 89 bd d1 d2 0a bd
       -0.13067847 0.08677197 -0.06689778 -0.033892456
000060 b8 0f 01 3d d4 75 6b bc 97 35 1c 3d 58 40 20 ba
       0.03150913 -0.014371354 0.038137045 -0.00061131036
000070 a0 a0 bb bd fb 87 8c bd 89 53 a1 bc e9 3e 63 3d
       -0.09161496 -0.06861874 -0.019693153 0.055479918
000080 58 12 ad bd 99 c9 30 bd 97 39 5f bd 35 3d 3a 3d
       -0.084507644 -0.04316101 -0.05449828 0.045468528
000090 a9 6c b4 3d dc 28 bb 3d 41 54 78 bd ba cc 81 3d
       0.08809788 0.09138653 -0.060627226 0.063378766
0000a0 81 6c 0b 3e 56 91 9e 3d 7a b5 9f bd 0f 9f ed bd
       0.1361561 0.077425644 -0.07798286 -0.11602604
0000b0 d1 67 2b bd 46 80 ed bb c3 33 9f 3c 0a 42 cc bc
       -0.041847054 -0.0072479574 0.019433862 -0.024933834
0000c0 8b f6 d9 bd 22 c2 18 bd 47 c0 c0 bd d2 5d e6 3d
       -0.106427275 -0.037294514 -0.09411674 0.112483636
0000d0 8e f4 84 bd 61 7b 35 bd 31 d6 85 3d a8 bf 89 3d
       -0.064919576 -0.044307116 0.065349944 0.06726009
0000e0 af 7e d1 3d c0 cf ff 3d 44 b2 bc 3a a3 eb 32 bd
       0.10229241 0.12490797 0.0014396389 -0.043681752
0000f0 7e ba a1 3d 5c 8d 76 bc 08 45 9c bb 55 63 00 be
       0.07896899 -0.015048351 -0.0047689714 -0.12537892
000100 0e 30 65 3c 87 62 46 bd 67 4b ae bd d8 7b 47 3d
       0.013988508 -0.048433807 -0.085104756 0.04870209
000110 97 6d 86 bd f8 89 dd 3d 37 a4 30 bd b5 dd ae 3c
       -0.06563871 0.10817331 -0.043125357 0.021345953
000120 1a 46 cb 3d 11 5e 9e 3c 46 ad 89 3d a5 09 a5 3c
       0.0992548 0.019331964 0.067225024 0.0201462
000130 35 fc 83 bd aa e8 16 bb ca af f1 bd 1d 6a ed bd
       -0.06444589 -0.0023026862 -0.11801107 -0.11592505
000140 57 10 c6 bd 36 b5 7f bd 5b 14 a7 bd 66 77 88 3d
       -0.09671085 -0.062428676 -0.081581794 0.066633984
000150 9a 52 ba bd a9 1d 30 3d dc 73 bc bc 68 47 d6 3c
       -0.09097786 0.042997036 -0.023004465 0.026157096
000160 c4 b0 f5 bd 45 db fd bd 90 90 5a 3d 1b 2d 42 bd
       -0.11996606 -0.12395338 0.05336052 -0.047406297
000170 f0 0a 09 3d d5 65 e0 3d 98 66 ca 3d e3 61 38 3d
       0.033457696 0.10956923 0.098828495 0.045015227
000180 3e 66 aa 3d f9 c3 98 bc 69 e3 e5 3a 17 45 d2 bc
       0.083202824 -0.018648135 0.0017539087 -0.02566771
000190 67 bd 75 3d b7 41 2f 3d 67 dd 1a bb 3e 98 d7 bd
       0.05999508 0.04278728 -0.0023630501 -0.10527085
0001a0 c9 2a b5 3d 21 74 3d bd 71 54 a5 3d f9 1f dc 3d
       0.08846051 -0.046253327 0.080727465 0.10748286
0001b0 ea 64 04 be e4 08 06 3b 3c e3 d1 3d 75 29 80 3d
       -0.1292912 0.0020452077 0.1024842 0.06257907
0001c0 c5 b4 9a 3d 6f ae 99 3d a5 14 42 3d d1 2a 7a 3b
       0.0755401 0.07503974 0.04738297 0.0038172493
0001d0 39 2e e5 3d 6b 66 57 bd b8 9c 2e 3c df 73 35 3d
       0.11190457 -0.052587908 0.010657482 0.044299956
0001e0 e1 7b 81 3c 31 9f e4 3d f7 64 39 3c a7 45 b0 bd
       0.01580614 0.11163176 0.011315576 -0.08607035
0001f0 29 64 09 be 21 fd 67 3d 44 0c 35 bd 7f 2c 54 bc
       -0.13417114 0.056637887 -0.04420115 -0.012950062
000200 59 72 f6 3d b5 b2 f4 bc 4d 18 ec 3d fb c3 bf 3d
       0.12033529 -0.02987037 0.115280725 0.09363552
000210 06 4e 5e bd d4 2d 49 bd 0c 18 21 bd 65 5b a5 bd
       -0.054273628 -0.04911597 -0.039329574 -0.08074073
000220 d3 0e 94 bd 03 b4 a0 bd 6c 75 ae bc 91 47 af 3c
       -0.0722939 -0.078468345 -0.021296225 0.02139643
000230 75 85 87 3d c8 59 f9 bb d7 7a 7e bb d3 a7 a7 3d
       0.06617252 -0.0076095797 -0.0038830542 0.08186307
000240 8d fc ac bd d4 73 fc 3c 6b 6e cc bc 8c 00 a3 bd
       -0.08446608 0.03081695 -0.024954995 -0.07959089
000250 36 cd 8c 3d 64 f5 31 3d 51 5a bf 3d 02 e9 43 bd
       0.068750784 0.043446913 0.09343398 -0.047829635
000260 de 67 02 be c6 bc d5 3c bd 6a 05 be 02 55 32 be
       -0.12734935 0.02609099 -0.13028999 -0.1741524
000270 9e f0 9d 3d 3f 25 38 3d fe 25 29 be ff 65 6c bd
       0.0771191 0.044957396 -0.16518399 -0.05771446
000280 94 b5 27 bc 45 1e 0a bd e0 33 a5 3d cd 3c 2e bd
       -0.010236163 -0.033720274 0.08066535 -0.042538453
000290 91 ca 5d 3d b1 da 89 bd 34 38 d1 3d a6 71 4d bd
       0.05414826 -0.06731165 0.10215798 -0.05015721
0002a0 b2 15 4c bc bc ba bb 3c 68 a2 69 bd 7b 68 cb 3d
       -0.012456344 0.02291619 -0.05703965 0.099320374
0002b0 91 c4 f8 bd d9 fb a4 3d 23 ea a6 bc 8a c8 0a bc
       -0.12146867 0.08055849 -0.020375317 -0.008470664
0002c0 c3 79 c0 bd df 2b 2b 3e 03 a2 a2 3c dc ca 80 3c
       -0.09398224 0.16715954 0.019852644 0.01572173
0002d0 30 75 28 3d 97 a4 97 bd 13 43 bd bd c0 69 a2 3d
       0.041127384 -0.0740444 -0.09241309 0.079303265
0002e0 78 03 5a 3b 4f 97 dc 38 46 9d af bd 69 2e 91 bc
       0.0033266228 0.00010518601 -0.085749194 -0.017722325
0002f0 e0 97 8b 3d 6c a4 3a bd a8 d6 4b bd 81 3f 8c bd
       0.06816077 -0.04556696 -0.04976526 -0.0684805
000300 e2 a0 b4 bc 14 24 21 bd 08 c9 84 3d 2e 5e 45 3d
       -0.022049371 -0.039341047 0.06483656 0.04818552
000310 50 09 0e bd 03 9e d1 3d 82 fb 04 bd 7c a3 85 3c
       -0.03467685 0.102352165 -0.03246642 0.016313307
000320 14 e4 c1 bd ea 7a 9f 3d 09 c5 9d 3d f7 cd 9b 3d
       -0.094673306 0.07787116 0.07703597 0.07607644
000330 02 15 fa 3d 77 44 6d bd ef d6 a2 bd 8e 16 bb bd
       0.12211038 -0.05792662 -0.079511516 -0.09135161
000340 6e c6 75 3d 35 8e 7e bd 04 ed a5 3d 9a 7d 1a 3e
       0.06000369 -0.062147338 0.08101848 0.15086976
000350 b8 ef d5 3d 75 73 8c bd b7 94 f3 bc 9b 3b ec bc
       0.10446113 -0.06857959 -0.029733999 -0.028837016
000360 0e 5b c3 bc d3 69 d2 bd 44 f7 4b bc 57 f6 24 be
       -0.02384713 -0.102740906 -0.012449089 -0.16109596
000370 e7 d8 ca bd a3 08 95 3d 6b b1 3c 3d 7e 54 c2 3c
       -0.09904652 0.07277038 0.046067636 0.02372193
000380 5a a3 38 3d 2e ff c1 3d a0 29 3f bd 85 e4 13 ba
       0.04507766 0.094725 -0.046670556 -0.0005641657
000390 d2 23 91 3c 33 f3 81 bd 44 b9 45 bd ae ce a3 bd
       0.017717276 -0.06345215 -0.048272386 -0.079984054
0003a0 13 09 a8 3d ec 57 ef 3d 94 82 ed bd 1e 27 89 bd
       0.08204856 0.11686692 -0.115971714 -0.06696914
0003b0 35 a6 d7 3c a5 66 36 bd a5 a2 81 bd 0b a2 27 bc
       0.02632437 -0.044531483 -0.0632985 -0.010231505
0003c0 85 df ca 3d 21 b3 c5 bc 54 59 49 3d 63 3e 04 3c
       0.09905914 -0.024133267 0.049157456 0.008071515
0003d0 ab 3a 37 3c e3 04 e1 bd 51 32 90 bd d4 f8 29 bd
       0.011183421 -0.1098726 -0.07040847 -0.041497067
0003e0 a0 9c 77 bd 04 4b cc 3c 49 78 ba bd b0 55 c6 bc
       -0.060452104 0.024938114 -0.09104974 -0.02421078
0003f0 be 3c 40 3a 93 6e cb 3c d0 57 ea bd 0a 32 e9 3b
       0.000733327 0.024833 -0.1144253 0.007116561

onnx::LSTM_197 f4 [1, 512]
000000 03 8b ae bc f4 6d ae 3b 19 27 b7 bd 54 27 25 3d
       -0.02130652 0.005323166 -0.08943004 0.04032071
000010 8e 24 05 bc fa 7f a3 bd 9b 7b 13 3d d4 c7 83 3c
       -0.008126391 -0.07983394 0.03600655 0.016086496
000020 39 03 fa 3c 57 bd 59 bc a0 70 f4 3d ca a9 85 bd
       0.030519115 -0.013289771 0.11935544 -0.06526525
000030 c6 bc 88 3d af d2 f1 3d 83 09 0f 3d 9e 6d cf 3d
       0.06676631 0.11807763 0.03492118 0.1012833
000040 da 6b e3 3d c8 9d b0 bc 7b b5 54 3d 07 52 06 3e
       0.111045554 -0.021559611 0.051930886 0.13117228
000050 22 60 69 bd 07 19 10 bd 4f b1 a9 3d 3e 0f 84 bd
       -0.056976445 -0.035180118 0.08285772 -0.0644822
000060 12 e5 3c 3d 94 d9 ef bb d5 63 97 bd 85 3c 72 bd
       0.046116896 -0.0073196385 -0.07392088 -0.059139747
000070 0e 7e d7 bd 88 0d c1 3d f8 54 92 3d 9c 24 9f bc
       -0.1052209 0.09426409 0.07145113 -0.019426636
000080 53 8f 35 bc 14 cf b0 bc 0f 11 2b 3c 86 95 d1 bd
       -0.011081534 -0.021583118 0.010441079 -0.102335975
000090 86 97 31 3d c5 c8 dd bb 18 50 a7 bc 89 c8 1b 3d
       0.043357395 -0.0067683184 -0.020423934 0.038033042
0000a0 28 6d ec bc 70 eb 0f bd 6a 16 1f 3c 7c b4 ea 3d
       -0.028860644 -0.03513664 0.009709934 0.11460206
0000b0 1f ed 98 bc 1f 87 12 3e 63 09 7c bc 3c ce 86 3d
       -0.018667756 0.14309357 -0.015383097 0.06582305
0000c0 ad 5c 17 3d b1 f2 a0 bd a7 d2 04 be 68 b2 b4 bd
       0.036953617 -0.0785879 -0.12970982 -0.08823091
0000d0 13 7a b7 bd 76 26 af bb 25 e8 c2 bd 86 5c 9d bd
       -0.08958831 -0.005345161 -0.09516934 -0.07683663
0000e0 fc cc aa b9 7b 84 5f bd 35 60 3a 3e fd 57 ff 3d
       -0.00032577652 -0.054569703 0.18200763 0.12467954
0000f0 b5 a3 b0 bc 56 6e 8d 3d cc 60 b0 3d 7a 65 f0 3c
       -0.021562437 0.069058105 0.086122125 0.029345263
000100 67 2f b9 bd 34 bc 7c 3d 04 16 fe bd f1 19 63 3d
       -0.090422444 0.061702922 -0.12406543 0.05544466
000110 da b9 96 bd 22 75 54 bd 93 d7 74 bd 49 bd d8 3d
       -0.07359667 -0.05186952 -0.0597759 0.10582978
000120 88 de 27 bd 0f 59 ec bc 46 9b 2f 3d 3c da 44 3d
       -0.040983707 -0.02885106 0.04287269 0.048059687
000130 8b d6 a5 3d 5a e5 ac 3d 88 e5 95 3d 96 9b 1c 3d
       0.080975614 0.08442183 0.0731917 0.038234316
000140 db c5 fd 3d ae 13 ca 3c d5 c7 3f 3d 6f 81 84 bd
       0.123912536 0.024667587 0.046821434 -0.0647
000150 6c e8 8c 3c fe 3e f4 bd 85 3d ba 3d 8a 7c 09 be
       0.017200671 -0.11926077 0.09093765 -0.13426414
000160 2f d9 ce bd 8e 7f c8 3d 56 fe ae bd d8 78 db 3c
       -0.10100018 0.09789954 -0.085446045 0.026791021
000170 6d a5 90 bd 7a 94 44 3d 81 31 09 3b d1 a9 d0 bd
       -0.070628025 0.04799316 0.0020934048 -0.1018864
000180 d1 a3 12 be a0 4a a1 3b a8 f4 b1 bd 53 81 9f 3d
       -0.14320303 0.004922226 -0.086892426 0.077883385
000190 46 92 b2 3d 84 bd eb bb 3b 60 ca bd 79 17 cb bd
       0.08719306 -0.007194223 -0.09881636 -0.099165864
0001a0 20 2a c3 bc 8f da 36 3d 02 2a 64 bd 89 18 67 3d
       -0.023823798 0.044642027 -0.055704124 0.056419883
0001b0 60 29 92 3d d1 0a 0e 3e c5 d3 c1 bd 77 57 e8 bd
       0.07136798 0.13871314 -0.0946422 -0.113448076
0001c0 cc 33 4d 3d 4c e3 2d bc 9e 78 5f bd b5 fa 10 bd
       0.050098225 -0.010613274 -0.05455839 -0.035395343
0001d0 29 30 d9 bd 27 99 0f bd 5d f2 42 bd 48 57 29 bc
       -0.10604889 -0.035058167 -0.047594417 -0.010335751
0001e0 9a d6 8e bd 11 90 c5 bd 92 db 18 3e 78 49 0b 3e
       -0.06974526 -0.09646619 0.1492751 0.13602245
0001f0 b6 29 35 bd 9c 20 16 bd 70 38 2a 3d 68 0d 3b bc
       -0.04422923 -0.036652192 0.04155773 -0.0114167705
000200 b0 9a 05 3e f3 13 c3 bd c9 94 c6 3c 38 a5 ab bd
       0.1304729 -0.095252894 0.024240868 -0.08381122
000210 23 84 00 3d 49 a8 e1 3d 52 54 06 be f3 05 90 3d
       0.031376015 0.11018426 -0.13118103 0.07032385
000220 d4 62 a6 3d da 1e 96 3c 84 c6 ea 3d 86 23 1c 3b
       0.08124319 0.018325258 0.11463645 0.0023824885
000230 8a 45 f4 3d 60 b3 8a 3d 8b 36 93 3d cb 55 f2 3b
       0.11927326 0.06772494 0.071881376 0.007395481
000240 28 b6 9b bc 5d 18 1a 3c d5 b6 b1 bd bc 3c 02 3c
       -0.019007757 0.009405223 -0.086774506 0.0079490505
000250 0c 19 20 bd 79 d8 05 be 74 5d af bd 80 a9 f7 3c
       -0.039086387 -0.13070859 -0.08562747 0.030232191
000260 79 a8 d2 bc 1c 62 e0 bd 80 61 b4 bc ba 42 ff 3d
       -0.0257151 -0.10956213 -0.022019148 0.12463899
000270 93 50 8f bd 02 0a 38 bd fe 91 c5 3d d1 ad 00 be
       -0.0699779 -0.04493142 0.096469864 -0.12566306
000280 9a 93 79 bd 82 37 3f bd de f5 99 3d d6 88 4b bd
       -0.06093178 -0.046683796 0.075175986 -0.049691044
000290 cd ea 0d be 57 0f 43 bd 35 32 aa bd e3 4d 5e 3d
       -0.138591 -0.04762205 -0.083103575 0.054273497
0002a0 5a 9c 92 bd 6d 6d 46 3c 03 92 49 bd 1b 94 a5 bd
       -0.07158728 0.01211105 -0.049211513 -0.080848895
0002b0 e5 00 3f be 4e 1d 99 3d 2a aa d4 bd 75 d2 d1 bd
       -0.18652685 0.074762926 -0.10384019 -0.102452196
0002c0 cf 4f 5b bd e3 1d 55 bc a1 20 18 bd 48 22 89 3d
       -0.05354291 -0.013007614 -0.037140492 0.06695992
0002d0 f4 04 f7 bd 1e 85 99 bd a1 e3 e1 bc e9 1b 49 bd
       -0.120614916 -0.07496093 -0.027574362 -0.049098883
0002e0 ff 65 10 3d f7 0a 79 3d eb f9 d4 3c dd c8 2e 3e
       0.03525352 0.060801473 0.025998076 0.17068811
0002f0 20 40 e4 3b e5 99 a4 bd 1c 52 79 bd cb 4d 3b be
       0.006965652 -0.080371656 -0.06086932 -0.18291394
000300 c1 3b b9 3d 1e 43 ac 3d 93 d5 9f bd 9f fa f6 bd
       0.090446 0.08411239 -0.07804408 -0.12059521
000310 2c b8 d8 bb ff 8b 12 3e 7c 87 be 3d 02 a5 8b 3d
       -0.006613752 0.14311217 0.09303185 0.06818582
000320 d1 9c b8 bd a5 f9 d5 3d 51 66 55 3d 37 41 9e bc
       -0.09014285 0.104480065 0.05209953 -0.019318206
000330 ba 5f 0a 3e 01 0d 31 bd 6c bc 87 3c bb 59 e3 bd
       0.1351308 -0.043225292 0.016569339 -0.11101099
000340 55 01 27 bd 74 83 ec 3d d3 39 c5 bd 4d 0e 84 3c
       -0.040772755 0.1154851 -0.0963017 0.0161201
000350 52 8b 11 be f9 bd 98 bd 5d 9f d9 3d a3 1c 09 3d
       -0.14213303 -0.074581094 0.10626099 0.033474576
000360 04 22 f8 bd 8a f9 4b 3d b9 9c 9c bb 29 8a 1c bd
       -0.12115863 0.049798526 -0.004779425 -0.038217697
000370 17 c8 90 bd 94 6c d8 bd 3f 5e ae bd c0 fc d4 3d
       -0.07069414 -0.10567585 -0.0851407 0.10399771
000380 57 8d ad bc 2a 80 91 bc 28 1d f3 bd 3b 4f 16 bc
       -0.02118556 -0.017761309 -0.118707955 -0.009174163
000390 60 8f ba 3d e8 7b 8a 3d a1 ee 80 bd c3 eb bf bd
       0.09109378 0.067619145 -0.06295515 -0.0937114
0003a0 57 b3 84 3d 92 c8 9d bd 08 c6 8b bd 40 1c f8 bd
       0.06479519 -0.077042714 -0.06824881 -0.12114763
0003b0 09 49 a4 bd 55 ab fd 3c 14 4e 65 3b ea 2a 8a bd
       -0.08021743 0.030965487 0.0034989165 -0.067464665
0003c0 7d 43 a2 3d 42 16 f3 bd 01 6a aa 3d f3 48 14 3d
       0.079230286 -0.1186948 0.08321 0.036202382
0003d0 cd e4 8f bd 0b 77 f3 3c d0 27 b5 bd f2 3d 31 3d
       -0.07026062 0.02971985 -0.08845484 0.043271966
0003e0 94 db 38 bc 35 ce 80 3d a7 15 97 bd 34 3f ce bd
       -0.01128282 0.06289331 -0.07377177 -0.10070649
0003f0 39 40 ae bd fe 79 8b bd 64 1e 99 bd 96 0d 9a 3d
       -0.08508343 -0.068103775 -0.074765 0.075221226

onnx::LSTM_217 f4 [1, 128, 64]
000000 c4 31 16 3e 27 6f d1 bc f0 94 1a 3e 0c 76 7f bd
       0.14667422 -0.025565697 0.15095878 -0.062368438
000010 06 ac 7a bd e7 1f 03 3e db 96 88 bd 1e cc 7a 3d
       -0.06119921 0.12805139 -0.066693984 0.061229818
000020 ff 3c 66 ba af ee 95 bd 04 70 df bd 13 37 b6 3c
       -0.0008782893 -0.07320916 -0.10910037 0.022243058
000030 3b 13 04 be 17 be 11 3e 49 e8 70 3c bf 6b 90 3d
       -0.12897961 0.1423267 0.014703819 0.07051801
000040 ab 5d 62 bd a3 d6 f4 3c d9 1d 09 3d 91 a4 ae 3d
       -0.05526511 0.029887503 0.03347573 0.08527482
000050 8e 2a 13 3e f8 d5 e8 3c 8f f5 e9 bc 6b 34 0f 3e
       0.14371702 0.02842234 -0.028559474 0.1398484
000060 86 ca e3 bc d3 e2 15 be 16 36 9f bc 46 c1 45 bb
       -0.027806532 -0.14637308 -0.01943497 -0.0030175014
000070 f9 ac 4c 3e ce 67 9f 3d f6 8e 3f 3e 03 84 f5 bc
       0.19987859 0.07783471 0.18706879 -0.029970175
000080 0c e7 af bc e3 dc ed 3d 6f 5f 3b be 8a 4e 13 be
       -0.021472476 0.116143964 -0.18298124 -0.14385429
000090 6f df 49 3d 6f 6f cf bd 36 cb 31 bc 32 38 c3 bd
       0.04928535 -0.10128676 -0.010851672 -0.09532203
0000a0 3d b0 02 3e c1 ce 24 3e 1c cf 0f 3e 95 72 d4 3c
       0.12762542 0.16094495 0.1404385 0.025933543
0000b0 10 3e b1 bd d5 d4 81 3d 3e 6d 8f 3d 2f 42 b3 3d
       -0.086544156 0.063394226 0.07003258 0.08752858
0000c0 48 46 89 bd 73 5e 32 3d 68 2a 18 bb 2d 20 c7 3d
       -0.06702858 0.043547105 -0.0023218635 0.09722934
0000d0 9d ab d6 bc e3 2a 15 3e ce 09 37 bb 47 06 75 bd
       -0.026204878 0.14567141 -0.0027929428 -0.05982044
0000e0 16 35 c3 bd 1e 6e fa bd 3f b4 e7 bd 8c a4 06 be
       -0.0953161 -0.122280344 -0.11313676 -0.13148707
0000f0 bd 97 27 3e 55 d7 d9 3d 71 95 eb 3d 2b 50 db 3d
       0.16366477 0.106367745 0.11503113 0.1070865
000100 1b 24 29 be f8 ac 18 3c 8a dc 6d 3e cb 7b 07 3e
       -0.1651768 0.009318583 0.2322866 0.13230817
000110 6f 7d 15 bd de 68 4d be 4c e9 dd bd fa d5 d4 bd
       -0.036496576 -0.20059535 -0.108355135 -0.10392375
000120 08 f0 ca 3d 06 02 53 be ad b1 c7 3d 0d a3 07 be
       0.099090636 -0.2060624 0.09750686 -0.13245793
000130 c2 0f 34 3d d3 92 92 bc 67 80 0d be 14 48 3c 3e
       0.04396034 -0.017892277 -0.13818513 0.1838687
000140 ab f5 ce 3d 6b 00 cc 3d ff ea ec bd 8a 62 45 bd
       0.10105451 0.09961017 -0.115682594 -0.048189677
000150 b8 d8 28 3e d4 66 e7 3c 52 1b 4e 3b b7 b3 51 ba
       0.16488922 0.028247274 0.003144939 -0.0007999497
000160 df 99 70 3e 62 66 0f be 3c 7a 3e 3a 00 b4 ca 3d
       0.23496197 -0.140039 0.0007266139 0.098976135
000170 22 a0 2b bc c3 7e 8e bd 9d bd c2 3b 4e 3b 3e 3d
       -0.01047519 -0.06957772 0.005943014 0.046443276
000180 c4 e0 c7 3d 25 af 59 3e 83 5a 2d 3e e6 2c 2c bd
       0.097596675 0.21258219 0.16929059 -0.042035006
000190 ce 57 14 be 71 50 f6 3b 56 76 a4 bd 42 52 6c 3d
       -0.1448662 0.0075169136 -0.08030383 0.057695635
0001a0 9e bf 03 bd 66 2a fe bd 84 80 24 be c1 3a 87 3d
       -0.032165162 -0.124104306 -0.1606465 0.06603003
0001b0 29 1a 28 be 9e 9d 65 3e f6 37 9d 3d c4 65 dc bc
       -0.1641623 0.22423407 0.07676689 -0.026903994
0001c0 5c 7f 60 be f2 55 f1 bd 99 17 da 3d 34 0e 0b be
       -0.21923584 -0.11783971 0.10649032 -0.13579637
0001d0 2d f3 dd bd 14 bf 6e 3c 9b 51 d9 3c 44 d9 5a bd
       -0.10837398 0.014571924 0.02652817 -0.053429857
0001e0 16 ac 08 bd c5 b2 90 3d 4b 61 02 be 25 b2 a2 3d
       -0.03336724 0.070653476 -0.12732427 0.079441346
0001f0 6f 1c b1 3c 44 8e a0 3d 6c 8e cd 3d 33 20 97 3c
       0.021620004 0.07839635 0.100369304 0.018447971
000200 27 26 86 3d 80 d4 21 3c 9e 2e b8 bd 69 59 39 3e
       0.06550246 0.009877324 -0.089932665 0.18100514
000210 ae 6f 4b 3b 45 c1 dc bc df b8 06 bd eb 45 d4 3d
       0.0031041908 -0.026947627 -0.03289115 0.10364898
000220 0b da 6d bc 1e df bd 3d 61 72 27 be fc 12 b8 3c
       -0.0145173175 0.09271072 -0.16352226 0.02246999
000230 fe 5c 3d bd 09 a3 45 bd 63 f4 0f be 43 a6 43 3e
       -0.046231262 -0.048251186 -0.1405807 0.19106393
000240 c7 a2 03 3e da 43 27 3d 24 0d b9 3d 67 2c 58 3e
       0.12855063 0.040836193 0.090357095 0.21110688
000250 2d 00 31 3e d4 c3 fb 3d 33 b8 19 3e ee 10 e1 3d
       0.17285223 0.122932106 0.15011673 0.10989557
000260 d3 12 2b 3d 9b 39 86 bc f9 8a 4b 3e 11 cb 51 bd
       0.041766 -0.01638489 0.19877233 -0.05121905
000270 48 c6 e7 3d 13 05 9a 3d ab 88 2e bd e9 b1 39 bc
       0.11317116 0.07520499 -0.042610805 -0.011333921
000280 1a cc bd 3d 79 9e 22 3e 44 51 3d 3e 12 d5 7b 3d
       0.09267445 0.15880765 0.18488032 0.061482497
000290 4b 75 58 bd a7 b5 93 bd a7 37 30 3d 17 49 1c be
       -0.052846234 -0.07212382 0.043021824 -0.15262257
0002a0 de ad 35 3e e3 dd 50 be 1a 63 18 be a6 d8 13 3e
       0.17742106 -0.20397143 -0.14881554 0.14438114
0002b0 8c d6 0e be fb e5 e3 3c 83 a5 39 be 0f 04 1d 3e
       -0.1394903 0.027819624 -0.18129544 0.1533358
0002c0 d9 26 68 be f3 04 fa 3d 01 d0 39 3e 8d 4f b0 bc
       -0.22671069 0.12207975 0.18145753 -0.021522308
0002d0 26 8a 12 be d5 fa a3 bd 53 bc 6b 3c 09 86 3b bd
       -0.14310512 -0.08006827 0.014388162 -0.045782123
0002e0 43 6f 7a bd 8a b7 86 bd 13 64 aa 3c 34 08 dc bd
       -0.061141264 -0.06577976 0.020799672 -0.10743752
0002f0 62 10 ed ba d2 25 dc 3d 94 1e 15 bd 4a 91 60 3d
       -0.0018086547 0.10749401 -0.036406115 0.05482606
000300 a5 b1 03 3e bf 23 18 3e bb ca f0 bc f7 3a 9f bd
       0.12860735 0.14857386 -0.029393544 -0.077749185
000310 6b 78 fc 3d f1 52 0b be 63 24 36 3d 51 f6 57 be
       0.123276554 -0.13605858 0.044468295 -0.21090056
000320 4b b9 fa 3d 22 be 18 be aa 9f d1 3d 2d 7f 2e 3e
       0.12242373 -0.1491628 0.10235532 0.17040701
000330 1f c2 d3 3d 79 fd ac 3c e1 6f 8e 3d 58 ad 07 be
       0.1033976 0.021116959 0.06954933 -0.13249719
000340 45 13 9c 3c 99 7b 92 3d ee a9 24 3c 8c 6b 7e bd
       0.019052157 0.07152481 0.01005028 -0.062114283
000350 d3 60 2e 3d 67 2a 3b 3e eb fc 19 be 87 d9 17 3c
       0.042572808 0.18277894 -0.15037887 0.009268171
000360 03 e4 0f 3e 1f 02 2b 3e d7 89 08 3d b1 e5 22 3e
       0.14051823 0.16700028 0.03333458 0.15907933
000370 b4 0c 2d 3e 1e ca 39 3e 2b 4e 7e bd 0e 73 12 3c
       0.16899377 0.18143508 -0.062086266 0.008938564
000380 f6 41 07 be 68 56 32 3d 29 2d e1 3d c4 63 9f bc
       -0.13208756 0.043539435 0.10994942 -0.019456752
000390 4e db 1c be bd e7 a7 bc dd b2 80 3d 7d 1d 0d bd
       -0.15318033 -0.020496244 0.062841155 -0.03445195
0003a0 b8 f3 72 3d e0 e2 e6 bd 54 c2 0f 3d b7 b1 e5 3d
       0.05931446 -0.11273742 0.035097435 0.11215537
0003b0 d1 32 67 3d f5 59 ad bd 0d b8 25 3e 8a 6d b3 bd
       0.056444947 -0.084644236 0.16183491 -0.08761127
0003c0 0a c7 1d be 7a 6d 97 bd 29 ce be bd be 40 44 be
       -0.15407959 -0.07393928 -0.09316666 -0.19165322
0003d0 a7 4b 5d 3d 9c 7e 72 bd 08 77 47 bd 41 e9 1b 3e
       0.054027226 -0.059202775 -0.0486975 0.15225698
0003e0 73 4e 35 3d f7 3a 86 bd 65 41 26 3e 2a e1 23 be
       0.044264268 -0.065542154 0.16235884 -0.16003862
0003f0 f4 c7 10 be 57 1d ad bd 87 02 0c be 32 55 01 3d
       -0.14138776 -0.08452862 -0.13672839 0.03157539

onnx::LSTM_218 f4 [1, 128, 32]
000000 35 ed 16 be 47 ed ac 3d 2f 62 8d bd b7 71 09 3e
       -0.14738925 0.084436946 -0.06903493 0.13422285
000010 17 ab 64 bd f4 3e 0d be 8c 4a 3b 3e c6 c8 0a 3c
       -0.055827226 -0.13793546 0.18290156 0.00847072
000020 41 9a b6 3d 40 bf 0d be ca a1 87 3c 51 18 37 3e
       0.0891614 -0.13842487 0.01655664 0.1788037
000030 e6 e4 25 be 7a 0f 93 3d 66 91 06 be c0 10 46 bd
       -0.16200599 0.07180686 -0.13141403 -0.048355818
000040 9d 30 50 3e 92 10 c1 bc 5b 97 b2 3d 68 6a e2 3d
       0.20331044 -0.023567472 0.08720275 0.11055452
000050 26 67 bf bc 32 92 48 bd 38 1d 97 bd 55 08 05 bd
       -0.023364615 -0.048967548 -0.0737862 -0.03247865
000060 14 01 e7 3d ea de 1c be 1b 79 cc bc df 0e ac 3d
       0.112795025 -0.1531941 -0.024960091 0.08401274
000070 e2 46 95 bd 8e a1 8e bd 60 64 e2 3d e2 8d 6b be
       -0.072889104 -0.06964408 0.11054301 -0.23003343
000080 b9 d6 04 3e 8d d7 24 be aa 84 e9 bd e0 ce 20 bd
       0.12972535 -0.16097851 -0.11402257 -0.03925979
000090 30 df 29 3d ce 03 43 3d 4a 4d 40 3e e9 46 03 be
       0.041472614 0.04761105 0.18779483 -0.12820019
0000a0 2b 4e 37 3d 88 b0 f1 3d 8a d0 f5 bb 3a 42 d9 3d
       0.04475228 0.11801249 -0.0075016664 0.10608335
0000b0 0f 21 c2 bd c7 b7 5d bd 0c 5d 0a 3d 7b 0e 08 be
       -0.09478962 -0.05413034 0.033780143 -0.13286774
0000c0 4c 2c 7c bd 00 75 b6 bd e2 8b a9 bd 9f b2 35 3e
       -0.061565682 -0.08909035 -0.08278634 0.1774392
0000d0 cb 73 52 3e 30 f5 a1 bc 91 60 8e 3d 34 a9 b5 3d
       0.20551984 -0.019770235 0.06952012 0.088701636
0000e0 a6 26 83 bc 54 33 98 bc 8c c1 87 3d c2 71 bb 3d
       -0.01600964 -0.018579163 0.06628713 0.09152557
0000f0 4b 1f 99 bc 52 16 51 be c6 4d ee bd 48 6b 2d 3e
       -0.01869168 -0.20418671 -0.11635928 0.16935456
000100 26 b5 b8 bd 02 8f dc bd 20 23 91 3d 0b 03 e3 3c
       -0.09018926 -0.10769464 0.07086778 0.027711412
000110 bf cb 34 be bd ae cf bd 36 58 cc 3d 9e 75 b5 3d
       -0.17655848 -0.101407506 0.099777624 0.08860324
000120 fc 74 6f 3d 7f 0e 3f 3e d3 1f 83 bc 6f 53 0e 3e
       0.058461174 0.18657874 -0.016006386 0.13899015
000130 e4 a9 0a 3a 83 df ee 3c c3 90 fa 3d 01 4d 60 3d
       0.0005289598 0.029159313 0.12234642 0.054760937
000140 d1 92 79 3c 9b ec 4e bd 52 4d fb bd 08 5e 08 be
       0.015232758 -0.050518613 -0.12270607 -0.1331712
000150 54 a2 52 bc 5e 0b a9 3d ea 4c 1c 3e a3 ac 2b 3c
       -0.012856085 0.08254121 0.15263715 0.0104781715
000160 b6 ef 91 3d 55 a2 4f be ba 7f 61 bd ab a7 f5 3d
       0.07125799 -0.20276769 -0.05505345 0.11994871
000170 af 01 30 3e cb de e6 bd 4d 4c 2a 3e 49 0d b5 bd
       0.17188142 -0.11272963 0.16630669 -0.088404246
000180 ad 48 fc bd 2f 0b 2d 3e 77 f7 b4 bd fd 06 e9 3d
       -0.12318549 0.16898797 -0.08836263 0.11378286
000190 fe a8 24 3d 78 8a cf bd 49 a3 0d be 61 6a 9e 3d
       0.040200226 -0.10133833 -0.1383182 0.07735134
0001a0 c3 17 d6 bc d5 30 16 3d 99 d3 97 3d 1c ab 0c be
       -0.026134377 0.036667664 0.07413406 -0.13737148
0001b0 33 bb a7 3d 5e 72 54 3e 24 e1 08 be 92 78 3e bd
       0.08190002 0.20746753 -0.13367134 -0.046501704
0001c0 e1 30 e0 3d e6 16 94 bd 0f 42 c4 bd 74 04 f7 bc
       0.10946823 -0.0723093 -0.09582912 -0.03015349
0001d0 35 b2 a5 bd e6 cc 96 bd 18 e3 2e 3e f0 9e 3d bd
       -0.08090631 -0.073633 0.17078817 -0.046294153
0001e0 d9 8f 73 bd 4c c6 28 be 46 58 d0 bd 1f b1 56 3d
       -0.059463356 -0.16481894 -0.10173087 0.05241501
0001f0 c6 74 93 3b 14 a8 24 3d fc ec 53 3e bf ae 90 bd
       0.0045000045 0.040199354 0.20695871 -0.0706458
000200 a9 41 df bd 82 09 88 3d 29 c6 44 bd 4b b4 f9 3c
       -0.109011956 0.066424385 -0.048040543 0.030481478
000210 61 b2 7c 3d fa 22 00 be 49 88 84 3d 99 d0 38 be
       0.061693553 -0.12513342 0.06471307 -0.18048324
000220 2c 1c e4 3d bd b0 c0 3d 72 e9 44 3d 5b e5 38 bd
       0.11138186 0.0940871 0.048074193 -0.045140605
000230 4e aa 65 3d 51 c7 f7 3d 72 f4 74 bc 49 84 1e be
       0.05607062 0.120985635 -0.014950858 -0.1548015
000240 a7 da 9e bd cd 44 49 3d ab 9a ee bc 81 db 3f 3d
       -0.077565484 0.04913788 -0.029126486 0.046840195
000250 41 12 17 be 0b 8e 05 3e 92 eb 17 bd f1 80 00 be
       -0.14753057 0.13042466 -0.03708989 -0.12549187
000260 0b 2c 13 be 8b 5b 2c be 11 b3 41 3d 1c bd ac bb
       -0.1437227 -0.16831796 0.04728991 -0.005271567
000270 19 b3 8a 3d dc 22 fd bd 74 04 dd bd 68 a8 f2 bd
       0.067724414 -0.123601645 -0.10791865 -0.11848527
000280 30 78 e9 bc b3 c1 a1 3d e7 5b fe bd e9 d4 07 3d
       -0.028499693 0.07898273 -0.12419873 0.03316203
000290 4b 38 06 3e b3 57 8b bd 1f 1f 58 3e 23 99 b8 3c
       0.13107412 -0.06803837 0.21105622 0.022533959
0002a0 b7 97 b1 3d ab b4 df 3d c1 0f 8d 3d f0 4a 97 3d
       0.086715154 0.109231316 0.068877704 0.0738734
0002b0 b5 04 7c bd 40 5c 64 bd 0d 35 f3 3d 47 fd ec 3d
       -0.061527926 -0.05575204 0.11875353 0.11571746
0002c0 9f 70 17 3e 50 1a 59 3c 43 c7 51 3e 05 8c 5d bc
       0.14789055 0.013250902 0.20486169 -0.013522153
0002d0 80 86 31 bd 4c df d1 3d 1c 7e 12 3e 3e 42 58 3e
       -0.04334116 0.102476686 0.1430592 0.2111902
0002e0 a8 04 5b be 67 15 bd bd be a9 60 bd 12 32 01 be
       -0.21388495 -0.09232598 -0.05484938 -0.12616757
0002f0 47 31 91 3a c6 e3 30 3d d5 a8 6b 3e fe 53 e5 3d
       0.0011077308 0.04318597 0.23013623 0.11197661
000300 71 45 7e bd eb 2f a0 bc e8 bd 0f be 7c 51 c6 3d
       -0.062077943 -0.019554099 -0.14037287 0.09683511
000310 dc f0 4c be 58 ba bc 3d 98 98 3c 3d 21 13 37 be
       -0.20013756 0.0921523 0.046043962 -0.17878391
000320 66 3e a5 bd 30 86 bc bd 25 85 cb bd 2e 78 4f 3e
       -0.08068542 -0.09205282 -0.09937505 0.20260689
000330 fc c1 3b bd 7d bb 47 3e 0c 14 e1 bd 4e 37 bb 3d
       -0.045839295 0.19505115 -0.10990152 0.09141408
000340 00 43 75 3d 4d f8 f0 bd d3 ca 04 3d 29 e6 01 3e
       0.05987835 -0.117661096 0.03241999 0.12685455
000350 1f 40 3f bd 0c 99 10 be 95 bc 2a be 56 a3 e1 3d
       -0.04669201 -0.14120883 -0.16673501 0.11017482
000360 01 46 74 bc 1d 9d 98 3c 9d 74 91 3d 17 7d 44 3e
       -0.014909268 0.018629605 0.0710232 0.19188343
000370 e8 15 8a 3d 93 81 fd bc 79 a3 3f 3e df 03 ba 3d
       0.067424595 -0.030945575 0.18714704 0.090827696
000380 cd 57 11 3d 97 4c c0 3d 93 ae 04 3d 58 1a 9d 3d
       0.035484124 0.09389608 0.03239305 0.0767104
000390 99 68 09 3e 40 aa 11 3e 50 e8 03 3e b1 57 1f 3d
       0.13418807 0.14225101 0.12881589 0.03890199
0003a0 89 f8 f5 3c 7a 88 00 bd 70 8b 4a 3d d3 17 41 bd
       0.030025737 -0.031380154 0.049449384 -0.04714186
0003b0 c6 22 0e bd 43 c0 17 3e 85 6f 44 bd 39 e7 b4 bd
       -0.03470113 0.14819436 -0.047957916 -0.08833165
0003c0 b9 9f 0b 3d 44 24 18 3e b8 9c b3 3a 46 75 32 3c
       0.03408787 0.14857584 0.0013703322 0.010892218
0003d0 c0 c0 2d be 43 7a ea bd f8 52 cc bd 62 4f ed bd
       -0.1696806 -0.11449101 -0.099767625 -0.11587407
0003e0 1e fc f5 bc c9 6f e0 bd 18 cd af 3d 69 35 a4 3c
       -0.030027445 -0.10958821 0.085840404 0.020045
0003f0 b9 33 00 3e f7 d1 af 3c 43 fe c1 bd 79 eb a3 bd
       0.1251973 0.021462424 -0.09472325 -0.08003897
