Models/morse_dense_model_v3.onnx (onnx, 47002 bytes, 10 tensors)

network.0.weight f4 [128, 2]
000000 89 fe 63 3f fc 76 94 3e 46 ed e0 3d e9 61 26 3f
       0.89060265 0.28997028 0.10982756 0.6499315
000010 22 d5 a8 be 5d a7 36 3d 33 00 fc be 4b 91 35 3d
       -0.32975107 0.044593204 -0.49218902 0.044328015
000020 51 b8 6a 3f a8 f0 95 be 2a 88 5f 3f 21 e8 05 3f
       0.91687495 -0.2928517 0.87317145 0.52307326
000030 24 c4 55 3f f8 fb 9d 3c 34 be e8 3e 4a 80 7f be
       0.8350241 0.019285187 0.45457613 -0.24951282
000040 ea 71 3c 3f ac 59 ea 3c 84 c7 bd be 62 cd 55 be
       0.7361132 0.028607212 -0.3706628 -0.20879129
000050 4d 44 17 bf ab 1b ac bd 32 55 b3 be a9 9b 9d 3e
       -0.59088594 -0.08403715 -0.35025936 0.30782822
000060 52 6c 48 bf a8 77 4f be 0c 76 4c be 13 af d9 be
       -0.78290284 -0.20260489 -0.19966906 -0.42516384
000070 87 92 85 3e d6 8a 5e bf 3e bc 2d 3f f2 3c 41 bf
       0.26088354 -0.86930597 0.6786536 -0.7548362
000080 fb 16 59 3f 3d 51 f8 bb 25 c5 ca 3b a0 15 3d 3e
       0.8480069 -0.0075780437 0.0061880522 0.1846528
000090 9a 99 a2 3e 60 e5 8c 3e 01 40 ad 3e 8a b5 f8 be
       0.31757814 0.2751875 0.33837894 -0.48576003
0000a0 10 88 ef 3e c5 a6 97 be 61 8a f8 3e 5e 4c d4 3e
       0.46783495 -0.29619423 0.48543075 0.41464514
0000b0 6d 2c 21 3f 84 8a 3e be 60 06 1a 3f 3d e3 67 be
       0.62958413 -0.18607527 0.6016598 -0.22645278
0000c0 c2 fc 01 3f 35 84 42 bf 6b b3 7e bf 3d bf ad bc
       0.507763 -0.7598298 -0.9949252 -0.021209354
0000d0 4f 62 88 bf 73 26 32 3e 12 35 f6 3e bb ea de 3e
       -1.0655001 0.1739748 0.48087364 0.4353846
0000e0 d3 cc ba 3e 31 81 66 be de 35 34 3f 78 ac 70 bf
       0.36484393 -0.2251022 0.70394695 -0.94013166
0000f0 c0 5c 36 3d 1e 1b f7 be 1f 05 8e 3e 51 e4 ad be
       0.044522047 -0.48262876 0.27738282 -0.33963254
000100 aa 69 1e 3f ea ec 57 be 8d 40 24 3f ca 6c 66 bf
       0.6187998 -0.2108647 0.64160997 -0.9000975
000110 fd 4c 3a bf b6 8b 1d bf 55 46 4b 3f c4 3c e7 3e
       -0.72773725 -0.61541307 0.79404193 0.45163548
000120 1e c6 1d 3f 80 f0 4b bf 7b 8c 33 bf 7b 9f 0d bf
       0.6163043 -0.7966385 -0.7013623 -0.5532147
000130 be e7 85 bf a7 e2 2c 3d 13 70 bc 3e fb 36 1d 3f
       -1.0461347 0.04220834 0.36804256 0.6141202
000140 49 f7 ba be 58 ce f6 be b5 e0 d4 3e f6 fb 53 bf
       -0.3651679 -0.48204303 0.41577688 -0.82806337
000150 d6 be 16 3f f0 05 35 bf 92 13 16 3f 32 90 67 bf
       0.5888494 -0.70712185 0.5862361 -0.904544
000160 67 32 48 bf 10 f9 01 3d 2b db b6 3e f0 6e 09 bf
       -0.7820191 0.031731665 0.35714087 -0.536849
000170 24 22 3f 3f cd d5 04 3f fe 6e 52 bf 08 50 d4 be
       0.7466147 0.51888734 -0.8220061 -0.4146731
000180 5e fa 25 3f b2 11 ee be 33 c1 51 be 6a b5 41 bf
       0.64835155 -0.46497875 -0.20483856 -0.7566744
000190 21 c2 45 bf 42 54 af 3d 36 ea a2 bd 3f 66 03 bf
       -0.7724934 0.08560993 -0.079548284 -0.5132789
0001a0 20 e0 87 3c 4a 4d f7 be ff 6b 72 bf 0a fa 89 be
       0.016586363 -0.48301154 -0.9469604 -0.26948577
0001b0 fb 60 3e bf e8 5c 11 bf 5f fe 5c 3f d3 7e 12 3d
       -0.7436673 -0.5678239 0.8632564 0.03576548
0001c0 77 e7 04 3f 7a d5 28 bf de a1 f6 be 47 1d 8a be
       0.5191569 -0.6595074 -0.4817037 -0.26975462
0001d0 df c7 f6 3d 59 59 69 bf 8b f2 d5 be a0 04 bf be
       0.12049841 -0.9115196 -0.41786608 -0.37308216
0001e0 50 a2 cb bd 1c ad dd be f9 da 30 bd d7 75 26 bf
       -0.09943068 -0.43296134 -0.04317758 -0.6502356
0001f0 3f de 3c bf f9 b1 23 bf b4 40 c4 be 6f 8b 28 bf
       -0.7377662 -0.6394344 -0.38330615 -0.6583776
000200 e7 55 0d 3f 16 75 e4 be 5e 4e 31 3f 82 74 a9 3e
       0.552092 -0.4462058 0.69260204 0.330967
000210 21 56 17 bf fe 20 f1 3c 4a 4e 30 bd 97 3b df be
       -0.591158 0.029434677 -0.043043412 -0.4360015
000220 43 b1 6d bf 59 f6 33 bf 6e 42 fc 3e 15 a3 83 be
       -0.92848605 -0.7029777 0.49269432 -0.2571036
000230 88 8d 01 3f 53 8e 14 bf fb c6 28 3f cb 56 21 bf
       0.50606585 -0.5802967 0.6592862 -0.6302306
000240 c8 0e fa bd e0 3c 17 3e a9 44 13 3f 65 38 05 3f
       -0.122098505 0.14769316 0.5752664 0.52039176
000250 c1 1c 53 3f 7d 48 82 bf c8 bd a2 3e 28 86 3c bf
       0.8246575 -1.0178372 0.31785417 -0.73642206
000260 20 b2 9e bd be 7d 07 bf 6f 06 66 3f e2 d9 7c bf
       -0.077488184 -0.5292624 0.89853567 -0.9876996
000270 b4 75 38 3f 93 54 0b 3e ba cf f9 3e 00 cc d4 be
       0.720546 0.13606481 0.48791295 -0.4156189
000280 bf 1c 4e 3f 54 31 7f 3e c0 ea 16 3e d2 ec 3a bf
       0.80512613 0.24921161 0.14737988 -0.7301761
000290 72 f6 d0 3e d5 2b 91 be cd eb 6c be bc 0d e6 3e
       0.40813023 -0.28353754 -0.23136826 0.44932353
0002a0 cc 14 b4 3e e1 ab 3e bf 4a 02 18 bf ff 09 85 bc
       0.35172117 -0.74481016 -0.5937849 -0.016240118
0002b0 06 9a ed 3e 91 78 c3 be f7 91 ce be 82 f4 77 be
       0.46406573 -0.38177922 -0.40345737 -0.24214366
0002c0 55 73 86 bf 8c 5b 9d 3d 83 34 41 3f d9 38 8b bf
       -1.0503947 0.07683477 0.7547075 -1.0876724
0002d0 75 09 d9 3e 16 75 81 3d b7 fe ee 3e 38 8a 2a bf
       0.42390028 0.063211605 0.46678707 -0.66617155
0002e0 04 9c 1d 3f a3 b8 0f 3f 6c fc fa 3e 3e 6f 22 3c
       0.61566186 0.5614111 0.49020708 0.0099142175
0002f0 a0 82 90 be 5a 7e 92 bd 1c bb a9 be 2d 0a a0 be
       -0.2822466 -0.07153006 -0.33150566 -0.31257764
000300 ed aa 52 3f 2a 03 6d 3e 35 ba fc bd b6 46 bc be
       0.8229206 0.23145738 -0.12340204 -0.36772698
000310 00 0e 29 3c 00 ef 2c bd c7 0b fd 3e a7 95 1e 3e
       0.010318279 -0.042220116 0.49423048 0.15486775
000320 2a e6 47 bf c2 60 9f be fc fe 28 3f 84 77 cf 3e
       -0.7808558 -0.31128508 0.66014075 0.4052087
000330 30 0e 10 bd 73 46 da be b4 93 41 bf 00 e8 12 bf
       -0.03516978 -0.42631873 -0.75616 -0.57385254
000340 63 9c 34 bf fd 0b 5a 3e 79 58 35 3f 85 c3 02 3f
       -0.7055113 0.21293636 0.70838124 0.5107959
000350 ce 02 20 bf 6a b7 d9 be 2d c8 b6 3d 9f 5b fc 3e
       -0.6250428 -0.42522746 0.08924899 0.4928865
000360 ce 88 2d 3d cc 40 fb be 7a ac d1 3e 63 4e 4e bf
       0.042366795 -0.49072874 0.40951902 -0.8058836
000370 23 b7 6f bf c5 fb 9b 3d a0 9e a4 be 48 27 11 be
       -0.9363882 0.076163806 -0.3215227 -0.14175141
000380 89 73 7c bf 09 2f 00 3f d8 f6 4c 3f 69 ec 7c 3e
       -0.9861379 0.5007177 0.80064154 0.24699558
000390 73 72 48 bf 17 0a 3e bf e2 13 52 bf df a6 52 3d
       -0.78299636 -0.74234146 -0.8206159 0.051428672
0003a0 d0 c8 3b 3f 85 9d 21 3f 7a e1 00 3f 94 30 af 3e
       0.7335329 0.6313098 0.5034405 0.3421675
0003b0 80 e6 e2 bb 92 aa 09 bf 2b cb 61 bf f2 50 29 bf
       -0.0069244504 -0.53775895 -0.88200635 -0.6613914
0003c0 6a f6 a5 3e f4 1a 54 bf cc 71 21 be 96 36 f2 be
       0.32414562 -0.8285363 -0.15766066 -0.4730727
0003d0 cb 36 23 be a2 9d 1e bf ce 8f ec be 2c 2f 70 3e
       -0.1593887 -0.6195928 -0.46203464 0.23455495
0003e0 c6 e4 8a be 87 75 30 3e 54 4a 68 be 34 ca 04 bf
       -0.27127665 0.17232333 -0.22684604 -0.5187104
0003f0 a8 94 9c bd bf 29 e1 be 19 48 51 3b 26 7a 45 bf
       -0.076455414 -0.43977162 0.0031933843 -0.7713951

network.0.bias f4 [128]
000000 5d fe 12 3e e6 7f fc be 2a f2 3a 3c 9a 80 35 3d
       0.14354844 -0.4931633 0.0114102755 0.044312097
000010 03 26 e8 3e cd d6 cd be fe 28 dd 3e a4 d4 36 bf
       0.453415 -0.40202942 0.43195337 -0.71418214
000020 90 2d c0 3e 6a 76 80 3e 3f 8b 05 be a2 80 7f 3c
       0.3753476 0.25090343 -0.130414 0.015594633
000030 b8 d0 97 bd fa 25 17 bf ea 9e 82 3e 87 66 8e bf
       -0.07412857 -0.5904232 0.25511867 -1.1125039
000040 a4 68 da 3e be ae df 3c b5 4d 78 3d 88 db a6 bd
       0.4265796 0.027305003 0.060620982 -0.08147341
000050 af e6 48 bf af 36 1f be 1e ad a2 3e 73 26 83 bf
       -0.78476995 -0.15548204 0.31772703 -1.0246109
000060 71 d1 11 be b8 86 d1 be cf 32 02 bd 2a 3e 6c be
       -0.14240052 -0.40923095 -0.031786736 -0.23070589
000070 b9 4a 1f bf 42 52 48 be fe 05 2c bf 39 08 b9 3e
       -0.6222339 -0.19562629 -0.67196643 0.36139086
000080 32 87 b7 3e c8 27 30 be 52 15 c7 3c 2a 7e 7a be
       0.35845333 -0.17202675 0.024302159 -0.2446219
000090 02 72 83 bf 70 28 30 bf 10 4d 41 3b 4d 8c 04 bf
       -1.0269167 -0.688117 0.0029495396 -0.5177658
0000a0 0f bf e8 be 98 fa 98 3d b9 75 2c be b3 19 36 be
       -0.45458266 0.07469672 -0.16841783 -0.17783241
0000b0 9c 7d 32 bc 6c b1 b6 bd 72 22 67 be 04 b1 9e be
       -0.010894205 -0.08920559 -0.22571734 -0.30994427
0000c0 81 a5 86 bf d0 01 0a 3f 97 d7 7f be 56 be 66 3e
       -1.0519258 0.53909016 -0.24984585 0.22533545
0000d0 ec 3a 7b be ce da 98 bc f7 41 07 3f 9f 39 da 3e
       -0.24534196 -0.018659022 0.5283503 0.42622086
0000e0 5f a9 58 bf 20 7f a3 3e 76 83 e7 3e aa 80 95 3e
       -0.8463344 0.31932926 0.45217484 0.29199725
0000f0 01 14 9d 3e 03 1b 00 3f bb cd cb 3c 2f ea 8e 3e
       0.30679324 0.50041217 0.024878373 0.27913043
000100 9c 3c 66 bf 6b 93 b0 3a 56 db 44 3d 72 fd ac 3e
       -0.8993623 0.0013471668 0.048060738 0.33787113
000110 6d 5f be be ba dc 4e bf b8 bc 56 bf 39 84 8d bf
       -0.3718218 -0.8080555 -0.8388171 -1.1055976
000120 7c ae 0b bf b9 cc 85 be b8 64 d2 3e 1a 30 2e 3e
       -0.5456312 -0.26132753 0.41092467 0.17010537
000130 2e af 09 bf 34 7f 84 be 2d b3 87 3e 0f c4 4a bf
       -0.5378293 -0.25878298 0.26503888 -0.7920541
000140 82 63 03 3e fd a3 ba 3e 70 6b 2c bf a9 38 85 3c
       0.12830928 0.36453238 -0.67351437 0.01626237
000150 8e f7 88 3d a7 5b 40 be 8f 64 35 bf 1a 5e 21 bf
       0.06687842 -0.18784963 -0.70856565 -0.6303421
000160 f5 10 d6 be 61 72 5d be 61 95 65 3e fd 0e f4 bd
       -0.41809812 -0.21625663 0.22420265 -0.11916921
000170 69 cc a3 be cf 9c 84 3e 66 2f bb 3d a0 63 67 3e
       -0.3199189 0.25900885 0.091399 0.22596598
000180 7d b6 51 3e 92 dd 79 3e 19 7b 33 bf 41 d3 9b 3d
       0.2047977 0.24400929 -0.7010971 0.07608653
000190 96 2b b5 3e fa 1c cb bd 83 57 d5 be 3e d1 1a 3f
       0.35384816 -0.09917636 -0.4166833 0.6047553
0001a0 1a 5b 64 be 5f 23 66 be eb 32 23 bf 8e 4f 30 be
       -0.22300377 -0.2247443 -0.6374957 -0.17217848
0001b0 6c d9 88 3e 5a 46 51 3e 6a 9e 86 3c 65 48 09 bf
       0.2672838 0.20436993 0.01643296 -0.5362609
0001c0 d3 97 11 bf c8 08 06 3e b8 ea 0e 3f b5 a8 63 3c
       -0.5687229 0.13089287 0.558269 0.013895203
0001d0 86 4b b1 be e4 a0 e3 bd c9 71 05 bf 60 f4 b3 be
       -0.34627932 -0.11114672 -0.5212675 -0.3514738
0001e0 9b fc 2b 3e f3 86 f9 3e 00 a3 f6 3e e8 31 26 bf
       0.1679558 0.4873577 0.48171234 -0.649199
0001f0 8d 9d ab 3a d0 57 ff be 80 ed 80 3e 00 55 df 3e
       0.0013093218 -0.49871683 0.25181198 0.43619537

network.3.weight f4 [64, 128]
000000 73 68 6d 3d 06 be 8e 3d 8b 8e 1a be c2 4a f9 bd
       0.05796094 0.06969838 -0.15093438 -0.12172462
000010 88 48 f9 3d 14 87 2e bc 5c dd 80 bc b6 c9 7b 3f
       0.12172037 -0.010652322 -0.015730552 0.9835466
000020 d2 dc 49 3d c4 8f ea 3c bd 75 fb bd 36 39 98 bd
       0.049282856 0.028633006 -0.12278316 -0.07432787
000030 5c c8 e0 bd 20 a2 1c 3c 17 4f 01 3d c2 1d 4b 3f
       -0.109757155 0.009560138 0.031569567 0.7934228
000040 3d c1 33 3d 23 b2 09 3d ff eb de 3c 87 78 b2 bd
       0.04388546 0.03361715 0.027212141 -0.08714395
000050 fe 47 ac 3f 29 1a 90 bd 49 41 75 bd 0b 4b ad 3f
       1.345947 -0.0703624 -0.059876714 1.3538526
000060 da b9 ac bd 73 78 16 bf f0 e1 bb bd 66 9f 5e bd
       -0.08433886 -0.5877754 -0.091739535 -0.054351233
000070 33 83 a7 3f 37 75 c3 bc 91 0c 81 3d fa 52 83 bc
       1.3086914 -0.023859603 0.06301225 -0.016030777
000080 e1 7c 16 3c 25 4c 10 bd 89 1b 51 be de 01 81 bd
       0.009185047 -0.035228867 -0.2042066 -0.06299184
000090 2a 94 20 3f 65 6b 04 bd 5e 10 22 be 5d fa 67 3e
       0.6272608 -0.032328982 -0.15826556 0.226541
0000a0 ab 91 91 3d 81 38 c3 3d c7 c4 39 be be 46 17 be
       0.07107862 0.09532262 -0.18141471 -0.1477308
0000b0 83 83 f8 bd 87 74 46 bd 1c 81 90 3d 34 06 42 bf
       -0.12134459 -0.048450973 0.07055876 -0.75790715
0000c0 d7 0e 78 3f 87 5c 32 3d c5 47 2b bf 65 79 8d 3d
       0.96897644 0.043545272 -0.66906387 0.0690792
0000d0 64 74 0c bd a0 fe 60 bd 7a e0 7a bc b2 21 90 bc
       -0.034290686 -0.05493033 -0.015312308 -0.017594192
0000e0 3e be 9d 3f df 73 e4 3c ec 65 f3 3c 51 3f ec 3d
       1.2323682 0.027887283 0.029711686 0.11535514
0000f0 47 6d d3 3d 7a e8 34 3d b1 9f 95 bd 00 ba 9e bc
       0.103235774 0.04416702 -0.07305849 -0.019375801
000100 99 ae 52 3f 8f de 7b bd 6a 08 99 bd ed cc e9 bc
       0.82297665 -0.061491545 -0.07472308 -0.028540099
000110 31 67 2f bf 52 14 ab 3f 4a 1b a3 3f 88 7b 99 3f
       -0.6851683 1.3365576 1.2742703 1.1990824
000120 7c 11 c5 bc ee 70 8a 3d 03 b0 d1 3b f8 96 a4 3d
       -0.024056189 0.06759821 0.006399156 0.080366075
000130 a0 f8 a3 bb 91 d7 8a bd fa 14 ef 3d 3f a0 98 3f
       -0.0050040036 -0.06779397 0.11673923 1.1923903
000140 86 e5 19 3e fc 8f f6 bb 74 7d 94 3f d0 bf ba bd
       0.15028962 -0.0075244885 1.1600785 -0.091186166
000150 4f f7 6c 3e 4c 92 a7 be ed 8f 6f 3f 52 85 54 3d
       0.23141216 -0.32728803 0.9357899 0.051884957
000160 af a4 1e bf ef a8 36 bd 7f e5 ef 3b aa bc df 3c
       -0.6197004 -0.0445947 0.0073210592 0.027311642
000170 cb b0 d5 bd b2 13 57 3c d1 0b 9f bc dd 80 81 3c
       -0.10434111 0.013127254 -0.019414814 0.015808517
000180 00 13 01 3e 5f 18 51 bc 71 15 55 bd 52 11 cd 3d
       0.12604904 -0.012762158 -0.0520224 0.10013069
000190 2c 04 d9 3c 10 47 df bb 9e b6 3c 3d 34 f6 fd 3c
       0.026491247 -0.006813891 0.046072595 0.031001188
0001a0 9b 5a c7 be 27 d5 bd 3c 54 93 d8 3c 6b c3 9a bc
       -0.38936314 0.023172928 0.026437439 -0.01889201
0001b0 bd 11 1c 3d 62 67 f2 3d 8e 16 6d bd 80 3a 9f 3a
       0.038102854 0.11836125 -0.057882838 0.0012148172
0001c0 8f e7 99 be 71 fd 1e 3e 4c 3d 3e 3d 09 74 a1 bd
       -0.30059478 0.15526368 0.046445176 -0.0788346
0001d0 3e 50 5d 3c 02 99 29 bd 08 3e 76 3c 85 ee 17 bf
       0.013507901 -0.041405685 0.015029438 -0.59348327
0001e0 75 2d 1a 3e 8e ac f4 3d a8 9f a9 3d d1 4e 42 bd
       0.15056403 0.11946975 0.08282405 -0.047438446
0001f0 d5 74 2c bd 04 77 85 bc 2d 6f 18 3d f7 01 64 bc
       -0.042103607 -0.016292103 0.0372154 -0.013916484
000200 af b9 fc bd ff fd c8 bd 01 4c dc bb 30 cd d8 bd
       -0.12340104 -0.09814071 -0.0067229276 -0.105860114
000210 4d 98 33 be 16 3d d3 bd b0 53 b8 be b8 44 fb bc
       -0.17538567 -0.103143856 -0.36001348 -0.030672416
000220 51 1d dc be c5 41 cf 3c 9e 43 43 3e 8b 79 d8 3d
       -0.42991117 0.025299916 0.19068763 0.105700575
000230 4a 8a ed 3d ae 29 9d bd db cc c5 3c 97 e4 f6 3b
       0.11598642 -0.076739654 0.024145534 0.0075345743
000240 f1 15 d9 be cf b8 0f bd 9b 5e 23 bd fc 12 81 ba
       -0.42399552 -0.035088357 -0.039885145 -0.0009847577
000250 42 6c c5 bd 65 e4 c5 bc 15 f0 2f be fa a2 e5 bd
       -0.09639789 -0.024156759 -0.17181428 -0.11212726
000260 a4 8d ac bd 05 53 7d 3f e6 9f 58 bd 7a 4b 85 be
       -0.08425453 0.989548 -0.052886866 -0.26034147
000270 70 1f 9d bd 83 90 87 3c 24 b4 a0 bc 43 e3 a0 3c
       -0.07672012 0.0165484 -0.019617148 0.019639617
000280 13 d8 79 3b bb 3d 0e 3d 92 b8 50 3e 36 f6 fa 3c
       0.0038123175 0.03472684 0.20382908 0.03063498
000290 e8 f7 9d 3d a8 0f fa bc d2 6a fd 3c 36 15 5e be
       0.077133 -0.030525044 0.030934725 -0.21687779
0002a0 cc 93 c5 bc a5 e6 98 3b 8e aa 49 3b 94 2b 41 bd
       -0.024118327 0.004666167 0.0030771825 -0.0471607
0002b0 15 9c 4b 3d b5 25 75 3d f9 aa 42 be be 34 aa 3f
       0.0497094 0.059850413 -0.19010533 1.3297346
0002c0 00 8f 3a bd 5f a5 a4 3d 2b fa ef 3e d1 b5 3e 3d
       -0.04554653 0.080393545 0.4687055 0.046560112
0002d0 e0 fa 7d bd ab 3c 5c bd 24 48 a8 bd b5 bc e6 be
       -0.06200683 -0.053768795 -0.08216885 -0.45065847
0002e0 cf 2d 31 be db d7 51 bc a5 1c a0 bb 7b 56 0e bb
       -0.17302631 -0.012807812 -0.004886227 -0.0021719027
0002f0 c2 37 70 ba 12 5e 7f 3d fa 81 2a 3e 23 4e 77 3d
       -0.0009163582 0.06234557 0.16651145 0.06037725
000300 c0 81 7a bc 59 a4 77 be e4 89 5c bd da e3 6f 3d
       -0.015289724 -0.24183787 -0.05384244 0.058566906
000310 76 00 aa 3f 99 3c 16 be f7 36 81 bd 8c 7f a6 3d
       1.3281391 -0.14671554 -0.06309312 0.081297964
000320 c8 56 78 3c 70 18 14 be 4e 85 b5 be 77 5d 7e be
       0.015157409 -0.14462447 -0.35453266 -0.24840342
000330 80 40 9f 3b ce 79 21 3d 2e ac 94 be 1f 80 ae bd
       0.004859984 0.039422803 -0.29037613 -0.08520531
000340 14 9d ce be b6 5c 62 3d 2f 2d dd bd 01 75 67 bc
       -0.40354216 0.055264197 -0.10799634 -0.014127017
000350 cf 76 47 3d f3 e5 80 3e 2b be a4 3d c0 b7 27 3c
       0.04869729 0.25175437 0.08044084 0.0102366805
000360 89 9d 25 3f 14 d8 94 3d 2a cc f8 bd 9e f7 8d 3b
       0.64693505 0.07267776 -0.12148316 0.004332497
000370 57 24 c0 be 12 86 e1 be c0 f3 bc bd a6 3b fc 3a
       -0.37527725 -0.440476 -0.09226179 0.0019243851
000380 4e 7f 90 bd e3 0b fd 3d 02 5a 66 3d 31 9c 8d be
       -0.070555314 0.12355783 0.056238182 -0.27658227
000390 08 98 d4 3c 92 b7 76 be 34 0f 00 3d c7 e7 9a b8
       0.0259514 -0.24093464 0.0312645 -7.386464e-05
0003a0 6d 75 77 3e af 63 be be 46 c2 f1 bc 6d ac 93 3d
       0.24165888 -0.37185428 -0.029511582 0.07210622
0003b0 2a 43 e5 3d 5e 10 a6 be e8 0a 76 bc ea 86 4a bd
       0.11194451 -0.32434362 -0.015017249 -0.04944507
0003c0 4d 84 28 3e be cc b7 be 7a 66 fd 3b 9a 29 4d 3d
       0.16456719 -0.35898393 0.0077331634 0.050088502
0003d0 6f 52 a6 be 6c 77 8c be 07 62 6f bd 40 3d b3 3f
       -0.32484767 -0.27434862 -0.058443096 1.4003067
0003e0 bf 01 8a be 9f 89 c3 3d 48 82 56 3d 52 a4 14 bd
       -0.26954457 0.095477335 0.05237034 -0.03628952
0003f0 c0 86 c3 3c 22 b0 3a bd aa 7b 18 3c af e3 e6 3c
       0.023867965 -0.04557813 0.009306828 0.02818474

network.3.bias f4 [64]
000000 85 8c 22 3d 4a 72 03 be 75 2c 6f bd 0a 80 01 3e
       0.03968479 -0.12836567 -0.058392007 0.126465
000010 d6 39 8e 3c 91 ca f4 3c a2 d4 8b 3c 9f f4 86 3d
       0.017361563 0.029881747 0.017069165 0.065896265
000020 a4 75 82 bd de af 07 3e 92 21 78 bc a6 82 a3 3d
       -0.063700944 0.13250682 -0.015144723 0.079839036
000030 1e ef 42 3d 04 5c 08 bb 68 86 0c bd f4 85 1e 3e
       0.04759132 -0.0020806799 -0.034307867 0.15480787
000040 94 63 81 bd ad 48 96 3d 9a 59 24 3e 04 af 6c 3d
       -0.06317821 0.073380806 0.16049805 0.057784095
000050 f6 09 d0 b9 d1 13 10 bd 25 4c 04 bd d5 fc bb 3d
       -0.00039680273 -0.03517515 -0.03229918 0.09179083
000060 42 94 cb 3d 31 7a 9b bc da cb ae b9 e1 f3 ac 3d
       0.09940387 -0.018979164 -0.00033339747 0.08444954
000070 1d b8 a8 3d 28 12 5e 3c e8 60 98 bb 7f 76 7e 3d
       0.08238242 0.0135541335 -0.004650224 0.062124725
000080 0d 58 ac bc c5 3d 51 3c b8 bc 87 bd 40 27 da bb
       -0.02103808 0.012771075 -0.06627792 -0.006657511
000090 78 08 31 be dd 82 a0 3d 2c 9f af bc 10 4b b9 3c
       -0.17288387 0.0783746 -0.021438204 0.0226188
0000a0 a0 a9 d2 bd 9f 3a 8b 3c a9 fe f7 3d 0d a5 a1 3d
       -0.1028626 0.016995726 0.121091194 0.07892809
0000b0 70 39 12 3e 89 d9 00 3e 73 35 74 bd 05 b0 1b 3d
       0.14279723 0.12582983 -0.059621286 0.038009662
0000c0 8b 3b e8 3d e9 48 91 3d 30 af d5 3d e2 79 61 3d
       0.11339482 0.07093985 0.10433805 0.055047877
0000d0 5d aa 66 3d 03 c2 7b bc 46 d9 38 3d a2 f8 e5 3d
       0.056314815 -0.01536608 0.045129083 0.112290636
0000e0 1c d7 2a 3e d3 96 28 3d ca 70 05 3d f4 12 46 3d
       0.1668362 0.041159462 0.032578267 0.04835792
0000f0 e7 60 15 3e 3f 2c 94 3c 16 f6 e2 bd d9 78 44 3d
       0.14587747 0.018087504 -0.110820934 0.04796681

network.6.weight f4 [32, 64]
000000 b2 45 c3 3d 2d ed 31 3e 6f 75 6b 3d 2b 65 94 3e
       0.09534778 0.17375632 0.05748504 0.28983435
000010 ca 70 c5 be 4c ec b4 be 51 42 2a 3e ed 90 9c bd
       -0.38562614 -0.3533653 0.1662686 -0.0764483
000020 e2 79 54 3d 04 49 4d 3d fa 0f 9e be 61 e4 87 bc
       0.05187405 0.05011846 -0.30871564 -0.016588392
000030 2e bb 10 3e 0a c5 c0 3d 10 97 aa 3d c3 72 87 3e
       0.14133903 0.09412582 0.08329594 0.26454744
000040 a1 1a 07 bd 43 4f 86 be 93 02 00 3e 38 37 ae bc
       -0.03298438 -0.26232347 0.12500982 -0.021266565
000050 60 af 62 be 6c 3b ab bd 38 9f 03 3c da a1 40 3e
       -0.22137213 -0.08360943 0.008033566 0.18811741
000060 08 08 d4 be 8c ea ec bc 78 71 94 3d f9 0f c2 bc
       -0.41412377 -0.028920434 0.07248205 -0.023689257
000070 7f 24 93 3d c5 b9 1a 3c a2 57 65 3e ae 8f 48 bd
       0.071846955 0.009443705 0.2239671 -0.04896515
000080 f6 dc 76 bc 5d 91 b7 3d 37 54 ac bd 27 e9 9d be
       -0.01506733 0.08963273 -0.084145 -0.30841944
000090 a6 b0 21 bc 1c 84 0b 3e 83 0d d0 bc c3 90 94 be
       -0.009868776 0.13624614 -0.025397068 -0.29016694
0000a0 27 77 70 bc 96 b9 51 3e 80 18 98 3d a7 96 bd 3d
       -0.014676846 0.20480952 0.07426548 0.0925725
0000b0 3d 91 80 bd a8 ce ab 3e 17 7b 25 be 15 11 b8 be
       -0.06277702 0.33556104 -0.16160236 -0.35950533
0000c0 0d 57 9e 3d b5 54 09 3e 48 2d 48 3e 09 94 ed 3d
       0.07731447 0.1341122 0.19548523 0.11600501
0000d0 22 44 12 3e 1e 9d a2 3b 5f 54 83 3e ee 3f 80 3e
       0.14283803 0.0049625775 0.25650308 0.25048774
0000e0 35 95 f3 3d 01 bb f3 3d 53 68 dd 3d d6 79 e1 be
       0.11893693 0.119009025 0.10810914 -0.44038266
0000f0 59 cd 0c 3e c7 35 d1 be 1e e3 f1 be be 9c 94 3e
       0.13750209 -0.4086134 -0.4724359 0.29025835
000100 8f 8a 8c bd f8 84 ac 3c 4a c8 10 bd 78 08 ba 3e
       -0.068623655 0.021059498 -0.03534726 0.36334586
000110 95 29 ce be 3f 8e e5 be af 84 9a 3e 93 4d e6 bc
       -0.402661 -0.44835088 0.30179355 -0.028113162
000120 a8 5b bd 3c 93 1a 9f 3e ca e1 b7 be 6c 3d 81 bc
       0.023114994 0.31074962 -0.3591445 -0.015776359
000130 f9 c8 55 3d 29 f0 00 3e ba bc e5 bd 4d 28 16 3e
       0.052193616 0.12591614 -0.11217637 0.14663811
000140 28 be 2f bd 40 f4 18 bf bc 39 14 3e 3e 6b 04 bb
       -0.042905957 -0.59747696 0.14475149 -0.0020205523
000150 5b 56 c4 be 7b 29 e9 bd 60 52 06 be f4 22 06 3e
       -0.38347134 -0.11384865 -0.13117361 0.13099271
000160 5c a6 00 bf 39 ba 22 bd 5e 7c 83 3c 98 5a 9a 3c
       -0.50253844 -0.039728377 0.016050514 0.018842027
000170 d5 26 1c 3e 53 ef 43 be ae e1 ae bd 94 f4 04 be
       0.15249188 -0.19134264 -0.08539139 -0.12983924
000180 e3 9a 16 3d a2 4b 7c bc c8 e5 e1 be bb 34 0d bf
       0.036768805 -0.015398892 -0.44120622 -0.55158585
000190 f3 d4 64 3d 4a 7c 46 3d 40 97 96 3d 3c 03 df be
       0.055867147 0.048458375 0.073530674 -0.43557155
0001a0 f5 54 75 bd bc 3f be 3c 76 c3 70 3e 61 1c 3d 3e
       -0.059895474 0.02322375 0.23512062 0.18467857
0001b0 be d4 e0 3d 10 3e 6f 3d f9 70 47 be 44 a0 ed be
       0.10978077 0.058408797 -0.1947669 -0.46411335
0001c0 84 3f 82 3e c1 bb 1a 3c 87 ae 85 3e b8 38 80 3c
       0.25439084 0.009444178 0.26109716 0.015652046
0001d0 73 c0 85 bc e4 4a f3 bd bd 29 11 bc 0a 1d cc 3d
       -0.016327119 -0.11879519 -0.008860049 0.09966476
0001e0 9c a8 92 3e d7 7d b3 3c 6f 64 48 3c 68 7e c9 be
       0.28644264 0.021910591 0.0122309765 -0.39354253
0001f0 12 8b 81 3e 4d da e3 be 5d 0e 9d be 05 14 b4 3d
       0.25301415 -0.44502488 -0.3067502 0.08792881
000200 f8 f9 ab 3b 22 54 ae 3a 8d f1 ed 3d 49 3e 95 3e
       0.0052483045 0.001330022 0.11618338 0.29149082
000210 94 c7 cf be c0 99 0a bf cb 1f 6b 3e 98 06 3e 3c
       -0.40581954 -0.54140854 0.22961347 0.011598252
000220 8b 1f be bc 5b 4f 4d 3e de 69 84 be c5 e8 49 bc
       -0.0232084 0.20049803 -0.2586202 -0.012323563
000230 9c 18 51 3d a4 31 1c 3e cb 6d ba ba c5 28 0a 3e
       0.05104886 0.15253311 -0.0014223395 0.13492115
000240 17 9e e3 bc c6 00 27 bf 4a d3 2a 3e e4 37 d0 bc
       -0.027785344 -0.65235555 0.16682163 -0.025417276
000250 13 2d 1a bf e1 ff 58 3d 6f 1a 87 be 43 5c 14 3e
       -0.6022503 0.0529784 -0.26387355 0.1448832
000260 af 34 e4 be fc 4f fc 3c d2 af 16 3c 90 02 86 3d
       -0.44571444 0.030799858 0.009197192 0.065434575
000270 26 90 09 3e cb 05 fc bc 66 91 14 3c b6 de 20 bc
       0.13433895 -0.030764481 0.009067869 -0.009818723
000280 f9 07 ff bc fc 42 8e 3c 08 30 ca be b7 21 1f bf
       -0.031131731 0.017365925 -0.3948977 -0.6216082
000290 af 37 8e 3d 65 12 8b bc 44 d8 4c bc 2d 66 0b bf
       0.069442146 -0.016976545 -0.012502734 -0.5445278
0002a0 8a 1e 01 be d2 00 75 3d 05 88 da 3d b9 a4 34 3e
       -0.12609306 0.059815235 0.10670475 0.17640962
0002b0 33 7c 5e ba b8 01 86 3b c7 82 01 be 45 02 ec be
       -0.0008487135 0.0040895604 -0.12647544 -0.46095482
0002c0 40 61 8b 3e a9 69 e1 bc 05 47 56 3e 6b c7 4b ba
       0.27222633 -0.027516203 0.2092553 -0.0007773551
0002d0 97 e8 c7 3c 27 78 c8 bd 5a b5 ac bc a4 59 cb 3d
       0.0244029 -0.09788542 -0.021082569 0.09929207
0002e0 63 6a 87 3e 6d 1d 9f bc 21 53 b7 3b b9 db fa be
       0.26448354 -0.019423211 0.0055946265 -0.4899576
0002f0 d7 11 0f 3e fe 64 09 bf ef f6 e5 be ee ef 3a 3e
       0.13971649 -0.53669727 -0.44914958 0.18255588
000300 02 07 44 3d e4 2b fb bd 39 a3 d5 bd 5b e1 3c be
       0.047858246 -0.12264231 -0.10431523 -0.18445341
000310 17 15 98 3d ab 5a 26 3d 4f a2 61 be 27 4a a2 bd
       0.074258976 0.04061381 -0.22034572 -0.079243
000320 7c fb 57 be 5d 38 8c be 19 89 40 3d 7b 7e f0 3d
       -0.21092027 -0.27386752 0.047005747 0.11742874
000330 7e 02 73 3b da f5 18 be 65 d9 db bd ec bc cf 3e
       0.0037080343 -0.14937535 -0.10734824 0.40573823
000340 fb c7 98 bd 16 bc 9a bd 7f 8d 53 be dc 2d b0 bc
       -0.07460018 -0.07555406 -0.20659445 -0.021506242
000350 7c 9a 92 bb 28 b1 6f be 72 fa d3 3d ab 6f 90 be
       -0.0044739824 -0.23407423 0.10350503 -0.28210196
000360 f8 87 f0 3d 5b de c3 be 7a ed 15 ba 62 c2 5d be
       0.11744684 -0.3825558 -0.00057192857 -0.21656182
000370 e3 dd 8b be 9a 0f 1b 3d ed 4c e1 bd c0 64 5c 3e
       -0.27317724 0.037856676 -0.110010006 0.21522808
000380 60 73 20 be 9e a4 85 3e 06 dc 65 bd b9 9a 56 bd
       -0.15669012 0.26102155 -0.056118034 -0.05239365
000390 cd c2 b7 bd 93 2a 3b 3e 8e c8 f0 bd c6 13 cc 3d
       -0.08972702 0.1827796 -0.11757003 0.09964709
0003a0 44 87 3c 3d 69 13 7d 3e 0d d6 83 be 06 1f c1 be
       0.046027437 0.24714436 -0.25749245 -0.37718982
0003b0 1a df c3 bd 07 e8 81 be 87 83 1e 3f ab d2 87 3d
       -0.095640376 -0.25372335 0.61919445 0.066319786
0003c0 6c eb 77 bd a6 53 72 bd b7 c4 e5 bd 75 08 49 bd
       -0.06052725 -0.059161805 -0.11219161 -0.04908033
0003d0 e6 69 c1 bc 74 73 88 be f3 72 0e be e7 0b a4 be
       -0.023610067 -0.26650584 -0.13911037 -0.3204033
0003e0 54 7c 46 be 9f 71 cd 3c 78 8c 5f 3c 0c 4c 02 3e
       -0.19383365 0.025078593 0.01364433 0.12724322
0003f0 62 85 8a be 18 13 88 3c cc 33 cb 3d be 2c 89 be
       -0.27054888 0.016610667 0.09921989 -0.26791948

network.6.bias f4 [32]
000000 db 72 b0 3e b8 85 35 3e cc f2 91 3e ed c3 26 bd
       0.34462628 0.17726791 0.28505552 -0.040714193
000010 80 c4 c1 3d 4e d6 22 be d3 7c 91 3e 4a b3 3f 3e
       0.094613075 -0.15902063 0.28415546 0.18720737
000020 62 a3 27 3d a8 84 a5 bd 59 a1 f5 bc 54 5a 2d 3e
       0.0409273 -0.08081943 -0.029984163 0.16928989
000030 0b 4e 12 3d 2e 47 ae bd 61 c0 50 3e 9f 95 15 3e
       0.03571896 -0.0850967 0.20385887 0.14607857
000040 84 29 fc 3d d4 4d 4e 3e 87 e0 24 3e 25 22 3d 3e
       0.12312606 0.20146877 0.16101275 0.18470056
000050 55 a1 08 be cd c2 24 3e 51 9e 9a 3d 90 32 c0 3b
       -0.13342793 0.16089936 0.07549728 0.0058654025
000060 41 5f e9 bd 0f c3 6a be f8 b3 a8 3e aa a2 20 3e
       -0.11395121 -0.22925971 0.32949805 0.15687051
000070 5c d5 1a 3e c3 8a 15 3e dc 9b 63 bd 7b 16 90 bd
       0.15120453 0.14603715 -0.05556856 -0.07035538

network.9.weight f4 [16, 32]
000000 c6 a3 9e be 82 8b 33 be eb 20 2e be 7b bf 5f 3e
       -0.30984324 -0.17533687 -0.17004745 0.21850388
000010 23 95 c5 be 51 98 46 3e e2 ef df 3d 1e 9b c9 3e
       -0.38590345 0.19394042 0.10934426 0.39376158
000020 e0 2d 5a 3e fa 03 7e bd c9 b2 ed 3d ad 61 bf be
       0.21306562 -0.06201551 0.11606366 -0.37379208
000030 65 f0 9b 3d 8d 3b 1b 3d 8d 4f 01 3f 07 15 e1 be
       0.07614211 0.03789859 0.5051201 -0.43961355
000040 94 53 c2 3e 96 3b bd be 3a 02 9c 3e 89 49 45 bd
       0.3795439 -0.36959523 0.3047045 -0.04816583
000050 6e fa 84 bd cd da 20 bd 3b 66 f3 3d fa a8 a1 3d
       -0.06493078 -0.039271165 0.11884733 0.07893558
000060 86 ee 89 3e 1d 94 cc bd d8 3d 73 3e 39 1e eb bd
       0.2693979 -0.09989188 0.2375406 -0.11480374
000070 07 30 ce 3d c0 b8 99 3e 91 aa 5c 3d 73 27 8b 3d
       0.10067754 0.30023766 0.053873602 0.06794634
000080 bc 5a 48 3e b7 6a 87 3e 14 82 2e 3e 5f 17 2d be
       0.19565862 0.26448604 0.17041808 -0.16903447
000090 eb 28 fd bd 03 5d 87 3e 0c cc 19 be c4 f0 19 3c
       -0.1236132 0.2643815 -0.15019244 0.009395782
0000a0 d3 87 f2 be 4a fc 52 be f8 03 28 be 1c 20 de 3d
       -0.4736925 -0.20604053 -0.16407764 0.10845968
0000b0 08 7c 50 3e fa ff 65 3e 4f 88 af 3d 87 4a a3 bd
       0.20359814 0.22460929 0.08570921 -0.07973199
0000c0 7a f6 57 3e f5 18 2d 3e 61 7c 41 3e ea 3a ca 3c
       0.21090117 0.16904052 0.18895103 0.024686296
0000d0 43 dc f4 be 43 35 17 3d 7a b6 d4 bd 62 c1 1b 3e
       -0.47824296 0.03691603 -0.10386367 0.15210488
0000e0 2c bd 31 bf a2 13 b9 bd fd a9 47 bf 67 60 d6 3d
       -0.6942928 -0.09036948 -0.77993757 0.10467606
0000f0 19 5f 2c 3e 86 fa ef be 27 5b 39 3e 0b d4 13 3e
       0.16833152 -0.46870822 0.18101178 0.14436357
000100 99 60 4c bd c4 2a 5c be 8f f9 98 be c3 04 e8 bd
       -0.04989681 -0.21500689 -0.29877898 -0.11329033
000110 ea c8 16 3e 5e 66 8c 3e 22 ae aa bd 2e 69 34 3d
       0.1472508 0.2742185 -0.083339944 0.04404562
000120 ae e4 a3 3d 97 7b 17 3c 8f c0 c9 be 6f b2 7d 3d
       0.080026016 0.009245775 -0.39404723 0.061937746
000130 f1 d6 96 3e af 15 31 3e 00 67 04 3e fb d7 04 3e
       0.29460862 0.17293428 0.12929916 0.12973015
000140 a8 c4 61 3d 5f 0a 43 3d c2 20 4b 3d d3 46 63 3d
       0.055119187 0.047617313 0.049591787 0.055487465
000150 13 a3 2b bc 92 7d 33 3e 82 6d f1 3c 86 3d ea 3d
       -0.010475892 0.1752837 0.029471163 0.11437516
000160 a5 01 ef 3b 68 9c 6a 3d bc 12 84 bc 92 7f 92 3d
       0.007293897 0.057278067 -0.016122214 0.07153238
000170 91 0d 24 3d 3a 30 f6 3d 35 c9 27 3e 39 76 10 3e
       0.040052 0.12020917 0.16385348 0.14107598
000180 71 f6 26 3d a8 51 2e be 1e c1 cc bd 81 8c 1a 3d
       0.04076237 -0.17023337 -0.09997772 0.03773165
000190 72 0a de bd d7 14 ba bd 12 9f f3 be 41 9c c5 3d
       -0.10841836 -0.09086006 -0.475823 0.09648944
0001a0 10 fe 21 3c 77 77 93 3e 14 d0 9d bd d4 63 13 bd
       0.009887233 0.28802082 -0.077057034 -0.035983875
0001b0 b8 0c 1e be 34 66 3e bd a3 15 60 3e 8d 84 16 3e
       -0.1543454 -0.046484187 0.21883254 0.14699002
0001c0 72 ef 80 3d be 6f 20 3d c5 fa 14 3e 78 ef 68 be
       0.062956706 0.039169066 0.14548786 -0.227476
0001d0 0f 28 5c 3e 89 e4 d6 bd a9 c6 8a bd c7 99 52 be
       0.21499656 -0.10492808 -0.06776173 -0.20566474
0001e0 78 2e 79 bc 4f 5e 73 3d 84 88 62 3b 4c 9e 22 be
       -0.015208833 0.05941611 0.0034566233 -0.15880698
0001f0 0c 60 a8 be e7 a6 4e 3d 60 80 62 be 0a 31 1f be
       -0.32885778 0.05045214 -0.22119284 -0.1554605
000200 5c 9f 30 3e 35 57 b5 3e f2 48 da 3e cc 60 6f be
       0.17248291 0.35418096 0.42633778 -0.23376769
000210 df 48 80 3d b2 33 35 be 76 be c3 3e a2 0d 49 bd
       0.06263899 -0.17695501 0.38231248 -0.049085267
000220 3c c1 1a 3c 44 cf 27 3e a3 5b d4 bc c0 61 19 3e
       0.009445485 0.1638766 -0.025922602 0.14978695
000230 ac 5c 4d 3d df 0e ae bd 5c ae 4f be 07 50 4a 3e
       0.050137207 -0.0849893 -0.20281357 0.1975709
000240 3f a9 35 be 7b bb 79 3e 8f eb 02 be f8 d7 a7 3e
       -0.17740344 0.24387924 -0.12785171 0.3278196
000250 e0 2d b4 bb bf d3 84 3e b5 f9 18 3e e2 e3 e6 bd
       -0.005498633 0.259428 0.14939006 -0.11273934
000260 aa 5c 29 bf fe a9 f2 bb 0a cc 0a bf 15 c2 81 3e
       -0.6615702 -0.0074055186 -0.5421759 0.25343385
000270 4a 46 a2 3e 29 bb a7 3d 24 ca 84 be 4f 48 e0 3d
       0.3169425 0.08189995 -0.2593547 0.10951292
000280 ae 6c 10 3e 36 c8 0e bd d6 82 06 3e 74 17 0e 3d
       0.14103958 -0.034858905 0.13135847 0.034690335
000290 93 24 dc 3d 57 97 93 be 5c 0e 96 bd 98 c9 0e bd
       0.107491635 -0.288264 -0.073269576 -0.034860224
0002a0 de d3 17 3e 7b 69 80 3e e8 1e bc 3e 5a 1a 19 3e
       0.14826915 0.25080475 0.3674233 0.14951459
0002b0 94 b9 8b be 92 a9 24 be 75 71 b6 3d 27 98 37 3d
       -0.27290022 -0.16080311 0.08908359 0.04482284
0002c0 a3 3e 10 bc 6b 2f 2e 3e 31 51 e4 bd be ec f4 3d
       -0.008803996 0.17010276 -0.111482985 0.119592175
0002d0 f8 39 e3 3d 04 67 e5 bd eb 5f 0f 3e 92 42 55 be
       0.11095041 -0.11201289 0.14001434 -0.20826176
0002e0 37 94 ce 3d 5f d3 54 3e 57 36 59 bc e0 e2 d0 3d
       0.100868635 0.20783757 -0.013257585 0.10199523
0002f0 1b 07 8d bd 2f 98 8c 3e fc 3a 18 be dd b2 d6 bd
       -0.06886121 0.27459857 -0.14866251 -0.10483334
000300 44 04 51 3e 1c ef e8 3d a7 62 be bc 97 be fa 3d
       0.20411783 0.113737315 -0.0232404 0.122433834
000310 5e 5c 0a 3f 99 c2 05 bf 70 c3 9c 3d d3 f1 70 be
       0.5404719 -0.5225006 0.07654464 -0.23529749
000320 b4 f3 db 3e b8 9d b3 3e fb f2 ba 3e bc c4 22 3e
       0.42959368 0.35081267 0.36513504 0.1589536
000330 41 11 f3 bd db 25 be be 95 a6 ac be f4 8d f2 3e
       -0.11868525 -0.37138256 -0.33720842 0.47373927
000340 57 a2 31 be c7 59 2d 3e 81 0c 8c bd e0 41 8e 3d
       -0.17347084 0.16928779 -0.068383224 0.069461584
000350 ff fe f4 3d c2 44 a1 3c af e7 de 3e f9 ca d1 be
       0.11962699 0.019686107 0.43536136 -0.40975168
000360 64 78 9c bd 74 cc dd 3d 5c e1 54 be ee 92 40 3e
       -0.0764015 0.10830012 -0.20789093 0.18806049
000370 3b 79 41 3e 69 c1 c2 3e 5f d0 aa be 37 ae 05 be
       0.18893902 0.38038185 -0.333621 -0.13054739
000380 79 2c ac bc 86 a7 f1 3d 95 bd b2 bb 6f 74 2f be
       -0.0210173 0.11799531 -0.005454729 -0.1713426
000390 20 2c ad bd 6a b2 9d 3c 49 e5 59 3e 1d d3 45 3e
       -0.08455682 0.019250114 0.21278872 0.19318815
0003a0 87 4a 9b bc 75 e3 93 be 18 93 29 be d8 9c 69 3d
       -0.018956436 -0.28884473 -0.16560018 0.057034343
0003b0 f4 d8 ad 3d 1b 20 2f 3e 60 c7 25 3e 5f 6d 3f be
       0.08488646 0.17102091 0.16189337 -0.18694066
0003c0 dd 8e 45 3e dd e4 fd bb 72 59 8a 3c ba 37 9f 3e
       0.1929278 -0.00774823 0.016888354 0.31097203
0003d0 e7 c2 39 bf 9d 73 a1 3e db d0 87 be 46 0b 89 3e
       -0.7256302 0.31533518 -0.26526532 0.26766413
0003e0 4d 9c d9 3d 06 49 46 bf 08 57 28 3e 14 42 12 3e
       0.10625515 -0.77455175 0.1643945 0.1428302
0003f0 a1 ef 38 3e 0b d3 d2 3d a1 9e 4c 3e d3 17 62 3e
       0.18060161 0.102941595 0.19982387 0.220794

network.9.bias f4 [16]
000000 26 85 f4 3e c1 15 26 be a7 ee 01 be 8a 06 ae 3d
       0.47757834 -0.16219236 -0.12688695 0.08497341
000010 3e 3d 9a 3e 77 81 a8 3e 67 9e df 3d c7 f5 c5 3d
       0.3012485 0.32911274 0.10918885 0.09666019
000020 78 5b 7e bd 9f b5 0f be 32 c7 2b 3e dd 87 a9 3d
       -0.06209895 -0.14034127 0.16775206 0.08277867
000030 71 64 63 be 8a 98 ef 3d ae 43 ce 3e 08 31 ff bc
       -0.22206284 0.116990164 0.4028601 -0.03115131

network.11.weight f4 [5, 16]
000000 9e 07 11 3e 88 02 b2 be be 7b 9d 3e 26 0d 80 be
       0.14163062 -0.34767556 0.3075847 -0.2501003
000010 5d bb 38 bf 6f d8 0f 3c d8 c8 a8 be d9 2c ae 3e
       -0.72160894 0.008779629 -0.32965732 0.3401859
000020 5d 7b b4 3e c9 18 3e bf 5b f7 ca bc fd 8d 10 be
       0.3525037 -0.7425657 -0.024776151 -0.14116664
000030 e9 be c3 bd 17 16 88 3e 06 73 75 bd a2 f8 ed be
       -0.095578976 0.26579353 -0.059924148 -0.46478754
000040 f8 08 80 3e 41 92 5d be f3 1e 93 bd 09 dd db 3d
       0.25006843 -0.21637823 -0.071836375 0.107355185
000050 8a 66 9c bf dd 57 38 3e 1a 0e 1a be 2d 95 3b ba
       -1.2218792 0.18002267 -0.15044442 -0.0007155713
000060 0f eb fd bb 76 b2 08 bf 76 9c 7b be 17 6f 34 3e
       -0.0077489684 -0.5339731 -0.24571404 0.17620502
000070 7f ce 03 be 63 d9 3e 3b c5 9c 29 3e 1c 76 fa be
       -0.12871741 0.0029121272 0.16563709 -0.48918235
000080 58 62 9e be 87 d9 b7 3e 4a 38 11 bc 11 0c 76 c0
       -0.30934405 0.35908148 -0.008863518 -3.8444865
000090 05 35 04 3e 05 12 0a be fd 49 72 be 03 89 f6 3d
       0.1291085 -0.13483436 -0.23661037 0.12037852
0000a0 a7 c2 ac bd 9e 24 ce 3d cc 3f e1 bd 28 a4 e9 bf
       -0.084355645 0.10065578 -0.109984964 -1.8253222
0000b0 6e 25 79 3e cf 46 f8 3d 1d 77 3b bf 2e cc 61 3e
       0.24330685 0.12122881 -0.7322863 0.22050545
0000c0 89 0c 0b bf 6d 03 ae 3d f6 39 02 bd 0b 7b ef bd
       -0.54316 0.08496747 -0.031793557 -0.116933905
0000d0 ab f1 82 3e a3 e9 3b 3e 31 90 85 3e e3 b2 6f 3d
       0.25575003 0.18350844 0.26086572 0.05852021
0000e0 78 00 8e bd c6 2a a9 3d 1b 65 dd bd e3 f1 f5 bd
       -0.06933683 0.082601115 -0.108103 -0.12009027
0000f0 d2 88 f0 bd 2f ff cc 3c e7 f9 2c bf d4 e8 84 bd
       -0.117448464 0.025024025 -0.6756882 -0.06489721
000100 66 69 03 bf b5 ed 18 bf 3c a6 0b 3e 62 cf 67 bb
       -0.513327 -0.5973771 0.13637632 -0.0035371413
000110 0f 23 5e 3c b6 3f 66 3e fb 28 96 3e fb 85 2a bf
       0.013558163 0.22485241 0.2932814 -0.6661069
000120 ae 94 eb bf 7b 67 50 3e 53 8b 41 bf 4b a0 ca bd
       -1.8404748 0.20351975 -0.75603217 -0.09893855
000130 e3 70 f1 be 48 de 26 bf a4 d0 07 bf a7 df 0f bf
       -0.47156438 -0.65182924 -0.53052735 -0.5620064

network.11.bias f4 [5]
000000 8b 13 d7 bd e5 2c a0 3e a5 65 cc be 3f 5b 9e bd
       -0.105017744 0.31284252 -0.399213 -0.077322476
000010 75 a3 9b be
       -0.30398145
