Models/morse_dense_model_v2.onnx (onnx, 12787 bytes, 8 tensors)

network.0.weight f4 [64, 2]
000000 93 23 4d 3f 22 35 19 3f 80 16 a9 3d 8c bd 54 3f
       0.80132407 0.598467 0.08256245 0.83101726
000010 eb 71 5e be b7 e2 94 bd 07 a2 a9 be 9c 9f fd 3e
       -0.21723144 -0.07269805 -0.3313143 0.49535835
000020 ca 64 71 3f 06 cd 04 bf 75 f7 83 3f 0b f0 1f 3e
       0.94294417 -0.5187534 1.0309893 0.15618913
000030 10 fc 49 3f 3b f4 91 be e9 1d 1f 3f be bb bc be
       0.7890024 -0.28506646 0.62155014 -0.36861986
000040 ec df 5b 3f dd 12 38 be 9c 03 a9 be ec 90 38 3e
       0.8588855 -0.17975946 -0.33010566 0.18024033
000050 ee bb 2e bf 31 94 a7 be 4a 95 de be c5 eb fc 3e
       -0.6825551 -0.3273025 -0.43473274 0.49398628
000060 cf d0 58 bf 81 5e 0c bf 0c 76 4c be 13 af d9 be
       -0.84693617 -0.548317 -0.19966906 -0.42516384
000070 f9 14 14 bd ea c3 5f bf b1 68 70 3f 2a c5 19 bf
       -0.036152814 -0.87408316 0.93909746 -0.60066473
000080 48 1d 56 3f 65 70 a8 3e 79 33 18 be b3 f9 08 3f
       0.8363843 0.3289825 -0.14863385 0.5350601
000090 9b 6a aa 3e 95 e7 2b 3f 9e d6 ea 3e 30 6f da be
       0.3328446 0.6715024 0.45866865 -0.42662954
0000a0 ae cb 24 3f 3a f2 81 be a0 af 11 3f 32 0a 4b 3f
       0.6437329 -0.25380117 0.5690861 0.7931243
0000b0 4f 2c 2b 3f 51 20 69 bd a7 42 1d 3f 2a d4 3e be
       0.66864485 -0.056915585 0.6142983 -0.18635622
0000c0 cf 25 1e 3f f9 62 0c bf b5 ff 72 bf 3f ae 1b bf
       0.6177644 -0.5483852 -0.9492143 -0.60812753
0000d0 5a fb 15 bf 52 82 20 3f 30 8c a0 3e 79 3d 93 3e
       -0.5858666 0.62698853 0.31356955 0.28757837
0000e0 e7 a4 2d 3f 1b 36 95 3d 02 81 54 3f 1a 89 52 bf
       0.67829746 0.072857104 0.8300935 -0.8224045
0000f0 cc 63 f8 bc 46 f9 38 bf 5c 09 06 3f 02 5c 79 be
       -0.030321024 -0.7225536 0.5235803 -0.24351504
000100 e4 66 39 3f 9f 3e 7d be 8a 27 55 3f 7a 38 43 bf
       0.72422624 -0.2473092 0.83263457 -0.7625805
000110 a1 78 42 bf a2 37 ec be ca 0e 65 3f 0d 06 6b bd
       -0.75965315 -0.46136194 0.8947569 -0.057378817
000120 96 b8 77 3f b9 2f 62 bf b4 ef 5c bf 38 82 66 bf
       0.9676603 -0.8835407 -0.8630326 -0.9004245
000130 34 10 51 bf 2b dc 53 3e 30 f2 11 3f 77 79 20 3f
       -0.8166535 0.20689456 0.57010174 0.6268534
000140 e8 b1 39 bf 55 57 11 bf 30 cf 3d 3f 25 fd 99 be
       -0.7253709 -0.56773883 0.7414427 -0.30075946
000150 38 1c 3c 3f 17 11 bd be db c4 31 3f a4 ce 1b bf
       0.7348056 -0.369271 0.69441 -0.60862184
000160 20 80 cd be c6 c3 3e 3e e9 b8 ec 3e 44 b3 cf be
       -0.40136814 0.18629369 0.46234825 -0.40566456
000170 e1 54 40 3f bd 8f 33 3f 15 ff 3c bf ae b1 32 bf
       0.75129515 0.701412 -0.73826724 -0.6980237
000180 e9 ce 79 3f 84 be 97 be e5 6a c7 be e8 dc 66 bf
       0.97581345 -0.2963754 -0.38948742 -0.90180826
000190 ca 9a ef be b2 22 f2 3d 80 25 bf bd 3f 66 03 bf
       -0.46797782 0.11823024 -0.093333244 -0.5132789
0001a0 34 ab e0 bd 15 e4 30 bf 91 fd 5f bf c7 d0 1c bf
       -0.109701544 -0.69098026 -0.87496287 -0.6125607
0001b0 5c e2 66 bf 85 c8 f4 be 7b 93 6e 3f 6a 9e 9b be
       -0.90189147 -0.47809234 0.9319379 -0.30394298
0001c0 d3 ed 14 3e b5 12 51 bf 7d 8b 3c bf ea 6d 03 bf
       0.14543848 -0.8166917 -0.7365034 -0.5133959
0001d0 3f b1 6b bd 24 39 4b bf de 00 14 bf 64 3b 42 bf
       -0.057542082 -0.79384065 -0.57813823 -0.7587187
0001e0 00 6c 00 3b 3b b7 86 be 4c cf a7 be 8b 6d 34 bf
       0.0019595623 -0.2631167 -0.32775342 -0.7047965
0001f0 db 2b 4f bf 7a ae cc be 3f dc 15 bf 0e c5 34 bf
       -0.80926293 -0.39976865 -0.58539194 -0.7061318

network.0.bias f4 [64]
000000 f4 b8 bc 3e e4 4b 3a be 7d f6 b9 3e 47 14 98 3d
       0.36859858 -0.18193012 0.36320868 0.074257426
000010 e5 79 73 be 15 7a f1 3e 92 4c 6d 3b c1 29 1c 3d
       -0.23776968 0.47163454 0.003620897 0.038125757
000020 20 2d 7a be 59 f6 33 bf 8c 9f 78 3d fe f8 a9 be
       -0.24431276 -0.7029777 0.06069903 -0.33197778
000030 ba cd 36 3e 53 8e 14 bf ad 84 54 3f 9b 9e 45 be
       0.17851916 -0.5802967 0.8301495 -0.19298784
000040 51 3c 1f 3e 8a 06 b1 bc 42 6e 33 3e 19 88 2f 3f
       0.15550353 -0.021609563 0.17522529 0.68567044
000050 f2 be 25 3f 7e 12 de be e5 93 f4 3e d2 1e c2 bd
       0.64744484 -0.43373483 0.47769085 -0.09478535
000060 86 31 65 3e 0c bb 85 be 7b 7b e6 3e 1d df cd be
       0.22382173 -0.26119268 0.45016083 -0.40209284
000070 42 ea c8 3e f1 c6 03 3f 45 cc 2c 3f 7d bb 23 bd
       0.39241225 0.51475435 0.6749919 -0.039973725
000080 27 b8 31 3f a8 5d c8 3e 20 6e 6f 3e 2e b3 ae be
       0.6942162 0.39133954 0.23381853 -0.34121078
000090 cf 53 0e 3f 14 e6 94 3d 7d 56 d0 be 13 d1 c3 3e
       0.5559663 0.072704464 -0.40690985 0.38245448
0000a0 de e5 9f 3e a2 4c 92 3b 4d 52 3b bc f6 28 96 3e
       0.31230062 0.0044647017 -0.011433196 0.29328126
0000b0 78 e2 4f 3e cd 09 2e 3e 01 de 5a be 37 50 95 3a
       0.20301235 0.16995926 -0.2137375 0.0011391704
0000c0 e3 81 2a be 4e ff 00 3f 50 0f c1 3e 3d 6b 2a bf
       -0.1665111 0.50389564 0.37706995 -0.6656988
0000d0 80 22 17 3f 47 86 7a 3e 93 9f f0 3d d4 63 bc bd
       0.5903702 0.24465285 0.11749186 -0.09198728
0000e0 a0 1c 3b 3f 9a 04 63 3e 40 a8 34 3f 50 fe 1c 3e
       0.73090553 0.22169724 0.7056923 0.15331388
0000f0 90 bc 3f be 63 ca cd 3e 7f bd 7d 3c 93 b0 0a 3e
       -0.18724275 0.4019347 0.015487074 0.1354392

network.3.weight f4 [32, 64]
000000 31 31 c3 3d df 9e 64 3d f3 83 0f bd 88 ec c2 bc
       0.09530867 0.055815574 -0.035037946 -0.023794428
000010 80 e5 64 bc 14 9c aa be 66 13 bf bc 4e 57 66 3c
       -0.013970733 -0.33322203 -0.02332468 0.014058901
000020 a6 2c 05 be 84 f2 3c bd 1a 49 e6 3e ce 7e 03 3e
       -0.13005313 -0.04612972 0.44977647 0.12841341
000030 e2 47 9b 3e 08 58 9a bd 5d e6 9b be 3e 5a 05 be
       0.3032828 -0.07536322 -0.3044919 -0.13022706
000040 e4 04 da be 30 10 a2 3d 7d 83 39 3c eb ea 87 be
       -0.42581856 0.07913244 0.011322853 -0.26546416
000050 00 f3 cf be bf 97 f3 be 98 29 ec be 4e ac cb 3d
       -0.40615082 -0.4757671 -0.46125484 0.09944974
000060 27 30 47 3a b2 c5 9f be 3b 55 57 3d e8 02 43 bd
       0.0007598423 -0.31205517 0.052571516 -0.047610193
000070 c8 16 a1 be 6e c5 86 3d d9 55 c8 be 44 62 2a bd
       -0.31462693 0.065806255 -0.39127997 -0.04159762
000080 42 c6 bb be 5b 21 7d 3d 71 93 02 3f 8f 81 aa 3c
       -0.36674696 0.06179939 0.5100623 0.020813731
000090 94 4b ed bd c9 2a a4 be 95 da 8d 3e 33 8c 91 3d
       -0.11586681 -0.32063892 0.27705827 0.07106819
0000a0 8b aa e5 3e 84 6e b0 3d e4 3d 2d 3d e5 91 49 3c
       0.44856676 0.08614829 0.04229535 0.01230285
0000b0 9e ac b1 bc 01 8f ea bd 5f 74 f6 be c5 bf b1 be
       -0.021688756 -0.11453057 -0.4813566 -0.3471662
0000c0 f8 26 fc 3c 34 2d 26 be 37 55 05 bc 50 54 93 bd
       0.0307803 -0.16228181 -0.008137993 -0.07193816
0000d0 31 41 ac be 1d a1 75 3e 4a 63 af 3e 6d 8c 01 3c
       -0.33643487 0.23987241 0.3425544 0.007907015
0000e0 31 3d 8c be bd ee 8a 3e 05 42 ab be b2 72 ac be
       -0.27390435 0.27135268 -0.33448806 -0.33681256
0000f0 68 ac b4 bc a0 9e 94 be ba 50 db 3e 7c 70 95 be
       -0.022054866 -0.2902727 0.42835027 -0.2918738
000100 00 22 9a bb 0b 8a 3c be 18 27 93 3d a6 ba b9 3d
       -0.00470376 -0.18412034 0.07185191 0.090688035
000110 02 e2 fa 3d e9 ad e1 be 4b d2 ad 3d 57 6e 45 bd
       0.12250139 -0.44077995 0.08487376 -0.04820093
000120 58 59 a8 3d d2 69 f0 3d 80 21 99 3e dc 39 b1 bc
       0.08220166 0.117389336 0.2990837 -0.021634035
000130 3b 26 96 3e 8c c1 d5 bd 54 90 93 3e 08 ae ff bd
       0.29326043 -0.10437307 0.2882105 -0.12484366
000140 21 95 a3 be 85 89 f4 3d 30 dc 7c 3d b3 b1 ec bd
       -0.31949714 0.11940292 0.061733425 -0.11557331
000150 9a 3c 8d be d6 9e e8 be 6d 13 82 be 9d 26 fa bd
       -0.27585298 -0.45433682 -0.25405446 -0.12214396
000160 ac af 65 bc b2 97 fb 3e a7 e3 df 3d 24 75 5d bd
       -0.014018934 0.49139172 0.10932093 -0.054066792
000170 40 62 71 be f5 75 bb bc cf d5 24 3e ae 6e c1 3d
       -0.23572636 -0.022883395 0.16097187 0.094449386
000180 07 47 1c bd 50 80 18 3c dd f3 a4 3e a9 c9 88 bd
       -0.038153674 0.009307936 0.32217303 -0.066790886
000190 5e bd b5 bd 58 3b 0c 3e 7e 0e 89 3e 50 54 9b bd
       -0.088740095 0.13694513 0.2676887 -0.07584441
0001a0 fd 1c 82 3e 28 b3 79 39 98 be 50 bd f3 62 fb bc
       0.2541274 0.00023813231 -0.050963014 -0.030686831
0001b0 b9 d9 bd 3c de 1a 17 bd a5 e1 01 bf d5 f8 70 3e
       0.023175107 -0.036890857 -0.5073493 0.23532422
0001c0 95 e8 9b bd 36 e2 9f 3e 7a 77 d3 3c 64 ab 07 3d
       -0.07612721 0.31227273 0.025813807 0.033122435
0001d0 85 3c 6e 3e 80 f4 64 3e e3 40 b9 3e 5e 91 54 3d
       0.23265274 0.22358894 0.36182317 0.051896445
0001e0 47 b3 0e 3e fe 3a a4 3e ac 6b c6 3e 18 7d da 3e
       0.13935576 0.32076257 0.38754022 0.42673564
0001f0 f4 a0 ab 3d 9c 61 df 3e a2 93 9e 3e 39 ae e9 3e
       0.08380309 0.43629158 0.3097201 0.45640734
000200 41 03 1d 3d 70 02 46 3e 89 91 a7 3e 3f f0 b0 3e
       0.03833318 0.19336867 0.32728222 0.34558293
000210 ca 43 c1 be a5 4b 04 3e 64 72 86 be 67 23 d0 be
       -0.3774703 0.12919481 -0.26259148 -0.4065201
000220 88 8b b0 be 88 3b fd bc 75 b8 59 3e 2d 19 9e 3e
       -0.34481454 -0.030912176 0.21261771 0.30878583
000230 d6 97 3c 3d 8c 5e cd bd b8 17 39 3d b6 c0 cd be
       0.04604324 -0.10027799 0.045188636 -0.4018609
000240 ee c0 f1 3d 4c df cb 3e 9e b4 d0 3d 89 d1 8d 3e
       0.118043765 0.398188 0.101907 0.27698925
000250 40 f4 53 3e b7 7d 10 3f e1 86 d5 3c 00 0a b9 be
       0.20698643 0.56441826 0.026065292 -0.36140442
000260 bd 4a b1 be 20 44 c1 3d e0 33 86 3e a5 a4 ae bd
       -0.34627333 0.09436822 0.26211452 -0.08527497
000270 d3 e7 97 3d 18 1d 39 be c6 cc 2a 3d 7e 60 87 be
       0.07417264 -0.18077505 0.041699193 -0.26440805
000280 5d d3 7d 3e 2c 1a e4 bd a2 00 86 3d 01 14 83 be
       0.2478766 -0.111378044 0.065430894 -0.256012
000290 91 0e 2c be 93 e2 2c 3e f4 25 14 3d 33 8f 87 3e
       -0.16802432 0.16883306 0.036169007 0.2647644
0002a0 0a fa f1 3d 16 bc bb be 50 22 ca be a7 79 5b be
       0.11815269 -0.36666936 -0.39479303 -0.21433125
0002b0 f7 e5 85 3e 31 58 8d be 4a 34 b3 3e 9d 02 e4 3d
       0.26152012 -0.27606347 0.3500083 0.11133311
0002c0 eb 19 b5 be cc c9 5a 3e d8 0d b5 3e 1e b1 93 3d
       -0.35371336 0.21366042 0.35362124 0.07211517
0002d0 4e 4d df bc 4e d4 cf 3d 06 ad b8 3d 0b a3 7e be
       -0.027258541 0.10147916 0.090173766 -0.24866883
0002e0 aa 9a 2a bd be 92 18 3e 58 4e f9 3d d5 ec 13 3e
       -0.041651405 0.14899728 0.12173146 0.14445813
0002f0 5e 2a ab 3d 80 a7 8f 3d 3c 1a 6e 3e fe 1f c4 3e
       0.0835769 0.0701437 0.23252195 0.38305658
000300 44 06 e2 3d b4 91 a5 3e 6c 63 f2 3d 8d 5e c7 3d
       0.11036351 0.32337725 0.118353695 0.09734831
000310 f3 16 3e be a2 d7 f8 3d 25 15 65 be af e3 be be
       -0.18563442 0.12150504 -0.22371347 -0.37283084
000320 96 a8 45 be 3c 23 7b 3d 00 c6 b2 bc a2 73 01 3e
       -0.19302592 0.0613129 -0.02182293 0.12641767
000330 3c 65 ed bd 50 83 5d 3c 05 09 49 be 2a 76 a9 be
       -0.115915745 0.013520077 -0.19632347 -0.33097965
000340 03 a8 22 3e c6 26 62 3e 11 32 1d 3e bb ed a3 3d
       0.15884404 0.22085103 0.1535113 0.08004328
000350 89 86 e5 3c aa b9 91 3e 04 c6 ee 3d c5 6e ac be
       0.028018253 0.28461963 0.11658862 -0.3367826
000360 85 99 b8 be 08 16 88 be 38 ef ba 3d 63 63 85 bd
       -0.36054626 -0.26579309 0.091276586 -0.06513097
000370 19 a8 a5 3e 05 73 40 be 1f 73 8b be 19 9d cb be
       0.3235481 -0.18793876 -0.27236268 -0.39768293
000380 da b1 13 3e 61 f6 55 be e3 17 3b be 0d 2b bd be
       0.14423314 -0.20894767 -0.18270831 -0.36946908
000390 13 40 64 be 62 2b 7a be dc 76 af 3c d5 08 2c 3e
       -0.22290067 -0.24430612 0.021418981 0.16800244
0003a0 a6 3b 6a bd 8f 4e 89 be df 4a ae be f8 23 b6 be
       -0.05718579 -0.26817748 -0.34041497 -0.35574317
0003b0 60 ca 1f 3e ea c3 b3 be e1 7e b6 3e ae c7 88 be
       0.15604544 -0.35110408 0.35643676 -0.26714844
0003c0 06 69 b4 be b0 08 b5 bd c1 b4 a9 3d ee cb a1 3d
       -0.35236377 -0.08839548 0.08286429 0.079002246
0003d0 db 11 ad be 77 b9 99 bc 11 d6 09 bd ec 81 82 be
       -0.33802685 -0.018765194 -0.033651415 -0.25489748
0003e0 fe bc bd be e4 c4 de 3c 3f 73 aa be fd 95 3d be
       -0.37058252 0.027193494 -0.3329105 -0.18514247
0003f0 96 23 f6 3d 49 2b 87 be fe 61 3f be 45 f0 12 be
       0.12018506 -0.2640021 -0.18689725 -0.14349468

network.3.bias f4 [32]
000000 36 b3 67 3c 4c cc 9b 3c 76 fd 8a 3e 33 00 10 3e
       0.014141848 0.019018315 0.271465 0.14062576
000010 05 ec e8 3d fe 8e 17 bd 87 d9 4e 3d ba 83 8c bc
       0.11373142 -0.037001602 0.05050042 -0.017152656
000020 b7 b4 77 3d c8 fa db 3b aa e8 f6 bd 7c 8c 4a bc
       0.060475077 0.006713245 -0.12056096 -0.012362596
000030 06 68 f6 3c 1b 3d f3 bd f7 74 85 3d 6a f1 97 3e
       0.0300789 -0.11876889 0.0651645 0.29676372
000040 fe 88 9d 3d 4e d9 86 3d c1 4e 64 3d 76 57 98 bd
       0.07692145 0.06584416 0.055739168 -0.07438557
000050 bd 1d 1f 3e dd 0d dc 3d b0 b7 b5 3e 62 e8 59 bc
       0.15538688 0.10744832 0.35491705 -0.013300033
000060 3f 85 0c 3e bd ab 6d bd 95 8b 0a 3d 43 0c 2f 3c
       0.13722704 -0.05802511 0.033824522 0.010684076
000070 8c c9 b7 3e 35 a9 98 3e 9a 3e 09 3c 27 2d a0 3e
       0.35895956 0.29816595 0.008376742 0.31284449

network.6.weight f4 [16, 32]
000000 f7 7a 7e be ab 90 11 be 17 46 52 bd f8 83 0c bd
       -0.24851595 -0.14215343 -0.051336374 -0.034305543
000010 53 22 32 be 37 c5 86 3d f6 1a e5 3d ca ac cd be
       -0.17395906 0.065805845 0.11186783 -0.4017089
000020 26 db 9d be f3 4e c0 be 95 76 09 bf 34 ce c6 3e
       -0.3083126 -0.37560233 -0.53696567 0.38829195
000030 0e b2 10 be 14 70 b0 be f1 3c c1 3e 20 61 36 3d
       -0.14130422 -0.3446051 0.37741807 0.04452622
000040 72 92 a2 3e d9 8c 94 3e 7a 66 7f 3e 4d 9d 8b 3b
       0.31752354 0.29013708 0.24941435 0.004260695
000050 eb 6a 94 3d f9 6f 47 3e 48 a0 32 3e 96 d8 2a 3e
       0.072469555 0.19476308 0.17443955 0.16684183
000060 51 83 d8 3e 16 d7 77 3d 03 d2 bd be 02 ca 2d 3e
       0.42287686 0.060507856 -0.3707429 0.16971591
000070 dc 8c 7d 3d 43 d0 ff 3d 60 58 ea bc 44 32 c5 3d
       0.061901912 0.12490895 -0.028606594 0.09628728
000080 f5 07 85 3e e3 59 eb 3d 33 e5 a1 bd ac 53 5c be
       0.25982633 0.11491754 -0.079050444 -0.21516293
000090 81 02 62 3e f0 8c a4 3e ea 59 c8 3e fb 29 47 3e
       0.22071268 0.32138777 0.391311 0.19449608
0000a0 09 91 67 3e 68 c6 97 3e ff 0f cb 3e 71 47 26 bf
       0.2261392 0.2964356 0.39660642 -0.6495276
0000b0 7a cf b1 3d ab d4 a1 3d 12 50 cd 3d 8d 9e 56 be
       0.08682151 0.07901891 0.10025038 -0.2095892
0000c0 9a cf dd 3d 1b 4d 52 3e 33 71 b9 3e 8f 19 09 3f
       0.108306125 0.20537226 0.36219177 0.53554624
0000d0 4e 8b 2e 3e 7e 77 61 3e 8c 41 1b be af fe ca 3e
       0.17045328 0.22018239 -0.15161723 0.39647433
0000e0 71 ad a8 bc 55 a5 60 3e 0a 63 8f 3e 55 76 da 3d
       -0.020590516 0.21938069 0.28005248 0.10667101
0000f0 d0 fd 60 be 41 f9 c5 3d 9c 1a b3 3e b9 cb 12 be
       -0.21971822 0.09666682 0.3498124 -0.14335527
000100 bc 58 c8 3e 78 0c 17 3e e8 38 3c 3e 83 85 ac 3e
       0.391302 0.1475085 0.18381083 0.3369561
000110 1e c0 29 3e 68 30 e4 bd 79 63 e1 bd 8d 15 a8 3d
       0.16577193 -0.11142045 -0.11005301 0.082072355
000120 84 ef 4d 3e f2 10 7a 3e 1b 46 09 3e a4 97 c9 bc
       0.20110899 0.24420527 0.1340565 -0.02460844
000130 05 0c a9 3e f4 e3 ba 3d 1b 5c 28 be 62 16 9b 3e
       0.33016983 0.0912551 -0.16441385 0.30290514
000140 aa 71 53 bd 1d 6e 97 bd 0d 65 5f be 9b 11 1b 3e
       -0.05162207 -0.07394049 -0.21815892 0.15143435
000150 f2 c7 ac 3e 8f f1 8c 3e ee 58 93 3e 0a 7e b9 bd
       0.33746296 0.27528045 0.28778785 -0.09057243
000160 ae e2 b6 3d d6 b4 ff be e7 bc e8 3e 1a 6e 0f be
       0.089299545 -0.49942654 0.4545662 -0.14006844
000170 c0 ce f2 3e f5 f6 d0 3e 0d c9 3e 3d 6b cb c9 3e
       0.47423363 0.40813413 0.046578456 0.39413008
000180 54 9c d7 be 2d 64 bb bb cd 50 4a 3e cc 37 c2 3d
       -0.42111456 -0.005718729 0.19757386 0.09483299
000190 4b 2d de be 7a 03 5e 3e 6d f2 d8 be c2 fa 14 be
       -0.4339393 0.21681014 -0.42372456 -0.14548782
0001a0 57 82 5a be cd 61 3a be a8 1a ca be 5d 71 ed 3e
       -0.21338783 -0.1820137 -0.39473462 0.46375552
0001b0 2d b5 93 be d1 60 39 be 0f 60 ff 3d 46 38 0d 3c
       -0.28849164 -0.18103339 0.124694936 0.008619374
0001c0 58 c3 a4 3e 12 ff 9d 3e 19 b3 bb 3e fa 9d b3 be
       0.32180285 0.30858666 0.36660078 -0.35081464
0001d0 42 76 08 3e 7d e5 30 be 4a f4 10 bc 99 25 ad be
       0.13326362 -0.17275043 -0.008847306 -0.33817747
0001e0 d1 e2 33 3e 7a 15 bf be 10 eb f3 be a1 f4 1f 3e
       0.17566992 -0.37321073 -0.47640276 0.15620662
0001f0 38 89 8c 3e ac 35 37 3e d6 15 af be 9a 5f 1d 3d
       0.2744844 0.17891568 -0.34196347 0.03842125
000200 36 e8 62 be e7 b6 88 be 0c b8 15 3e c1 96 6b 3e
       -0.22158894 -0.26702043 0.1462099 0.23006727
000210 46 a8 c7 bd ff a9 4c bb b3 e1 d5 3c 95 11 08 be
       -0.097488925 -0.0031229255 0.026108598 -0.13287957
000220 be 48 41 be 9e 65 a6 bd fc 14 83 be e0 2e aa 3e
       -0.18875405 -0.08124851 -0.25601947 0.33238888
000230 47 b9 4b 3d 40 a5 80 bd fd 86 b5 3d 1b 9a dc 3d
       0.04973724 -0.06281519 0.088636376 0.10771581
000240 b2 48 d4 3d f5 a1 11 3e 3a cc b5 3d c8 51 ce bd
       0.10365428 0.14221938 0.08876844 -0.10074192
000250 cf b4 4e be 0d 34 14 be 7d 67 e3 3d cf 0a 1d bd
       -0.2018616 -0.14472981 0.11103723 -0.038340386
000260 cd 62 6f 3e f0 00 77 3d ed 7b 34 be a8 9c 39 3e
       0.23377533 0.06030363 -0.17625399 0.18126166
000270 f8 a8 26 3e 6b 69 0a 3c 61 55 c8 bd 48 67 a7 bd
       0.16275394 0.008447985 -0.0978191 -0.08173996
000280 4e a4 02 bf 28 ec 35 be 1d 89 8a be fd c0 11 3e
       -0.5103196 -0.17765868 -0.27057734 0.14233775
000290 67 e1 40 bd e8 94 62 3e d7 36 7d 3e 10 f2 b9 be
       -0.04708996 0.22127116 0.24727951 -0.36317492
0002a0 7d 85 67 be a4 02 96 be 9d f4 ba be 37 98 ab 3d
       -0.22609515 -0.2929889 -0.3651475 0.08378642
0002b0 ee 7c 33 be 25 e6 bc be 7f 9e 75 3e ab da 03 3e
       -0.17528126 -0.36894336 0.23986243 0.12876384
0002c0 f6 02 93 3e ff a7 5e 3e 53 8d d7 3d e6 f5 8b 3d
       0.28713197 0.21743773 0.10525002 0.06834011
0002d0 fc c1 98 3e 5a 37 7a 3e dc da c9 bd 6d b0 56 bd
       0.29835498 0.24435177 -0.09856197 -0.052414346
0002e0 29 5b c6 3e b0 4c 8c 3e 44 26 63 be 20 94 22 3e
       0.38741425 0.27402258 -0.22182566 0.15876818
0002f0 aa 3e 07 3e 4d b4 0a bc a0 0e 5e 3e 0f 00 8f 3e
       0.13207498 -0.008465839 0.21685266 0.27929732
000300 a1 d6 bb be 2f 8e 93 be 04 f1 9e bc db f4 65 bb
       -0.36687186 -0.28819415 -0.019402035 -0.0035088572
000310 a8 73 4a 3d 62 ba 9a 3d cd 8c c5 3c fc 89 d4 be
       0.049426705 0.07555081 0.02411499 -0.41511524
000320 d8 6d 8c be f8 ff a6 be 85 75 11 bf ab ad f9 3d
       -0.27427554 -0.32617164 -0.56819946 0.12191328
000330 ef 96 ae bd 76 05 5b be b5 c0 be 3e b4 bc 31 bd
       -0.08524882 -0.21388802 0.372564 -0.043392852
000340 f7 fb eb 3e f4 e5 41 3e 67 cf 73 3e 81 b5 a5 bc
       0.4609067 0.18935376 0.23809586 -0.02022815
000350 73 e0 48 3e df b2 52 3e bd d1 36 3c d8 0d 37 3e
       0.1961687 0.20576046 0.011158404 0.17876375
000360 3c 17 fd 3e d2 ee 43 3e da 6f 97 be b9 77 17 3f
       0.4943179 0.19134071 -0.29577523 0.5916706
000370 fd 81 a2 3d af f4 6f 3d a1 ed 09 bc a9 d0 2f 3e
       0.079349495 0.058582958 -0.008418472 0.17169441
000380 ec b9 94 be f5 81 41 be ac 1b 43 3d aa d3 64 3d
       -0.29048097 -0.18897231 0.04763381 0.05586592
000390 c2 eb d7 bc ea 94 40 3e 1b 48 ec bd f0 b0 9c be
       -0.026357535 0.18806806 -0.115371905 -0.30603743
0003a0 66 4b 94 be 50 10 d1 be c1 73 0a bf e5 b5 c9 3e
       -0.28963774 -0.40832758 -0.54082876 0.39396587
0003b0 ea b0 74 be f8 d7 8d be 69 e2 40 3e 9a 4d 4e 3e
       -0.23895612 -0.27703834 0.18836369 0.2014679
0003c0 8a 0f a6 3e 5a 45 a9 3e 44 58 99 3e 74 6d 52 be
       0.3243373 0.33060724 0.29950154 -0.20549566
0003d0 46 51 be 3d 05 06 20 3e 43 3f 58 3e e5 32 ac bd
       0.092928454 0.15627296 0.21117882 -0.08408145
0003e0 50 41 ee 3e e2 42 09 3c 58 33 d8 be ab 20 f0 3e
       0.46534204 0.0083777625 -0.42226672 0.46899924
0003f0 07 9a 85 3d dc 07 4b 3e 81 32 c6 3c db 21 af 3d
       0.06523519 0.19827217 0.024194004 0.08551379

network.6.bias f4 [16]
000000 9c 8f a0 3d 75 5d 74 3d 53 63 b9 3d f7 d8 7d 3e
       0.07839891 0.05965944 0.09052148 0.24789797
000010 0c 45 3f bd ef 55 8b 3b 90 4a a5 bc 34 1f ed 3c
       -0.046696708 0.0042521874 -0.020177156 0.028945543
000020 bd e5 58 3d 52 c6 1e 3e ab 79 56 3c 1d 1d 2c bd
       0.05295347 0.1550534 0.013090531 -0.042019952
000030 21 49 9f 3e d9 a4 c2 3e b8 b7 1a 3d 54 7f 57 3d
       0.3111048 0.38016394 0.037772864 0.052611664

network.8.weight f4 [4, 16]
000000 aa 77 c5 be ac d7 a8 3d 92 ad e9 3e 8e fc 06 bf
       -0.3856786 0.08244261 0.45640236 -0.5272912
000010 9f 77 ec bd 07 e2 0f bf 8f 26 20 bf da e9 dd be
       -0.115462534 -0.56204265 -0.62558836 -0.43342477
000020 29 b8 07 3f 75 ed 86 3e e8 6e bf bd 9b 14 0d bf
       0.5301538 0.2635304 -0.093473256 -0.55109566
000030 f5 50 f1 be 00 0a 87 3e 0b ca ca be 62 38 c4 be
       -0.47132078 0.26374817 -0.39607272 -0.38324267
000040 6b 81 7a 3e 04 d1 00 bf 3e e1 6f bc 58 79 f6 3e
       0.24463432 -0.5031893 -0.014641104 0.48139453
000050 2c 4e 5a 3e 36 8b 0a bc 9d 06 36 3e 5c e0 bf 3e
       0.21318883 -0.008456042 0.1777596 0.3747586
000060 0b f9 1e bf 88 d9 1b 3e 2b cb e9 bd 20 ce 97 be
       -0.6209876 0.152197 -0.11415704 -0.29649448
000070 57 03 19 3f 6a 5a b7 bd 76 cf fc bd bf 8a a1 be
       0.5977072 -0.08952792 -0.123442575 -0.31551167
000080 06 db ec be b2 f9 a2 3e b3 5e df be b8 dc dc bd
       -0.46260852 0.31831127 -0.43626937 -0.10784286
000090 4a e3 ca 3b 3b ab dd be 3c df 13 bf 1e f2 1f be
       0.0061916457 -0.432947 -0.57762504 -0.15619704
0000a0 4d 6d ac 3e d3 e7 a0 be d8 3c da 3e c1 83 b8 3e
       0.3367714 -0.31426868 0.42624545 0.3603802
0000b0 08 d1 f4 bd b1 ee c7 be 6d 52 b9 3e 45 58 af 3e
       -0.11953932 -0.39049295 0.36195698 0.34247032
0000c0 12 64 8f 3e 54 bb de 3e 7f f5 fc be 9d 0e d4 bd
       0.28006035 0.43502295 -0.4940605 -0.1035435
0000d0 95 e0 fc bd 2d 3b 5e 3e 16 20 dd 3e 06 bc 99 3e
       -0.12347523 0.21702261 0.43188542 0.30026263
0000e0 e4 2c 1e be 5a de 17 bf d0 e9 93 be 9d 2c 0c be
       -0.15446812 -0.59323657 -0.28889322 -0.13688894
0000f0 a5 24 dd be 8b 20 05 bf fa a6 f8 3e e4 c7 f8 bd
       -0.4319202 -0.5200278 0.48564893 -0.12147501

network.8.bias f4 [4]
000000 41 13 c1 bd 43 da 3f 3e c5 de 59 3b a2 20 5f be
       -0.094275005 0.18735604 0.0033244353 -0.21789792
